app/src/main/assets/asthma_model.tflite (tflite, 5160 bytes, 5 tensors)

arith.constant f4 [1, 16]
00000000: d862 50bb f39c 9ebe c9f7 fabe be5a 8cbe
00000010: f5bb d6bd efb3 5fbd 8c77 343f e243 06bf
00000020: 662e 0ebf feaf 1e3f 1fe8 e63e 13ee 23bf
00000030: 038b e83e d903 a2be 0097 32be 5557 9cbe
-0.0031797197 -0.30979118 -0.4901717 -0.2741298 -0.10485069 -0.054614957 0.70494914 -0.5244733
-0.5553955 0.6198729 0.4509897 -0.6403515 0.45418558 -0.3164356 -0.17440414 -0.3053538

arith.constant1 f4 [16, 32]
00000000: 0151 47be 7cb9 83be 0754 883e 4aab 2e3e
00000010: e419 a3be 4f3f 37bd 12a9 92be 6a0f 263e
00000020: 20d9 83bc 2a89 0f3d 54a8 7cbe 35bc 6d3e
00000030: 382d 373e 0271 0abe a74c 483d 212e 82bd
00000040: 3d85 803d ce53 8d3e a8a6 9c3e 00f4 a53d
00000050: 56fe e0bd 27be 533d b8f8 4fbd f90a ba3e
00000060: 897a 623e d0b5 3f3e 9242 74be b424 db3d
00000070: 09ed cfbd 0879 4c3e e461 81be 524f 19bd
00000080: 2ab0 82be d9c0 b9be fe0d efbc dd25 fc3c
00000090: c5a5 ddbe d0c8 c63d dc87 9f3e 976c 22be
000000a0: ffb2 b3be 2404 b03d 00f5 843e 27fb 7bbe
000000b0: 17be 893e ae97 a13d 6629 a23e 9a43 2abe
000000c0: e897 8c3e bcf7 a13e 9d0d 0f3e bfa0 40be
000000d0: 85fb 9bbe 09d3 51bd cd03 dd3c 8941 fdbe
000000e0: dd6e 293e 8e90 ca3d db64 d0bd 4781 7c3e
000000f0: 8c60 6b3d 66cd 163e cd7a 653d f97b dd3e
00000100: 3c9c 2f3e 0409 c63d 123c 77be c6d2 8dbe
00000110: 96b0 aebd 9dfb 8e3d d15b 603e a56f 133d
00000120: 1eac d0be c321 4abe 65c9 b73e 1ea5 7dbe
00000130: 8197 223e ac99 d0bd a77c d53e 5fa7 0d3e
00000140: afe7 6abe 3994 70be 5c69 efbc b399 0a3e
00000150: 56a1 483d 39d7 2cbd 9c9a 203e 1240 d3be
00000160: 7b2d fc3d 929b 22bd 0fc3 e33d f8c6 673e
00000170: cc06 083d aac5 ee3d 1f38 0dbe 0499 c43e
00000180: 6b2b eebe 325a e73d d5ae b4be c1b7 063e
00000190: d203 c2be 6d3b b83d ca5e 47be 56ea ae3e
000001a0: 2185 033d 9cc6 1ab9 750c 913e 4bb8 ae3e
000001b0: 9efb 92bc 0b60 19be e2c2 4fbe 3c90 8c3e
000001c0: a307 cc3d 7161 d43e 14f2 813e 3026 8e3d
000001d0: d6fc 2c3e 130f ad3e 14eb d93d dad2 873e
000001e0: e178 bbbe 6978 cdbd 6009 b23e ef81 253e
000001f0: e428 9fbe 7d9b a23c 6aeb a1be cebe 6a3d
00000200: 9198 c23d 161b 283e b2a9 313e 42ab 5dbd
00000210: 3b16 32bd 8140 9b3e b01b 62bc bc35 a0be
00000220: 0537 cc3d 32eb 51be 937d 64be 1354 84be
00000230: dc48 e1be 5ab2 a93c ac26 43be 7fe3 40be
00000240: 0dca ad3d 0f74 18be 498c 3d3e 5582 28be
00000250: bd0e 3f3d c069 82bb f591 093e 4c35 95be
00000260: 97fa 0fbe e30a a53e 0e61 93be 574c 53be
00000270: b128 dbbd 9b31 38be a93a 7b3e b89c 923e
00000280: dcf7 823e d2d4 1abb 5d30 a23e ea96 66be
00000290: e44a 7c3c 1227 ecbd 0ae7 363e 84bc 5fbe
000002a0: 571e cfbe 4eed e5be a1d3 223d ca45 d23e
000002b0: 98bf 8fbc 2269 95bd f680 903e 0f1c f33d
000002c0: 5e04 29be 871f fabc 125d 75be 6db8 f83e
000002d0: ffac adbd a827 c53e 1085 b9be 8a66 88bb
000002e0: 2a45 223d 1f52 7f3e 2857 883e d781 88be
000002f0: ed16 333e 095b e7bc ab02 00be 688d 60be
00000300: 3e98 d93e 1966 a83e c0ab 5c3e 7eb1 1d3f
00000310: 7862 743e c6c6 843e 0ceb 7c3e d49d 8b3d
00000320: 47e7 d33e ee5b 023e e648 52be 1863 a3be
00000330: 5bde 0e3f 92aa e93d f99f 9f3e 4980 1dbe
00000340: 63c0 aa3d 5f8e 03bf 4554 603e e8e0 e8be
00000350: 6939 c3be 9dc5 08be 3172 17be f268 473c
00000360: 3d39 36bd 8d31 3a3e 2d57 763c 8c83 4bbe
00000370: f790 a8bd 80db 92bd f712 d03d 4791 0dbf
00000380: 3316 863c 9358 6fbe 7542 7fbd 290c 973d
00000390: a48d 693d 5af2 0bbe 1c86 f73d ce00 4bbe
000003a0: a762 5f3c a9fb b6be 448f 9b3e 9c0e b5be
000003b0: bf5b 0f3e bc11 42bd 6c09 653e 1f98 1dbe
000003c0: 0740 6dbe fce2 b43e 5702 ccbd 1558 08be
000003d0: 5034 81be 8499 803e 43c7 353e aa87 11bf
000003e0: f7ea 273e eaa1 c33e 92fe 7bbe 603a 71be
000003f0: eecc 57be a97c 863e 4d8b 69bd 5665 913e
-0.19464494 -0.2572745 0.26626608 0.17057529 -0.3185569 -0.04473811 -0.28644615 0.16216817
-0.016094744 0.03504292 -0.24673587 0.23216327 0.17888343 -0.13519672 0.048901226 -0.06356455
0.06275413 0.27603 0.305959 0.0810318 -0.10986011 0.051695015 -0.050774306 0.36336496
0.22117056 0.187217 -0.2385352 0.1070036 -0.10152633 0.19968045 -0.25269997 -0.03742916
-0.25525028 -0.36279944 -0.029181477 0.030779773 -0.43290535 0.09706271 0.3115834 -0.15861736
-0.350975 0.0859454 0.2596817 -0.24607526 0.2690284 0.07890259 0.3167221 -0.1662735
0.27459645 0.3163432 0.13970037 -0.1881132 -0.30465332 -0.05122665 0.026979351 -0.49464062
0.16546197 0.09890853 -0.10175487 0.2465869 0.05746512 0.14726791 0.056025315 0.43258646
0.17149442 0.09669688 -0.24144009 -0.2769987 -0.08529775 0.06981585 0.21910025 0.035995144
-0.40756315 -0.19739442 0.3589584 -0.24770018 0.15878107 -0.101855606 0.41696665 0.13833378
-0.22939943 -0.23494042 -0.029225044 0.13535194 0.048981987 -0.04219744 0.15683979 -0.4125982
0.12313362 -0.039699145 0.11121189 0.22634494 0.033209607 0.11658795 -0.1379094 0.38397992
-0.465175 0.112965 -0.35289636 0.13156034 -0.3789354 0.089957096 -0.19469753 0.3416316
0.032109383 -0.00014760572 0.28329816 0.3412498 -0.017942246 -0.14978044 -0.20289186 0.27453792
0.09962394 0.41480592 0.25380003 0.069408774 0.16893324 0.33800563 0.10640541 0.26528054
-0.3661566 -0.10032732 0.34772778 0.16162847 -0.31085885 0.019849533 -0.3162492 0.05731087
0.09501756 0.16416582 0.1734989 -0.054118402 -0.043478232 0.3032265 -0.0138005465 -0.31290996
0.09971432 -0.20499876 -0.22313528 -0.25845394 -0.440009 0.020714927 -0.19057721 -0.18836783
0.08485804 -0.14888023 0.18510546 -0.16455968 0.046644915 -0.0039798915 0.13434584 -0.29142225
-0.14060436 0.32234868 -0.28784984 -0.2063459 -0.10701121 -0.17987673 0.24534096 0.28635192
0.25579727 -0.0023625386 0.31677523 -0.22518507 0.015398715 -0.115308896 0.17861572 -0.21849257
-0.40452835 -0.44907612 0.039752606 0.4106887 -0.017547414 -0.07295443 0.2822339 0.11870586
-0.16505572 -0.030532612 -0.23961285 0.48578206 -0.08480262 0.38506818 -0.3623433 -0.0041626142
0.03961674 0.2493367 0.26628995 -0.2666156 0.17489214 -0.028241651 -0.12501018 -0.21928942
0.42498964 0.32890394 0.21549892 0.61598957 0.23865688 0.25932902 0.24699038 0.06817213
0.41387388 0.12730381 -0.20535621 -0.3191154 0.5580804 0.11409487 0.31176737 -0.15380968
0.08337476 -0.51389116 0.21907146 -0.4548409 -0.38129738 -0.13356633 -0.14789654 0.012171017
-0.04448818 0.18182965 0.015035433 -0.198744 -0.08230775 -0.071707726 0.10159867 -0.552998
0.016368007 -0.23373632 -0.062319238 0.07375366 0.057019845 -0.13666669 0.12086126 -0.19824526
0.01363436 -0.35738876 0.3038274 -0.3536271 0.13999842 -0.047380194 0.22366875 -0.15390061
-0.23168956 0.35329425 -0.09961384 -0.1331485 -0.25235224 0.25117123 0.17751794 -0.5684763
0.16398226 0.38209468 -0.2460883 -0.23557425 -0.21074268 0.26266983 -0.057017613 0.28397626

arith.constant3 f4 [16]
00000000: d0a0 0ebd 4727 1b3d 48cf a43d 9a25 343d
00000010: 9240 80bd 4ddc fdbc acda d73c 929a aa3d
00000020: 6ecc 51b9 e1e4 c53d dc60 f73d fe52 053d
00000030: 47fd 233d 29d2 143d e11b 783d df75 26bc
-0.03482133 0.037879255 0.08047348 0.043981172 -0.06262316 -0.030988837 0.026349388 0.08330263
-0.00020007949 0.09662796 0.12079021 0.03254985 0.040036466 0.036333237 0.060573462 -0.010159939

sequential_6_1/dense_18_1/BiasAdd/ReadVariableOp f4 [32]
00000000: 392c c53d 78bf b03d 1c76 0f3e a195 c23d
00000010: 406d 1e3e 3ac1 cdbc 0ee9 8b3d c2c7 dfbc
00000020: a5c7 e93d dae9 e63c f891 053e 2f19 193d
00000030: 6169 a23c 4c60 163d 106a ff3a b003 0bbd
00000040: 0277 e83d b351 d63d 9933 9bbc f26e 923d
00000050: a185 973c c075 89bd 0bf7 493e d0cf 073e
00000060: cf42 723d 9cd3 4e3c 72a0 75bb e763 9d3c
00000070: b6b5 3a3e ef40 9f3c 81e5 0abd bc01 f63d
0.096275754 0.0863027 0.14009899 0.09501196 0.15471363 -0.025116552 0.06831561 -0.027316932
0.11415032 0.028187681 0.13043964 0.037377533 0.01982564 0.03671293 0.0019486565 -0.033939064
0.11350824 0.10464802 -0.018945502 0.071500674 0.018496336 -0.06711912 0.19723146 0.13262868
0.059145745 0.012623694 -0.0037479666 0.019212676 0.1823338 0.019440142 -0.03391028 0.120120496

sequential_6_1/dense_18_1/MatMul f4 [32, 6]
00000000: 60da ea3e f57e 0c3d 4118 8ebe ca13 32bd
00000010: 8665 a6be 632a 343e 8ac4 25be fb2e 95be
00000020: 104f 42bd dd72 153e 03a1 443e aec6 a33e
00000030: 3623 abbd 3405 ccbd c113 bfbd c13a 253e
00000040: 1262 1fbd 2e41 e63e 649f 52be 4e5c ddbd
00000050: 1af8 453e b019 e5bd 71bc 99be ce06 bf3e
00000060: 9a13 9dbe 845b 5c3e 2ece 243e 1e8b debd
00000070: 41b3 ed3d d1af 193f 0157 c6be f8a7 663d
00000080: 0fd2 553d 7e40 b1be 6c4c b03e a7e9 9abe
00000090: c9e4 443e aaa9 87be 0ba6 8d3e 1f2b 3fbc
000000a0: d854 923e eef7 d03e 2dd4 673e 1cf9 6abd
000000b0: 00d1 1a3f 2163 34be bc53 88bd 4466 a4be
000000c0: be21 52be 0809 babd d83c a53e dac9 0ebc
000000d0: ba8a 88be 6042 253f 34c7 c1be b379 9bbe
000000e0: 8185 ac3d 262a 823d 6171 92be 76ee 7d3e
000000f0: 1295 963e 846a 2c3e c3a6 813e 728d 183e
00000100: 927d 893e 1443 b1be 0400 adbe 659c 86be
00000110: 3cf1 abbc 1ab6 893d 0a0b db3e 9cb5 6cbe
00000120: 53fb 25bc 3459 94be ab21 c13e f583 03be
00000130: 1269 1fbe 6d65 f13e ad56 09be f54f 1cbd
00000140: 989e 89be 1319 92be 9f8d 1a3e 5998 e13e
00000150: 1478 b8bd ba05 31be b179 0e3f cc3c 76be
00000160: 500e f8b9 b953 81bd 205c 363d dd94 4e3e
00000170: c05b a73e 0668 563d 8b2d a63e d131 543d
00000180: d724 8a3e 926b 673e ca19 f4bd e999 ff3c
00000190: c5d5 913e 539f b13e c03a 92be 4ad6 e5bc
000001a0: 6d0c 80be d193 063d 2738 da3d 9a3f e8be
000001b0: 5ef1 36be eb06 dd3d 3547 353e e0e3 4dbe
000001c0: b4ef b4be 791b 91be c2a5 e2be 75ac 0bbe
000001d0: c389 47be e093 683e 8297 a03e a876 cdbe
000001e0: e03d 81be 511d 82be b931 9bbe fd4a 9abe
000001f0: e229 9bbe 5f77 3cbe 325c 94be caa4 9d3e
00000200: 714e 1fbd d7e3 ff3c 6e5f a9bd 3018 90be
00000210: 43fc a3be 9fe4 863e cff2 cf3d 0d85 e13e
00000220: bec8 f2bd 325b cd3e 077d 6bbd eedd 5abe
00000230: 7898 f0be 5de9 bebe 161c ac3e 8690 c33e
00000240: ddb5 933e 4253 2bbe 378f 5ebe 9f00 60bd
00000250: b91b cbbd 737e 8d3e 9f93 403e dc18 2f3e
00000260: 0f3d 84be 4813 883e 7b35 d2be 768f 75be
00000270: 3dfd ecbe 54ff 85bd 2900 d33e cc65 943d
00000280: 61fa cd3e ff4e 93bc 78ac 253d e50f 9ebe
00000290: f586 b73e 461a 03be 8d76 84be 5934 5c3c
000002a0: 18a0 ce3e 91dd 81bd e1e3 2ebe dd36 2ebd
000002b0: e2db 6cbd f69d 263e b322 a13e f8e0 9c3e
000002c0: eaff d3bd 12db 833e 8237 a3be 0919 c5be
000002d0: ca48 8bbe 5006 583e df59 d8bd 0f33 06be
000002e0: 9c09 4cbc c289 963e 274c 043e 95c5 2bbe
000002f0: 1885 a9be b6de b23e 8f80 89be 050f efbe
0.45869732 0.034300763 -0.2775288 -0.043475904 -0.3249933 0.17594294 -0.16188255 -0.29137406
-0.04743868 0.14594598 0.19202046 0.31987518 -0.08356325 -0.0996193 -0.0932994 0.16135694
-0.038911887 0.44971603 -0.20568615 -0.10808621 0.19332924 -0.1118654 -0.30026582 0.3730988
-0.30679017 0.21519285 0.16094276 -0.10866378 0.116064556 0.600339 -0.38738254 0.05631253
0.05220228 -0.34619516 0.34433305 -0.30256388 0.192279 -0.2649663 0.27665743 -0.011667996
0.28580356 0.40814155 0.22639532 -0.057366475 0.6047516 -0.1761594 -0.06656596 -0.32109272
-0.20520684 -0.09083754 0.32272983 -0.008715117 -0.2666834 0.64554405 -0.37847292 -0.30366287
0.08423901 0.063556954 -0.28602126 0.24797997 0.29410607 0.16837507 0.25322542 0.14897707
0.26853615 -0.3462149 -0.33789074 -0.26291195 -0.020989053 0.06724186 0.4278186 -0.23116153
-0.010130721 -0.28974307 0.37721 -0.12843306 -0.15567425 0.47147694 -0.1341197 -0.03816219
-0.2687881 -0.28534755 0.15093087 0.44061545 -0.09007278 -0.17287341 0.55654436 -0.2404663
-0.0004731291 -0.06314797 0.04452145 0.20173974 0.32687187 0.0523453 0.32456622 0.05180532
0.26981232 0.22599629 -0.119189814 0.03120132 0.28483406 0.34691867 -0.28560448 -0.028056283
-0.2500948 0.032855812 0.106552415 -0.45361024 -0.17865512 0.10792335 0.17702945 -0.20106459
-0.3533913 -0.28341272 -0.44267088 -0.13640006 -0.19486146 0.2271266 0.3136559 -0.4012959
-0.2524252 -0.25412992 -0.30311373 -0.30135337 -0.30305392 -0.18404911 -0.2897659 0.30789787
-0.038893167 0.031236572 -0.08270155 -0.28143454 -0.32028398 0.263463 0.10153734 0.44046822
-0.11854695 0.4010864 -0.057492282 -0.21373722 -0.46991324 -0.37287417 0.33615178 0.381962
0.28849688 -0.16730979 -0.2173432 -0.054688092 -0.09917397 0.27635536 0.18806313 0.17099327
-0.25827834 0.2657721 -0.41056427 -0.23980507 -0.46286955 -0.065428406 0.4121106 0.07245979
0.40230086 -0.017982004 0.040447682 -0.30871502 0.35845152 -0.12802991 -0.25871697 0.013440215
0.40356517 -0.063410886 -0.17079116 -0.04253279 -0.057826884 0.16271195 0.31471786 0.30640388
-0.10351546 0.25753075 -0.31878287 -0.38495663 -0.2720397 0.21096158 -0.105640166 -0.13105415
-0.012453463 0.29401976 0.12919675 -0.1677459 -0.33109355 0.3493554 -0.26855895 -0.46691146
