app/src/main/assets/asthma_model_improved.tflite (tflite, 48776 bytes, 7 tensors)

arith.constant f4 [1, 32]
0	0xbe3ba74a	-0.18325534
1	0x3e8f590b	0.27997622
2	0x3d63d9f0	0.055627763
3	0x3e8d0e07	0.27549765
4	0xbe2503bf	-0.1611471
5	0x3e91b273	0.28456458
6	0x3ea07f62	0.31347185
7	0xbe9329c1	-0.28742793
8	0x3e2a7677	0.16646753
9	0xbe37534b	-0.17902867
10	0x3d67792f	0.056512054
11	0x3e98ddcf	0.29856727
12	0x3ddb25ca	0.10700567
13	0xbe84299b	-0.25812992
14	0xbe9de26d	-0.30836812
15	0xbe387143	-0.18011956
16	0x3eea5113	0.4576498
17	0xbe624b73	-0.22099094
18	0x3eac984f	0.33709952
19	0xbe97296a	-0.29523784
20	0x3e8bac5d	0.2727994
21	0xbe6e93f3	-0.23298626
22	0x3e36aed6	0.17840132
23	0x3eba5c78	0.36398673
24	0xbe6755e5	-0.2259136
25	0xbe924cd4	-0.2857424
26	0x3d859f8c	0.06524572
27	0x3dc8f8ea	0.098131016
28	0x3eed7044	0.46374714
29	0x3ea9cc47	0.33163664
30	0x3ead1b8f	0.33810088
31	0x3ecc0baf	0.39852664

arith.constant2 f4 [32, 64]
0	0xbe63b230	-0.22235942
1	0x3de9757b	0.11399361
2	0x3dd9560e	0.10612117
3	0x3e7fcff0	0.24981666
4	0x3da39ca4	0.07988861
5	0xbd90c0cc	-0.07068023
6	0xbda9b67e	-0.08286761
7	0xbe2c65c7	-0.168357
8	0x3eb7755a	0.3583172
9	0x3e940732	0.2891174
10	0xbd9fc549	-0.07801301
11	0xba27d55b	-0.0006402337
12	0x3d02f3c3	0.03197075
13	0x3e1c7af2	0.15281275
14	0x3d1acacc	0.03779106
15	0x3df63789	0.12022311
16	0xbdbdc2d1	-0.09265674
17	0xbe7519e4	-0.23935658
18	0xbe857d65	-0.2607223
19	0xbd8fd104	-0.070222884
20	0xbd337504	-0.043812767
21	0xbe7f2403	-0.24916081
22	0x3e4b3312	0.198437
23	0xbe4a0262	-0.19727471
24	0x3ca864a0	0.020555794
25	0xbdbce039	-0.092224546
26	0x3df45896	0.11930959
27	0xbe3d7762	-0.18502572
28	0x3c81c5b2	0.015841339
29	0xbdce1b4d	-0.10063801
30	0x3e25d0b8	0.16192901
31	0xbd14526d	-0.03621142
32	0xbc8d8b08	-0.01727821
33	0xbd86062d	-0.06544147
34	0xbe1fd430	-0.15608287
35	0xbe1a2668	-0.15053713
36	0xbdfcda88	-0.12346369
37	0xbe8f8cb6	-0.2803704
38	0xbe444e1d	-0.19170423
39	0xbdc79ad1	-0.09746326
40	0x3e42c4a1	0.1902032
41	0xbd8fda0b	-0.0702401
42	0xbe2e4e46	-0.17022046
43	0xbe40a8b1	-0.1881435
44	0xbd68bc00	-0.056819916
45	0xbc81314f	-0.015770582
46	0xbeace0a5	-0.3376514
47	0x3e220c71	0.15825059
48	0xbe8c56e0	-0.2741003
49	0xbe822326	-0.2541744
50	0xbd61c27d	-0.05511712
51	0xbd12cc9a	-0.035839655
52	0x3dfe163f	0.12406587
53	0xbdd5fdc3	-0.10448792
54	0xbe3ddcd6	-0.18541273
55	0x3e4fa923	0.20279364
56	0xba296764	-0.0006462245
57	0xbda080ef	-0.07837092
58	0x3ddf4644	0.10902074
59	0x3da6b8ec	0.0814074
60	0xbe5320de	-0.20618007
61	0x3dc96760	0.0983417
62	0x3dd5d855	0.10441653
63	0xbd1bd73f	-0.03804707
64	0x3bc4cca4	0.0060058404
65	0x3d8eced3	0.06973042
66	0x3d93f257	0.07223957
67	0x3cad74db	0.021173885
68	0xbd2792c8	-0.040911466
69	0xbe2891e0	-0.16461897
70	0xbdf48f9d	-0.119414546
71	0xbcd2ffea	-0.025756795
72	0x3e5585f4	0.2085188
73	0xbc95c8bf	-0.0182842
74	0x3d3e4322	0.04645074
75	0xbd3ed22e	-0.04658716
76	0xbe256802	-0.16152957
77	0xbd1fc486	-0.03900578
78	0x3e227e57	0.15868507
79	0xbde0ade2	-0.109706655
80	0xbe962cee	-0.29331154
81	0x3e6a9ac1	0.22910596
82	0x3dc1f53d	0.094706036
83	0x3e44da9b	0.19224016
84	0xbdabb74b	-0.0838457
85	0xbbaf5436	-0.005350615
86	0xbe15e80c	-0.146393
87	0x3e36d17b	0.17853348
88	0x3e0fb738	0.14034736
89	0xbe122ada	-0.14274159
90	0x3e09e2f3	0.1346548
91	0xbe46f645	-0.19429882
92	0x3caae84c	0.02086272
93	0x3e968d6e	0.29404777
94	0x3ce57ca0	0.028013527
95	0xbcdd8df8	-0.027045235
96	0x3e596452	0.21229675
97	0xbe2dc538	-0.16969764
98	0x3e3b6627	0.18300687
99	0xbd9230be	-0.07138203
100	0x3e0800bc	0.1328153
101	0x3e16c2f5	0.14722808
102	0xbe43fd26	-0.19139537
103	0xbdd742dc	-0.10510799
104	0x3e4e81dc	0.20166725
105	0x3e13c643	0.144311
106	0xbdb2ebe7	-0.08736401
107	0xbd8d304e	-0.06893979
108	0xbddfc6f3	-0.109266184
109	0xbd424de4	-0.047437564
110	0xbe2e2be4	-0.1700893
111	0x3e66b811	0.22531153
112	0x3e4688f5	0.19388182
113	0x3e0761a5	0.13220842
114	0xbe50cd79	-0.20390882
115	0x3e06c007	0.1315919
116	0x3d338c6f	0.0438351
117	0x3e28c7ed	0.16482516
118	0xbe6e04c4	-0.23244005
119	0xbe871627	-0.26384088
120	0x3cb196c1	0.02167833
121	0xbc9b0966	-0.01892538
122	0xbe3889b5	-0.18021281
123	0x3def64f3	0.116891764
124	0xbe121fe1	-0.14269973
125	0xbdf1ad47	-0.11800628
126	0x3d32408a	0.04351858
127	0xbd5557a0	-0.05208552
128	0x3db423e1	0.08795906
129	0x3e4136a7	0.18868504
130	0x3dd586c0	0.10426092
131	0xbe8a2289	-0.26979473
132	0xbe1f5fdd	-0.15563913
133	0x3d465667	0.048422243
134	0x3c934b47	0.017980231
135	0x3e6cccbb	0.23124973
136	0x3b40d73c	0.0029425165
137	0x3de81da6	0.1133378
138	0xbd80e1ea	-0.0629309
139	0xbcc73da2	-0.024321381
140	0x3ce84650	0.02835384
141	0x3e013d05	0.12620933
142	0xbd8245da	-0.063609794
143	0xbe318855	-0.17337163
144	0x3dde5965	0.108568944
145	0x3d3d8221	0.04626668
146	0xbdcbaf7e	-0.09945582
147	0x3d19538e	0.0374332
148	0x3d79e5f0	0.0610103
149	0xbde324b6	-0.110909864
150	0x3e73c518	0.23805654
151	0x3e0c9db1	0.1373203
152	0x3dbba69d	0.09162638
153	0xbe2c2320	-0.16810274
154	0x3e251a9e	0.16123435
155	0xbdc24cb7	-0.094872884
156	0xbc253e85	-0.010085707
157	0x3d872136	0.06598131
158	0x3e03eb97	0.12882839
159	0x3d5ac0fd	0.053406704
160	0x3e6cfdba	0.23143664
161	0x3d007467	0.03136101
162	0x3db901d3	0.09033551
163	0xbe8f8b92	-0.2803617
164	0x3e552c75	0.2081774
165	0x3de589f9	0.11207957
166	0xbdfb9a45	-0.12285284
167	0xbd9ec4cb	-0.07752379
168	0xbcc08b86	-0.02350403
169	0x3e84ee83	0.2596322
170	0x3ded5c15	0.11589829
171	0xbd89d4e2	-0.06730057
172	0x3e418d44	0.18901545
173	0x3d23c1e6	0.039979838
174	0xbdb444a7	-0.08802157
175	0x3d820e2f	0.063503616
176	0xbcc605d0	-0.024172693
177	0x3d8eb053	0.06967225
178	0x3cba2358	0.022721931
179	0xbd93f480	-0.07224369
180	0x3e784622	0.24245504
181	0x3e54a41f	0.20765732
182	0xbe5a110c	-0.21295565
183	0x3d87b878	0.066269815
184	0xbdcd5de9	-0.100276776
185	0xbd5d40bd	-0.054016817
186	0xbdbe46bc	-0.09290835
187	0x3e123d62	0.14281228
188	0xbe4dfe0e	-0.20116445
189	0xbd912e29	-0.070888825
190	0xbe221e4f	-0.15831874
191	0xbe06a708	-0.13149655
192	0xbda23376	-0.07919972
193	0x3e42ab95	0.19010766
194	0x3eaa2d7d	0.3323783
195	0x3e908f93	0.28234538
196	0x3e70c57f	0.23512839
197	0xbe5bbac5	-0.21457966
198	0xbde8bd3d	-0.11364219
199	0x3e36b242	0.17841437
200	0xbdf39315	-0.11893288
201	0x3d227e01	0.039670948
202	0x3e1c20ec	0.15246934
203	0x3cbfd152	0.023415241
204	0x3ddef407	0.10886388
205	0x3e254727	0.16140424
206	0x3dbb3555	0.09141032
207	0x3e7c8e7a	0.24663725
208	0x3d7c84df	0.061650153
209	0xbe84b6c2	-0.25920683
210	0x3e00afb4	0.12567025
211	0xbe619b3b	-0.22031872
212	0xbd393e3f	-0.045225378
213	0x3da01836	0.07817118
214	0xbc082969	-0.008310654
215	0x3d7cb356	0.061694466
216	0xbd92dc98	-0.07170981
217	0x3e1e41d6	0.15454802
218	0x3dc1995c	0.09453079
219	0xbe232ff4	-0.15936261
220	0x3c8e8b3f	0.017400382
221	0x3e33481e	0.1750798
222	0xbdc7ff33	-0.09765472
223	0xbda3b906	-0.07994275
224	0x3de93505	0.11387066
225	0x3e46f9ae	0.19431183
226	0x3df111ea	0.11770995
227	0xbe18fe92	-0.14940861
228	0xbde38754	-0.11109796
229	0x3e2470b6	0.16058621
230	0x3e5cd8ba	0.2156705
231	0xbd92e909	-0.07173354
232	0xbe5a9381	-0.21345331
233	0xbda59893	-0.08085742
234	0xbe142bae	-0.14469787
235	0x3e3cc83e	0.18435761
236	0x3e36805d	0.17822404
237	0xbe4fbc82	-0.20286754
238	0x3e58d3d5	0.21174558
239	0x3a6ccd74	0.00090333004
240	0xbe10daea	-0.14146009
241	0xbdf6fa75	-0.1205949
242	0xbd1ec535	-0.03876229
243	0xbe1dca35	-0.15409167
244	0xbda76f85	-0.081755675
245	0x3e8392c7	0.2569792
246	0xbe23104e	-0.15924188
247	0x3c21960f	0.009862437
248	0xbc3900f0	-0.011291727
249	0xbdfec1e0	-0.124393225
250	0xbd47d27c	-0.048784718
251	0xbe3cbf4b	-0.18432347
252	0xbe6db7c1	-0.23214628
253	0xbe0ed10f	-0.13946937
254	0xbd130d80	-0.035901546
255	0x3e1240d2	0.1428254

arith.constant3 f4 [32]
0	0x3feadab6	1.8347995
1	0x3e926995	0.28596178
2	0xbf480322	-0.7812978
3	0xbd868f05	-0.065702476
4	0x40056703	2.0844123
5	0xbf98fc5c	-1.1952014
6	0x3e113a92	0.14182499
7	0xbf50c302	-0.8154756
8	0x3f2a21b9	0.66457707
9	0x3fb13526	1.3844345
10	0x3f52adce	0.82296455
11	0xbf5a0a11	-0.8517161
12	0xbda1e115	-0.07904259
13	0x3eb3ba4b	0.35103068
14	0x3fc750eb	1.5571569
15	0x3ebedaca	0.37276298
16	0x3e56c045	0.20971783
17	0x3e7cc611	0.24684931
18	0xbe761566	-0.240316
19	0x3f7c90db	0.9865853
20	0x3d905cd9	0.07048959
21	0x3fe7886a	1.8088505
22	0x3f14f2cf	0.58182997
23	0x3fc2679b	1.5187868
24	0x3f38070e	0.71885765
25	0x3ea04e43	0.3130971
26	0xbe282864	-0.16421658
27	0x3eb60f35	0.35558477
28	0x3bb39ce4	0.0054813493
29	0x3c8464cb	0.016161343
30	0xbdc01235	-0.09378473
31	0xbe8ab626	-0.27092093

arith.constant4 f4 [64, 128]
0	0x3f06734d	0.52519685
1	0xbdd83846	-0.10557608
2	0x3e8244f3	0.2544323
3	0xbdc527b2	-0.09626712
4	0x3f7aadfd	0.97921735
5	0x3e64383e	0.2228708
6	0xbe48d538	-0.19612586
7	0xbe71f5f8	-0.23628986
8	0x3f2c8dd9	0.6740394
9	0xbb847e91	-0.004043408
10	0x3c4fbcc4	0.012679283
11	0x3f631f24	0.8871939
12	0x3f33b5b0	0.7019911
13	0x3f292146	0.66066396
14	0xbf267e77	-0.6503672
15	0xbf05cdc8	-0.5226712
16	0xbccfb6bc	-0.02535569
17	0x3f8fede0	1.1244469
18	0x3edab642	0.42717177
19	0x3f344869	0.7042299
20	0xbca5f839	-0.020259963
21	0x3f41c9db	0.7569863
22	0x3edb58fc	0.42841327
23	0xbedef0fa	-0.43543226
24	0xbe81f1ad	-0.25379696
25	0xbde58558	-0.11207074
26	0x3f89dc46	1.0770347
27	0xbe3b136b	-0.18269126
28	0x3f9ceca1	1.2259713
29	0xbf0f294c	-0.5592239
30	0x3ed72511	0.42020467
31	0x3f655b0a	0.8959204
32	0x3ecf4f0d	0.40489998
33	0xbddfdfd6	-0.10931365
34	0x3da7f5d2	0.082011834
35	0x3ee41937	0.44550487
36	0xbebe306d	-0.3714632
37	0x3f4d9b3e	0.80315006
38	0xbf49197c	-0.7855451
39	0x3ed1a410	0.40945482
40	0x3f4eb9bb	0.8075215
41	0x3e6cbdc2	0.23119262
42	0x3ded19ce	0.115771875
43	0x3e8c1a95	0.2736403
44	0xbe94890e	-0.29010814
45	0xbf0c1f51	-0.54735285
46	0xbf3aec07	-0.730164
47	0xbe918a27	-0.28425714
48	0xbf21e270	-0.6323614
49	0xbf244acc	-0.6417663
50	0x3e2433ae	0.16035339
51	0xbf0f1719	-0.5589462
52	0xbf741c05	-0.95355254
53	0x3e86d009	0.26330593
54	0x3f4cee67	0.80051273
55	0x3f41f49d	0.75763875
56	0x3dd7cbbe	0.105369076
57	0x3f8ec4cd	1.1153809
58	0x3ee0481b	0.43805012
59	0x3ea3a039	0.31958178
60	0x3da63711	0.08115972
61	0xbe5f4217	-0.21802555
62	0xbf132d21	-0.57490736
63	0x3b949573	0.0045344173
64	0xbf364d96	-0.71212137
65	0xbf160a10	-0.58609104
66	0x3f9cad8d	1.2240463
67	0x3f41d88c	0.7572105
68	0xbe0009a0	-0.12503672
69	0xbf34573a	-0.704456
70	0x3eb8c406	0.36087054
71	0x3bcf40e9	0.0063248766
72	0x3f4c29ba	0.7975117
73	0xbef8eded	-0.48619023
74	0x3ef6d028	0.48205686
75	0x3e8e349f	0.27774522
76	0xbf10ed51	-0.56612116
77	0x3e60bc0e	0.21946737
78	0xbf1ae202	-0.6050111
79	0xbe91d197	-0.28480217
80	0x3c452406	0.012032514
81	0xbc94390c	-0.018093608
82	0xbf5c3830	-0.86023235
83	0x3e6d09a1	0.23148204
84	0x3f217887	0.63074535
85	0x3f030d18	0.51191854
86	0xbee87b55	-0.45406595
87	0xbd5f36d6	-0.054495655
88	0xbf3a21f2	-0.72708046
89	0x3f305feb	0.6889636
90	0x3e3a8efc	0.18218607
91	0xbf9c2797	-1.2199582
92	0xbf502646	-0.813084
93	0x3f38307b	0.71948975
94	0xbf1d338a	-0.6140677
95	0xbf0a674e	-0.5406388
96	0xbf56eec2	-0.83958066
97	0x3f02cbb2	0.51092064
98	0xbf12f49a	-0.5740448
99	0x3f080f3d	0.5314825
100	0xbf0177b7	-0.50573295
101	0xbed8cb9f	-0.4234285
102	0x3f2f72b0	0.68534374
103	0xbf305b3f	-0.6888923
104	0xbde3a2ec	-0.11115059
105	0xbf0e8c46	-0.5568279
106	0x3f229219	0.6350418
107	0x3dbbee3c	0.09176299
108	0x3ef5ac9f	0.47983262
109	0x3f26e4da	0.6519295
110	0xbdbd1dec	-0.09234223
111	0x3d1e11f9	0.03859136
112	0x3eb9f6af	0.36321017
113	0xbf07f6bd	-0.5311087
114	0xbf302fb6	-0.688228
115	0x3ee8bca8	0.45456433
116	0x3f2493ba	0.6428791
117	0x3f36cf96	0.714105
118	0xc0043603	-2.0657966
119	0x3f5b734e	0.85722816
120	0x3f3c46e6	0.7354568
121	0x3fa42bf1	1.282591
122	0xbf224f8e	-0.6340264
123	0xbf2600e9	-0.6484514
124	0xbf5e325d	-0.867956
125	0xbf3363a8	-0.7007394
126	0x3dfc7a58	0.12328023
127	0xbf9e9816	-1.2390163
128	0xbe9fb1fd	-0.31190482
129	0xbf0089f2	-0.5021049
130	0x3e936c06	0.28793353
131	0xbf24dc1e	-0.6439837
132	0x3e8e8b24	0.2784053
133	0xbf54bc53	-0.8309986
134	0xbf099405	-0.53741485
135	0xbec8860f	-0.3916478
136	0x3f5ce0b6	0.8628038
137	0xbf4f125d	-0.80887395
138	0xbe9d27a8	-0.30694318
139	0xbf61bf92	-0.8818294
140	0x3f3ccff6	0.73754823
141	0xbf1dac46	-0.61590993
142	0xbf2ad2e3	-0.6672804
143	0xbe87ea47	-0.26545927
144	0xbf1c8e98	-0.6115508
145	0x3ea7cbfc	0.32772815
146	0xbf3ab1ef	-0.72927755
147	0xbed4f886	-0.41595858
148	0x3f72114a	0.9455763
149	0xbf19a70d	-0.60020524
150	0x3f245810	0.6419687
151	0x3e686115	0.22693284
152	0x3f33ee89	0.7028585
153	0x3eefca71	0.46834138
154	0x3f54fcd7	0.83198303
155	0xbf2accb1	-0.66718584
156	0xbf0e2090	-0.55518436
157	0xbd823ebe	-0.063596234
158	0xbba17503	-0.004927279
159	0xbedc0cab	-0.42978415
160	0x3eeb58c9	0.45966175
161	0x3f1b59e5	0.60684043
162	0xbf11b50e	-0.5691689
163	0x3f1ee856	0.62073267
164	0xbf1f0a4b	-0.6212508
165	0xbf34f23a	-0.7068211
166	0xbf0fad5a	-0.5612389
167	0x3eff9e8b	0.49925646
168	0x3f416ae2	0.75553715
169	0xbf8fae12	-1.1224997
170	0x3f014c04	0.50506616
171	0xbebbfafc	-0.36714923
172	0x3e423f47	0.18969451
173	0x3e911c11	0.28341725
174	0xbefa4fc0	-0.4888897
175	0xbf278565	-0.6543792
176	0xbe77fe3f	-0.24218081
177	0xbefe9169	-0.49720314
178	0xbf80c50d	-1.0060135
179	0xbf238649	-0.6387678
180	0xbecc9976	-0.3996083
181	0xbeb5d772	-0.35515934
182	0x3f6bcf84	0.9211352
183	0x3c810887	0.015751136
184	0xbecc7bd5	-0.39938226
185	0x3f346d42	0.70479214
186	0xbdda870d	-0.1067029
187	0xbf0175fe	-0.50570667
188	0x3e67643e	0.22596833
189	0xbebebacb	-0.37251887
190	0x3e8bb064	0.27283013
191	0xbe85b591	-0.26115087
192	0x3ee543f6	0.44778413
193	0xbe1b0403	-0.15138249
194	0x3dea48f8	0.11439699
195	0x3f1b190b	0.6058509
196	0xbec67dc9	-0.3876784
197	0x3f33d83b	0.70251817
198	0x3ef4e6c1	0.478323
199	0xbc3a2955	-0.011362393
200	0x3f1ca1ad	0.611842
201	0xbe761a4a	-0.24033466
202	0xbdbe20cb	-0.092835985
203	0x3e850591	0.2598081
204	0x3dd2ede1	0.10299278
205	0x3e20da4f	0.15708278
206	0xbdd041d8	-0.10168809
207	0x3f02d8f0	0.5111227
208	0x3eb1e79b	0.34747013
209	0xbeab92e0	-0.33510494
210	0x3eda146b	0.42593703
211	0x3f03d929	0.51503235
212	0x3f6eb1b4	0.93239903
213	0x3f2ecd7e	0.68282306
214	0xbef66d1a	-0.48130113
215	0xbecbbed8	-0.3979404
216	0x3face7a4	1.3508191
217	0x3f08bc4a	0.53412306
218	0xbd9de168	-0.077090085
219	0xbe25f5f4	-0.16207105
220	0x3f37b619	0.71762234
221	0xbecf544e	-0.40494007
222	0xbf48d9a0	-0.7845707
223	0x3f4b7e0e	0.7948922
224	0x3f2c8bf6	0.67401063
225	0xbd7baca2	-0.061443932
226	0xbf0d6bca	-0.552426
227	0xbf45e515	-0.77302676
228	0xbf052bc1	-0.5201989
229	0xbe974478	-0.29544425
230	0x3ec3e1e2	0.38258272
231	0xbed5b74b	-0.41741404
232	0xbea6c4a7	-0.3257191
233	0x3e97c57c	0.29642856
234	0x3f946cf8	1.1595755
235	0x3d883c0b	0.06652077
236	0xbf2495d2	-0.6429111
237	0xbcbc71ae	-0.023003425
238	0xbf2ee338	-0.6831546
239	0x3f3006f5	0.68760616
240	0xbf1f6aa5	-0.622721
241	0xbf339ae0	-0.70158195
242	0x3c3bb0e3	0.011455747
243	0x3f66aa54	0.9010365
244	0xbf0e4c83	-0.555855
245	0x3f31b71f	0.69420046
246	0x3efa446b	0.48880324
247	0x3e85cfbd	0.26135054
248	0xbeccd434	-0.40005648
249	0xbea39dc6	-0.3195631
250	0x3f48cf6d	0.78441507
251	0xbf036533	-0.5132629
252	0xbed65cd7	-0.41867706
253	0x3f735584	0.9505236
254	0x3d472c3a	0.048626162
255	0xbf176265	-0.59134513

arith.constant5 f4 [64]
0	0xbee78c4f	-0.45224234
1	0x3f2facdc	0.6862314
2	0xbe9ce26c	-0.30641496
3	0xc00bb245	-2.1827557
4	0xbf54796f	-0.8299779
5	0x3ed6ab0a	0.41927367
6	0x3f454e48	0.7707257
7	0x3f958f87	1.1684426
8	0xbea34eca	-0.3189605
9	0xbf0b53f8	-0.54425
10	0x3f281e07	0.6567082
11	0xbf2e6223	-0.68118495
12	0x3fdb0954	1.7112222
13	0x3ef788c3	0.48346528
14	0xbf5dab35	-0.86589366
15	0xbe2118c4	-0.15732104
16	0x3f8b732e	1.0894525
17	0x3f0f66bc	0.56016135
18	0x3fe26161	1.7685968
19	0x3ef09ff6	0.4699704
20	0x3fc20bd4	1.515986
21	0xbe8c8869	-0.27447823
22	0xbeaff291	-0.3436475
23	0xbd935579	-0.07194037
24	0xbcb7f981	-0.02245784
25	0x3fa3c799	1.2795287
26	0xbd1e83e5	-0.038700003
27	0x3f1471e0	0.5798626
28	0xbf63472e	-0.88780487
29	0xbcc180c6	-0.023620974
30	0xbefa2877	-0.48858997
31	0xbf527728	-0.8221307
32	0x3f010e80	0.5041275
33	0x3e702e11	0.23455073
34	0xbf8c5a6f	-1.0965098
35	0xbf648183	-0.8926012
36	0xbf8f8d03	-1.1214908
37	0x3ec47fcb	0.38378748
38	0x401e03c5	2.46898
39	0x3e9c82c6	0.30568522
40	0x3e8e8d6f	0.2784228
41	0xbea56acf	-0.3230805
42	0x3c8eda51	0.017438086
43	0xbf5cfe86	-0.8632587
44	0x3e1e6384	0.1546765
45	0x3f627810	0.8846445
46	0xbf132151	-0.5747271
47	0x3f527ef2	0.82224953
48	0x3f7f61ce	0.99758613
49	0x3fbfdb2d	1.4988762
50	0xbe7b6b4f	-0.24552654
51	0xbfdeb938	-1.7400274
52	0xbef2ca4d	-0.47419968
53	0xbf6b397a	-0.9188458
54	0xbf948bb2	-1.1605132
55	0xc0347927	-2.8198946
56	0x3f7545aa	0.95809424
57	0x3f10eca2	0.56611073
58	0xbef3fc29	-0.4765332
59	0x3ef55a71	0.47920564
60	0xbe955d19	-0.2917259
61	0xbfb4b0c8	-1.4116449
62	0xbd5dd38b	-0.05415682
63	0xbfa32487	-1.2745522

arith.constant6 f4 [128]
0	0xbbda7ca4	-0.0066676904
1	0x3bf9bfb3	0.0076217293
2	0xbb3b21e8	-0.0028554145
3	0x3b8233db	0.003973467
4	0xbc9054ce	-0.017618563
5	0x3d1b6f6f	0.03794807
6	0x3d1e03d8	0.038577884
7	0xbc7695b6	-0.015050342
8	0xbba9958e	-0.005175299
9	0x3c488542	0.012238802
10	0x3c0dd34d	0.008656335
11	0xbbfdd415	-0.0077462294
12	0x3d47a394	0.048739985
13	0x3b9de806	0.004818919
14	0x3c4b388b	0.012403618
15	0x3c6dcf76	0.014514795
16	0x3b9fff37	0.004882719
17	0xbd274659	-0.040838573
18	0x3c38c7a1	0.011278064
19	0x3c664b4c	0.014056038
20	0xbbfbde32	-0.0076864
21	0x3c1e3002	0.009655001
22	0xbd4bf462	-0.04979361
23	0x3c0f215b	0.00873598
24	0x3cc935bc	0.024561755
25	0x3ac30125	0.001487766
26	0xba94380c	-0.0011308207
27	0xbd04e316	-0.03244313
28	0x3d0c3e1d	0.034238923
29	0xbca3c811	-0.01999286
30	0x3b7be442	0.0038435613
31	0x3c136fbd	0.008998808
32	0x3d102ade	0.03519713
33	0xbc16a462	-0.009194465
34	0xbbe91647	-0.0071132514
35	0x3cbf2404	0.023332603
36	0xbcb1b7aa	-0.021694023
37	0x3d1d64ca	0.038426198
38	0x3d691592	0.056905337
39	0x3b6117cc	0.003434646
40	0x3cfc7a01	0.030819895
41	0xbc4cb966	-0.012495374
42	0x3c4f681b	0.012659098
43	0x3c8d15e5	0.017222354
44	0xbc3933cb	-0.011303852
45	0xbca1fffe	-0.019775387
46	0xbc16f231	-0.009213016
47	0x3aaf2fc2	0.0013365673
48	0xbbc13e80	-0.005897343
49	0x3c1f3157	0.009716353
50	0xbb9a3d18	-0.00470699
51	0x3b47713b	0.003043248
52	0x3b8e29e3	0.0043384894
53	0x3cd94ff7	0.026527388
54	0x3c32a23d	0.010902938
55	0x3cfac93a	0.03061353
56	0x3d377c54	0.044796303
57	0xbb99cc6a	-0.0046935575
58	0xbc63e759	-0.013910138
59	0x3b1b841f	0.0023729873
60	0xbc71e041	-0.014762939
61	0xbbaaaa57	-0.0052082944
62	0xbd1b7615	-0.03795441
63	0x3cb60a9d	0.022221858
64	0xbc4bbea8	-0.012435593
65	0x3ceffb3e	0.029294606
66	0xbc54b9fe	-0.012983797
67	0xbc461212	-0.012089269
68	0x3cb462ca	0.022019763
69	0x3cedd7aa	0.0290335
70	0x3bb42b45	0.005498322
71	0x3be24566	0.0069052456
72	0x3bf1e504	0.007382037
73	0xbc1f6f47	-0.00973112
74	0x3d06df60	0.03292787
75	0xbc08e2e9	-0.008354881
76	0x3d0cf6e1	0.03441513
77	0xbc26ea5f	-0.010187714
78	0x3cb178f7	0.021664126
79	0x3cdb3513	0.026758706
80	0x3c08f741	0.008359731
81	0x3ce7af75	0.028281907
82	0xbc1edb92	-0.009695904
83	0xbcf50e11	-0.029913934
84	0xbbd74f0f	-0.006570704
85	0x3c5aa545	0.013345067
86	0xbc1dfab9	-0.0096422965
87	0x3cf270ba	0.029594768
88	0xbc8b805a	-0.017028976
89	0xbc9ef909	-0.019405859
90	0xbbc65d54	-0.006053606
91	0xbc42d21f	-0.011890917
92	0xbd104559	-0.035222385
93	0x3b8cebdc	0.0043005776
94	0xbc9735c0	-0.018458247
95	0xbbb9b972	-0.0056678588
96	0x3bdf1630	0.006808065
97	0x3ccdea94	0.02513627
98	0x3c4959f7	0.012289516
99	0x3d64a7f0	0.05582422
100	0x3cac115d	0.021004373
101	0x3db92da7	0.090419106
102	0x3c81300a	0.015769977
103	0x3cef577e	0.029216524
104	0xbccd119e	-0.025032815
105	0x3b3e34b1	0.0029023106
106	0xbcbcd5cc	-0.023051165
107	0x3d162486	0.036655925
108	0xbc26459e	-0.010148434
109	0xba65ea55	-0.0008770575
110	0x3d6b7605	0.0574856
111	0xbca16798	-0.019702718
112	0x3d8348cd	0.0641037
113	0x3d13a172	0.036042638
114	0x3c2e2aa6	0.010630285
115	0xbcc64e98	-0.024207398
116	0xbc51100f	-0.012760176
117	0xbc321523	-0.010869297
118	0x3cd60daa	0.026129562
119	0x3c349d7b	0.011023874
120	0x3a79b939	0.00095261965
121	0x3b3c00c8	0.002868699
122	0xbc47e85f	-0.012201398
123	0xbcc19c53	-0.023634112
124	0x3b1d25c8	0.0023978818
125	0x3a079584	0.0005172121
126	0x3b884193	0.0041582077
127	0xbc7e0167	-0.015503264

sequential_1/dense_1/MatMul f4 [128, 8]
0	0xbe347352	-0.17622116
1	0x3cb6843f	0.022279857
2	0xbae50396	-0.0017472382
3	0xbe2d8059	-0.16943492
4	0xbe1bd4a3	-0.15217833
5	0xbd2e4343	-0.042544615
6	0xbde8b0f3	-0.113618754
7	0x3e2c89de	0.16849467
8	0x3c6fdaff	0.014639615
9	0x3d72c7f3	0.059272718
10	0xbe153c4c	-0.14573783
11	0x3deee35f	0.11664461
12	0xbd30a88d	-0.043129493
13	0xbdc6e4c3	-0.097116016
14	0x3d00aa2f	0.0314123
15	0x3d4ac3fa	0.049503304
16	0xbe48b285	-0.1959935
17	0xbdf1765e	-0.11790155
18	0xbdc72fb7	-0.09725898
19	0x3d648715	0.055792887
20	0xbde78d0b	-0.11306199
21	0x3d90ff1e	0.0707991
22	0xbd4fce8a	-0.05073408
23	0xbd3c6017	-0.045990076
24	0xbd5d8965	-0.054086108
25	0xbe37e63d	-0.17958923
26	0xbe53f34d	-0.2069828
27	0x3e1ea5bc	0.1549291
28	0x3e55a6cd	0.2086441
29	0x3d951bcf	0.07280695
30	0x3cf28595	0.029604713
31	0xbe30b3f8	-0.17256153
32	0x3df3b514	0.11899772
33	0x3c3f223b	0.011665876
34	0xbd4eb6a7	-0.05046716
35	0xbdc474ca	-0.09592588
36	0xbe09389f	-0.13400505
37	0xbd20e922	-0.039284833
38	0xbdd45c73	-0.10369196
39	0x3e53aaba	0.20670596
40	0x3e03e097	0.12878643
41	0xbd831188	-0.06399828
42	0x3c7ea0d4	0.015541274
43	0xbe2e34ce	-0.17012331
44	0x3b899314	0.0041984413
45	0x3c44ceff	0.012012242
46	0x3e05d10c	0.13068026
47	0x3d3ae5c9	0.045629296
48	0x3e1ecade	0.15507075
49	0xbe22d78f	-0.15902542
50	0x3dfe7ab3	0.12425747
51	0x3df63daf	0.12023484
52	0x3e4fc4de	0.20289943
53	0xbd005243	-0.03132845
54	0xbe85f9a9	-0.26167038
55	0xbd982f0d	-0.07430849
56	0x3d9227ba	0.071364835
57	0xbdfe913d	-0.12430046
58	0xbd3f46dd	-0.04669844
59	0x3df797c5	0.120894946
60	0x3dce5cd6	0.10076301
61	0xbe052972	-0.13004091
62	0x3e54278a	0.20718208
63	0xbe12a6de	-0.14321467
64	0x3c16d6f4	0.009206522
65	0x3d50b13b	0.05095027
66	0x3df076b2	0.11741389
67	0xbe37b393	-0.17939596
68	0x3c378fcf	0.01120372
69	0x3dfec5c1	0.12440062
70	0xbda66e5c	-0.08126518
71	0xbe1cd6d1	-0.15316321
72	0xbd0d7e2c	-0.034544155
73	0x3db25405	0.08707432
74	0x3e3070a3	0.17230467
75	0x3db7a2bd	0.08966587
76	0xbe262a7a	-0.16227141
77	0x3e245732	0.16048887
78	0x3d810509	0.062997885
79	0x3e09ac86	0.13444719
80	0xbe54f209	-0.20795454
81	0xbe26dc1a	-0.162949
82	0xbdd155d4	-0.102214485
83	0xbcd03f64	-0.025420852
84	0xbd3d20fd	-0.04617404
85	0x3d92d9cb	0.07170447
86	0xbc033323	-0.008007797
87	0xbe2c3e6f	-0.16820692
88	0xbe07bc37	-0.13255392
89	0xba637c92	-0.0008677925
90	0x3da956b8	0.082684934
91	0xbe0ac393	-0.13551168
92	0xbded44c7	-0.11585384
93	0xbde297eb	-0.11064132
94	0x3e469b9f	0.19395302
95	0xbe14262a	-0.14467683
96	0x3d2586d6	0.040411793
97	0xbd768353	-0.060183834
98	0x3c9e4c34	0.019323446
99	0x3dcfa821	0.1013949
100	0x3e25f8d8	0.16208208
101	0x3e1df99b	0.15427248
102	0x3e5b0380	0.21388054
103	0x3e6900a8	0.22754157
104	0x3dd209f6	0.10255806
105	0xbd9e039e	-0.07715534
106	0x3e2fb0c5	0.17157276
107	0x3c63191f	0.01386097
108	0xbe1460ad	-0.14490004
109	0x3e5363ef	0.2064359
110	0xbe1417d4	-0.14462215
111	0x3c22c482	0.009934546
112	0xbdfc7505	-0.12327007
113	0xbe183bc6	-0.14866552
114	0xbe25961e	-0.16170546
115	0x3e35662d	0.17714758
116	0x3da38195	0.079837
117	0x3dab948e	0.08377944
118	0xbe6f5cce	-0.23375246
119	0x3ce29890	0.027660638
120	0xbe45ddae	-0.19322845
121	0x3dc7dd2d	0.09758983
122	0xbe4668a0	-0.19375849
123	0x3e447c47	0.19188033
124	0xbe0b6b94	-0.13615257
125	0x3d2689cd	0.04065876
126	0xbc19b072	-0.009380447
127	0xbd514a3e	-0.051096193
128	0x3e1f09ec	0.15531129
129	0xbcaebc5d	-0.021330053
130	0x3d87a631	0.06623495
131	0x3dfe2d35	0.12410966
132	0xbe47ab06	-0.19498834
133	0x3e01d855	0.1268018
134	0x3e1a976a	0.15096822
135	0x3dab5b0e	0.08366977
136	0x3d88f8f9	0.06688113
137	0x3c94489c	0.01810103
138	0x3d721f69	0.059111986
139	0xbdf8358c	-0.12119588
140	0xbdf47bee	-0.119377
141	0xbdf0ee51	-0.11764205
142	0x3e261d54	0.16222125
143	0xbe2965b8	-0.16542709
144	0x3cf93152	0.030419026
145	0xbd2eb471	-0.04265255
146	0xbe3c234f	-0.18372844
147	0xbd6426cb	-0.05570106
148	0x3e1e8456	0.1548017
149	0xbda7b010	-0.08187878
150	0xbe223d93	-0.15843801
151	0xbe2fed5e	-0.17180392
152	0x3e209102	0.15680316
153	0xbe1d796e	-0.15378353
154	0xbcbfcc6d	-0.023412907
155	0xbdafc3ea	-0.085822895
156	0xbdc828e8	-0.09773427
157	0xbe27a737	-0.16372381
158	0xbe3f48fc	-0.18680185
159	0x3dd62ab3	0.10457363
160	0xbdb360cb	-0.08758696
161	0x3d5b6568	0.053563505
162	0x3dca617d	0.09881876
163	0xbe1be321	-0.15223362
164	0x3c919abe	0.017773982
165	0xbdf2c63f	-0.11854219
166	0x3ca0759a	0.019587327
167	0x3e4fa93f	0.20279406
168	0xbe46cb06	-0.19413385
169	0x3e423816	0.18966708
170	0x3e2cf738	0.16891181
171	0xbe32c80a	-0.17459121
172	0xbe38219d	-0.17981572
173	0xbdd1a121	-0.10235811
174	0x3d81dcb2	0.063409224
175	0x3db2b155	0.0872523
176	0x3d830033	0.063965224
177	0x3c4aac8a	0.012370238
178	0xbc02066c	-0.007936101
179	0xbcc05bfc	-0.023481362
180	0xbd244310	-0.04010302
181	0xbe007953	-0.12546282
182	0xbda005fa	-0.0781364
183	0x3e88bc37	0.26706097
184	0xbd699933	-0.057030868
185	0x3e40ced0	0.18828893
186	0x3dadc263	0.08484342
187	0xbdacbe58	-0.08434743
188	0xbdb00844	-0.085953265
189	0x3e34c4c8	0.17653191
190	0x3e18f9cf	0.14939044
191	0x3d60f047	0.054916646
192	0x3e21acd6	0.15788588
193	0xbb81682a	-0.003949185
194	0x3d055432	0.032550998
195	0xbe4b1f1c	-0.19836086
196	0x3e0ec83b	0.1394357
197	0xbe151341	-0.14558126
198	0x3d232067	0.039825823
199	0x3c42482a	0.011858026
200	0xbb9adee9	-0.00472628
201	0x3d9beb4c	0.07613239
202	0xbe2435f7	-0.16036211
203	0x3d887932	0.06663741
204	0x3e0ba12d	0.13635702
205	0xbe15d3bb	-0.1463155
206	0xbe24f9dd	-0.1611094
207	0xbe39002e	-0.18066475
208	0xbe079736	-0.13241276
209	0xbcc924eb	-0.024553737
210	0xbdddd5e9	-0.10831816
211	0xbe2b3c0c	-0.16722125
212	0xbda29df5	-0.07940284
213	0xbe265010	-0.16241479
214	0x3e54d311	0.2078364
215	0x3dca5e3a	0.098812535
216	0x3d5c5096	0.05378779
217	0x3d5dca1e	0.054147832
218	0xbd958352	-0.07300438
219	0xbe269b5b	-0.16270201
220	0x3b435e2f	0.0029810776
221	0x3c237632	0.00997691
222	0x3d210db3	0.039319705
223	0x3dd6f4e8	0.10495931
224	0xbd704404	-0.058658615
225	0xbda035ed	-0.078227855
226	0x3d73db40	0.059535265
227	0xbe284c87	-0.16435443
228	0xbe3af09b	-0.18255846
229	0xbdca0219	-0.09863681
230	0x3e45d07b	0.1931781
231	0x3e1a8ad8	0.15092027
232	0x3e364261	0.17798759
233	0xbc5bc62e	-0.013413949
234	0xbdde51f3	-0.10855474
235	0xbe1446fd	-0.14480205
236	0xbda1c17d	-0.07898233
237	0x3b529044	0.0032129446
238	0x3e044317	0.12916218
239	0x3ddae643	0.1068845
240	0x3e06ae42	0.13152412
241	0x3d0881db	0.033326965
242	0xbe51bebb	-0.20482914
243	0xbe3dfd90	-0.18553758
244	0xbe190d1b	-0.14946406
245	0xbdc59f1b	-0.096494876
246	0x3d32b881	0.043632988
247	0xbe562f40	-0.20916462
248	0x3e03ab5e	0.1285834
249	0x3d00b5c5	0.03142335
250	0x3d2413fb	0.040058117
251	0xbe0da3f5	-0.13832076
252	0x3d8bc356	0.06824367
253	0xbce84ed6	-0.028357904
254	0xbe52cfeb	-0.20587127
255	0x3da07874	0.078354746
