app/src/main/assets/asthma_model.tflite (tflite, 48832 bytes, 7 tensors)

arith.constant f4 [1, 32]
0	0x3e54263a	0.20717707
1	0x3eb6f6ec	0.3573526
2	0xbdf89b28	-0.12138969
3	0x3e7b63b1	0.24549748
4	0x3ea8ae67	0.32945558
5	0xbe1de232	-0.15418318
6	0xbe93b946	-0.2885229
7	0xbe7b3add	-0.24534173
8	0x3e1df5ee	0.15425846
9	0x3e440406	0.1914216
10	0xbeb16c72	-0.3465305
11	0xbec4b51c	-0.38419425
12	0x3e6fe40a	0.23426834
13	0x3ed22fa1	0.41051963
14	0xbe723aa8	-0.23655188
15	0xbe4c2383	-0.19935422
16	0xbdbe795f	-0.093004934
17	0x3eb9127a	0.3614691
18	0xbe89df27	-0.26928064
19	0x3e50455b	0.20338957
20	0xbde6b984	-0.11265853
21	0x3ec4f718	0.38469768
22	0x3e4af970	0.19821715
23	0xbec698e6	-0.38788527
24	0xbdd829ed	-0.10554872
25	0x3e5e455a	0.21706143
26	0xbdda85ef	-0.10670077
27	0x3ea1ec2f	0.31625506
28	0x3e94b911	0.29047444
29	0x3e3541b9	0.17700852
30	0xbecbd333	-0.3980957
31	0xbe8887c0	-0.2666607

arith.constant2 f4 [32, 64]
0	0x3d258a38	0.04041502
1	0x3df7e39d	0.12103961
2	0xbe78e1fd	-0.24304958
3	0x3e42ddc2	0.19029906
4	0x3e626d18	0.22111928
5	0x3e3f6cad	0.186938
6	0x3ccff904	0.025387295
7	0xbc915dfc	-0.01774501
8	0xbd7214fa	-0.059102036
9	0xbe1b2c34	-0.15153581
10	0xbe7e72cf	-0.24848484
11	0x3e38f69a	0.18062821
12	0x3ccd2c9a	0.025045682
13	0xbe6e681a	-0.23281899
14	0xbe14f5f7	-0.14546953
15	0xbe0f5473	-0.13997059
16	0x3da08ffb	0.07839962
17	0xbe7b61b2	-0.24548987
18	0x3e792230	0.24329448
19	0xbe226475	-0.15858634
20	0x3d623e3f	0.055235144
21	0xbdf77bc4	-0.12084153
22	0x3e416930	0.18887782
23	0xbe79881c	-0.24368328
24	0x3e5a5db9	0.21324815
25	0x3db1ddc6	0.08684878
26	0x3e16bec6	0.14721212
27	0x3e01c5ee	0.1267316
28	0xbe083aa7	-0.13303624
29	0xbdd57da9	-0.104243584
30	0x3e59e803	0.21279912
31	0x3c4b16b3	0.012395549
32	0xbe53ced7	-0.20684372
33	0x3da7ae33	0.08187523
34	0xbe4c9d3a	-0.19981852
35	0xbdcf8e61	-0.101345785
36	0x3e5bccb6	0.2146481
37	0x3e2eb7a3	0.1706224
38	0xbdba49a5	-0.09096078
39	0x3e1f5d9a	0.1556305
40	0xbd84988e	-0.0647441
41	0x3e6c6009	0.2308351
42	0x3e480b00	0.19535446
43	0xbe43a562	-0.19106057
44	0x3d3b394c	0.04570894
45	0x3cfc53aa	0.030801613
46	0xbe751939	-0.23935403
47	0xbdbca054	-0.09210268
48	0x3ad7c502	0.0016461911
49	0x3dba3c9c	0.090935916
50	0x3d105d59	0.035245273
51	0x3e265b2e	0.1624572
52	0x3e10f420	0.14155626
53	0xbe8252ec	-0.2545389
54	0xbd6a7a3d	-0.05724548
55	0x3e2802bc	0.16407293
56	0x3e025558	0.12727869
57	0x3e17feb0	0.1484325
58	0x3e1ed0fe	0.15509412
59	0xbe334656	-0.175073
60	0x3e8372d8	0.25673556
61	0x3b4c70e0	0.0031195208
62	0x3da36070	0.07977378
63	0x3e63d77c	0.2225017
64	0x3dd667f0	0.10469043
65	0x3d405a8c	0.046961352
66	0xbdad8806	-0.0847321
67	0xbe32354e	-0.17403147
68	0xbd3ff2a5	-0.046862263
69	0x3e5d5bfd	0.21617122
70	0x3e186bec	0.14884919
71	0x3e9074ca	0.28214103
72	0x3e029c22	0.12754872
73	0x3e2afae4	0.1669727
74	0x3e46972f	0.1939361
75	0x3e218fd7	0.15777527
76	0x3e49fa8a	0.1972448
77	0xbd57e37c	-0.05270718
78	0xbe474698	-0.19460523
79	0xbe93ca2f	-0.2886519
80	0x3e3d739b	0.18501131
81	0xbe4cbae9	-0.19993176
82	0x3cfaa05f	0.030594049
83	0x3e29c746	0.16579923
84	0xbd533fa7	-0.051574375
85	0xbe1489cc	-0.1450569
86	0x3e50b324	0.20380837
87	0x3e203d49	0.15648378
88	0x3e417a51	0.18894316
89	0x3cc9b4ba	0.02462231
90	0x3e17a9f8	0.14810932
91	0xbe8ff40e	-0.28115886
92	0xbdf947af	-0.12171876
93	0xbd8a9692	-0.06767
94	0xbe7c3683	-0.2463017
95	0xbe6a0a7b	-0.2285556
96	0x3db63218	0.088962734
97	0xbe12451b	-0.14284174
98	0xbd0e18c3	-0.034691583
99	0xbe9ed64d	-0.31022874
100	0xbd1791b0	-0.037004173
101	0xbdbc844e	-0.092049226
102	0xbda4ae06	-0.08041005
103	0xbd4ef220	-0.050523877
104	0xbd062c4f	-0.0327571
105	0x3cbb2ad7	0.022847576
106	0xbe48e966	-0.19620284
107	0xbd26f93a	-0.040765025
108	0xbd12f649	-0.035879407
109	0xbdab25a6	-0.0835679
110	0xbd1d4ec7	-0.038405206
111	0x3e6b019c	0.22949833
112	0xbe25e94b	-0.16202275
113	0x3e05c661	0.13063957
114	0xbe374cb7	-0.17900358
115	0xbe27ae19	-0.16375007
116	0xbe4d2572	-0.20033816
117	0xbe774e0f	-0.2415087
118	0xbdfeea75	-0.12447063
119	0xbe9014dd	-0.28140917
120	0x3e79fe6a	0.24413458
121	0xbe9b4b9f	-0.30331132
122	0xbda3b454	-0.07993379
123	0x3e4ab3dc	0.19795173
124	0xbd97425f	-0.07385706
125	0xbe4fc33e	-0.20289323
126	0xbc998c19	-0.018743562
127	0x3e8922e3	0.2678443
128	0xbe45a220	-0.19300127
129	0xbc3a297b	-0.011362429
130	0x3e5f66ca	0.21816555
131	0x3d0ca971	0.03434128
132	0x3d97524d	0.073887445
133	0xbdb02f03	-0.08602717
134	0xbdef5cab	-0.11687597
135	0xbced07ea	-0.028934438
136	0xbc27a8e1	-0.010233135
137	0x3e93ed6e	0.28892082
138	0xbd2ba6dc	-0.041907176
139	0x3e9bb732	0.30413204
140	0xbe1dc6f7	-0.1540793
141	0x3dac6a60	0.08418727
142	0xbe090dbc	-0.13384145
143	0xbe727c05	-0.23680122
144	0xbdf3edd1	-0.11910594
145	0x3e4fc79d	0.2029099
146	0x3d857129	0.06515724
147	0xbd6dc2eb	-0.058047216
148	0x3d327629	0.043569718
149	0xbd8c8d65	-0.06862906
150	0xbe5d210f	-0.21594642
151	0x3db0471e	0.086073145
152	0xbe280cd6	-0.16411147
153	0x3ded1ffe	0.11578368
154	0x3e343c2d	0.1760108
155	0x3e9c1820	0.30487156
156	0x3e89498b	0.2681392
157	0x3e17b97f	0.14816855
158	0x3dff420f	0.124637716
159	0x3da7028f	0.08154785
160	0xbde12a2a	-0.1099437
161	0xbe0a0c26	-0.13481197
162	0x3e1a6480	0.150774
163	0x3eaab5e6	0.33341902
164	0xbde485b5	-0.11158315
165	0xbd2ceb3b	-0.04221652
166	0x3ba30958	0.004975479
167	0xbe02d684	-0.12777144
168	0x3e149912	0.14511517
169	0xbd7ece84	-0.062208667
170	0x3ce07cc3	0.027403241
171	0xbd99ab20	-0.07503343
172	0xbc9f1492	-0.019418988
173	0xbe6475df	-0.22310589
174	0x3e39ac35	0.18132098
175	0xbe6b10c8	-0.2295562
176	0x3e2bc2a7	0.16773473
177	0x3e86baaa	0.26314288
178	0x3ca6f7f8	0.020381913
179	0xbd18c99d	-0.03730165
180	0x3e27c61a	0.16384163
181	0x3e266f71	0.16253449
182	0x3e117f16	0.14208636
183	0xbdbe2add	-0.09285519
184	0xbd12e70e	-0.035864882
185	0x3da3dc37	0.08000987
186	0xbe49173e	-0.19637772
187	0xbd8341ed	-0.06409059
188	0xbe887847	-0.26654264
189	0x3e4e2d99	0.20134582
190	0xbda9dfe2	-0.082946554
191	0x3cbb6a5b	0.022877863
192	0xbd0fc5ba	-0.035100676
193	0x3df927bf	0.12165784
194	0xbdf66748	-0.12031418
195	0x3e446522	0.19179204
196	0x3d18079e	0.03711664
197	0xbe870825	-0.263734
198	0xbe15b31e	-0.14619109
199	0x3dd0a914	0.10188499
200	0x3e48a4fd	0.19594188
201	0x3e27f5bd	0.16402335
202	0xbcf959ac	-0.030438267
203	0xbe660967	-0.22464524
204	0xbe0c1877	-0.13681208
205	0xbe4a3685	-0.1974736
206	0xbe78da54	-0.24302036
207	0xbe7ab316	-0.24482378
208	0x3d89a4bb	0.06720873
209	0xbe205c7e	-0.15660283
210	0x3d46ddce	0.048551373
211	0xbe8431b2	-0.25819165
212	0x3c55c5d2	0.013047652
213	0xbd7f8243	-0.062380087
214	0x3defde7f	0.1171236
215	0x3e3f457d	0.18678851
216	0x3e40a05a	0.1881117
217	0xbdf19af3	-0.11797132
218	0xbccdc7da	-0.02511971
219	0x3e435eaf	0.19079088
220	0xbe5ba7ac	-0.2145068
221	0xbd8c35e4	-0.06846216
222	0xbca5e6df	-0.02025169
223	0xbe07f7f0	-0.13278174
224	0x3dafdee7	0.08587437
225	0x3d19bd9a	0.037534334
226	0xbdd58b59	-0.10426969
227	0x3de0909b	0.10965081
228	0x3c8f4d1f	0.017492829
229	0xbde09271	-0.109654315
230	0xbe18ecdb	-0.14934103
231	0xbded6d63	-0.115931295
232	0x3d331c7a	0.04372833
233	0x3e6b1c89	0.22960104
234	0xbc84dcce	-0.01621857
235	0x3e149551	0.14510085
236	0x3d78c571	0.06073517
237	0x3db5cc06	0.08876805
238	0x3e8716f3	0.26384696
239	0x3ca33ebe	0.019927379
240	0x3ce5696c	0.02800437
241	0x3e2e642b	0.17030399
242	0xbc745898	-0.0149137005
243	0xbe26fdfb	-0.16307823
244	0xbe6164b4	-0.22011071
245	0xbdb078a7	-0.086167626
246	0x3dc3f347	0.09567886
247	0xbe6f4d01	-0.23369218
248	0x3e039f48	0.1285373
249	0xbe8e383e	-0.27777284
250	0x3cb46d4c	0.022024773
251	0xbda21f2b	-0.07916101
252	0xbdb30102	-0.087404266
253	0xbabed545	-0.0014559409
254	0x3bde5879	0.006785449
255	0xbdbb42ac	-0.09143576

arith.constant3 f4 [32]
0	0xbf255624	-0.64584565
1	0x3f7d2c9b	0.9889619
2	0xbf0abb4a	-0.5419203
3	0x3fa5e2da	1.2959855
4	0x400fa951	2.2447093
5	0x3f86d4cc	1.053369
6	0xbf350be9	-0.707213
7	0x3ec00ed8	0.37511325
8	0xbefbca1b	-0.49177632
9	0x3bffc44c	0.007805383
10	0x4011028e	2.265781
11	0x3fb1fe3b	1.390571
12	0xbdc094e1	-0.094033964
13	0xbf1b60c6	-0.6069454
14	0x3f1eb19f	0.6198978
15	0xbddae2e6	-0.10687809
16	0x3fbbd026	1.4672897
17	0xbe13b17e	-0.14423177
18	0x3e8f0bc6	0.2793867
19	0xbdbdc55b	-0.09266158
20	0x3f2aae59	0.66672283
21	0x3e8adb3d	0.2712039
22	0x3f43b925	0.76454383
23	0x3f703534	0.9383118
24	0x3d0e73a7	0.034778263
25	0xbeee4fbb	-0.46545205
26	0xbe5c3ee6	-0.21508369
27	0xbece07dc	-0.4024037
28	0x3edb76ab	0.42863974
29	0xbf2a737b	-0.6658246
30	0xbd024c3a	-0.031810977
31	0xbe68f168	-0.22748339

arith.constant4 f4 [64, 128]
0	0xbe853ba0	-0.26022053
1	0xbe6c284a	-0.23062244
2	0xbead4b79	-0.33846644
3	0x3f14c706	0.58116186
4	0x3f8c28f6	1.095
5	0x3f00655d	0.5015467
6	0xbdd10d06	-0.10207562
7	0xbee61090	-0.4493451
8	0x3ec509cf	0.38484046
9	0x3f6d875f	0.92784685
10	0xbf7faad5	-0.99870044
11	0x3e463b06	0.19358453
12	0xbf1d6e17	-0.6149611
13	0xbe4a7273	-0.19770221
14	0x3f067f0d	0.52537614
15	0xbecab468	-0.39590764
16	0xbf7d6dd0	-0.98995686
17	0xbe6abb76	-0.22923073
18	0xbdd53df0	-0.10412204
19	0x3dd654f7	0.104654245
20	0x3f3cab78	0.7369914
21	0x3f556574	0.8335793
22	0xbf29008e	-0.6601647
23	0xbe3ca36c	-0.18421715
24	0xbf6cac1f	-0.92450136
25	0xbf4ddf8c	-0.8041923
26	0x3f345518	0.7044234
27	0xbf3e11f3	-0.7424614
28	0x3f30e99b	0.69106454
29	0xbeebee63	-0.46080312
30	0x3ee15b02	0.44014746
31	0x3d10a966	0.0353178
32	0xbe9fb2eb	-0.3119119
33	0xbf69771f	-0.9119739
34	0x3ecc47cb	0.39898524
35	0xbeb4b64e	-0.35295337
36	0x3f5094cc	0.81477046
37	0xbf39fb1a	-0.72648776
38	0xbe92c86e	-0.2866854
39	0x3df26f75	0.11837665
40	0xbebdfd65	-0.37107387
41	0x3e561738	0.20907295
42	0x3f524c72	0.82147896
43	0x3ecf8250	0.40529108
44	0xbe7f1a53	-0.24912386
45	0xbf4a7617	-0.7908644
46	0x3dc608fb	0.09669682
47	0xbd8cca5f	-0.06874537
48	0x3e9a7104	0.3016435
49	0x3f251a34	0.6449311
50	0xbeddff11	-0.43358663
51	0x3dec713e	0.11545037
52	0xbf26a01c	-0.6508806
53	0xbec3beaa	-0.38231403
54	0xbe41ed98	-0.18938291
55	0x3d70f544	0.058827654
56	0x3f1e84a9	0.61921173
57	0xbf0f3437	-0.5593905
58	0xbbcb91ef	-0.006212465
59	0xbf561ffc	-0.83642554
60	0xbf7e498a	-0.9933096
61	0x3eeeba75	0.4662663
62	0xbf04801c	-0.5175798
63	0x3f376b70	0.7164831
64	0xbf07994d	-0.52968293
65	0xbf2d7606	-0.67758214
66	0x3f64bf05	0.8935397
67	0x3ec1657b	0.37772736
68	0xbcd531cc	-0.026024722
69	0xbf3c47b6	-0.7354692
70	0x3ef8c611	0.48588613
71	0x3ec0733d	0.3758792
72	0xbea286ac	-0.3174337
73	0xbfadb3d2	-1.3570502
74	0xbd31e873	-0.04343457
75	0xbe0c605e	-0.13708636
76	0x3e9e062f	0.30864093
77	0xbe93b867	-0.28851625
78	0x3ec9f0f9	0.3944166
79	0x3fcb823a	1.5899117
80	0xbf426077	-0.75928444
81	0xbf7055d5	-0.9388097
82	0x3f343f87	0.70409435
83	0x3e3a3cdc	0.18187279
84	0xbef00d7c	-0.46885288
85	0x3f8ff873	1.1247696
86	0xbf3e639a	-0.7437073
87	0xbf962139	-1.1728889
88	0xbeccbf00	-0.3998947
89	0xbf11a15e	-0.5688685
90	0x3f2fbb8a	0.68645537
91	0x3deb5cf3	0.11492338
92	0xbe048c73	-0.12944202
93	0x3e1f27e8	0.15542567
94	0x3ebfbac3	0.37447175
95	0x3eed9658	0.46403766
96	0x3edabfa4	0.42724335
97	0xbf05c0fa	-0.52247584
98	0x3f1924cc	0.5982177
99	0xbeb73d62	-0.3578902
100	0xbe938982	-0.28815848
101	0xbf1d943f	-0.6155433
102	0xbe2cde61	-0.16881706
103	0x3ed91885	0.4240152
104	0xbeb83e03	-0.3598481
105	0x3e9cc1bc	0.30616558
106	0xbe38da86	-0.1805211
107	0xbd11b85f	-0.03557622
108	0xbeb22ca8	-0.34799695
109	0xbc9b1c61	-0.01893443
110	0xbeb89a13	-0.3605505
111	0xbf3e0417	-0.7422499
112	0x3f2f8eab	0.6857707
113	0xbee91b31	-0.45528558
114	0xbede3e0c	-0.43406713
115	0xbd2bf7bd	-0.04198431
116	0xbe435c71	-0.19078232
117	0xbf43cbb9	-0.7648273
118	0xbe40f650	-0.18843961
119	0xbf8191de	-1.012264
120	0x3fe08eb2	1.7543547
121	0x3f6bf024	0.921633
122	0xbebd9dd8	-0.37034488
123	0x3ea32541	0.3186436
124	0x3e32edfb	0.17473595
125	0x3dad833a	0.08472295
126	0xbf38f16b	-0.72243375
127	0x3f431745	0.7620738
128	0xbed38923	-0.41315565
129	0xbf6c454e	-0.9229325
130	0xbe3b74bd	-0.18306251
131	0xbd8b2199	-0.067935176
132	0xbec78e28	-0.38975644
133	0x3f322a9b	0.6959626
134	0x3f3a867f	0.72861475
135	0x3cca2c2e	0.02467927
136	0xbedf19f6	-0.43574494
137	0xbe4937c5	-0.1965018
138	0xbd4571cc	-0.04820423
139	0xbe7c84ea	-0.24660078
140	0x3f34ecf2	0.7067405
141	0xbdc74983	-0.09730818
142	0x3f36abc2	0.7135583
143	0xbf59461f	-0.8487262
144	0x3e7f6286	0.24939927
145	0x3f4fbff8	0.81152296
146	0x3d4b9d5a	0.04971061
147	0xbe9c56e1	-0.30535033
148	0xbdd4833b	-0.10376593
149	0x3e83681d	0.2566537
150	0xbd891bd4	-0.06694761
151	0xbe9831bc	-0.29725444
152	0xbedec891	-0.43512395
153	0x3cbf2d78	0.02333711
154	0xbf5e53c4	-0.86846566
155	0xbf0598e9	-0.5218645
156	0xbf84ab7e	-1.0364835
157	0xbecba16e	-0.397716
158	0xbee104cb	-0.4394897
159	0x3f0e3f97	0.5556578
160	0x3ec56af7	0.3855817
161	0x3f9dd798	1.2331419
162	0xbe83baf7	-0.2572858
163	0x3ef0e70a	0.4705127
164	0xbf2485cf	-0.64266676
165	0x3ddd59dc	0.10808155
166	0x3e6455f6	0.22298416
167	0x3f228d2e	0.63496673
168	0xbf0e8470	-0.55670834
169	0xbcd3e0e7	-0.025864078
170	0x3e4f7ece	0.20263216
171	0x3e88a136	0.26685494
172	0x3e879598	0.26481318
173	0xbdbb9191	-0.09158624
174	0xbef5d047	-0.48010466
175	0x3ce97678	0.028498873
176	0x3f059da2	0.52193654
177	0xbee0d467	-0.4391205
178	0xbe3d801a	-0.18505898
179	0xbed5da5c	-0.41768157
180	0x3e579bab	0.21055476
181	0x3ea6105c	0.32434356
182	0x3f290a2d	0.6603115
183	0xbf5453e0	-0.82940483
184	0x3db378a7	0.08763247
185	0xbecb97af	-0.39764163
186	0x3ec8a33a	0.39187032
187	0x3f2c41c6	0.6728786
188	0xbed3ba24	-0.41352952
189	0x3f673855	0.9032033
190	0x3e284c2a	0.16435304
191	0xbeaf14fe	-0.34195703
192	0x3f03d7e9	0.5150133
193	0xbf37dd7a	-0.7182232
194	0x3f843513	1.0328697
195	0xbf241132	-0.6408874
196	0x3c84b181	0.016197922
197	0x3e59842f	0.2124183
198	0xbf5aed48	-0.8551831
199	0xbe066226	-0.13123378
200	0x3edb1340	0.42788124
201	0x3f108b09	0.5646215
202	0xbf432b05	-0.7623752
203	0xbe20c075	-0.15698417
204	0x3f37bf3f	0.71776193
205	0x3d5621ea	0.052278437
206	0xbeb83327	-0.35976526
207	0x3e03051e	0.12794921
208	0x3e970adf	0.2950048
209	0xbe82a1ba	-0.25514013
210	0xbe73b57b	-0.23799698
211	0xbf372df0	-0.7155447
212	0xbf26e67c	-0.6519544
213	0xbf7cc979	-0.9874492
214	0xbed3cfef	-0.41369578
215	0xbf998fd8	-1.1997023
216	0x3eb41415	0.3517157
217	0xbedee28b	-0.43532214
218	0x3f3dbe4e	0.74118507
219	0x3f3428db	0.7037484
220	0xbf365c29	-0.71234375
221	0xbe8a7d5c	-0.27048767
222	0xbeee9008	-0.46594262
223	0x3f5cd4da	0.86262286
224	0x3db5b774	0.088728815
225	0xbf2df1a2	-0.6794683
226	0x3e86a7f0	0.263
227	0x3f394b1f	0.7238025
228	0x3f93e92d	1.1555535
229	0xbe3bdd43	-0.18346123
230	0x3ec6ec02	0.38851935
231	0x3e9dcca7	0.308202
232	0x3d650a44	0.055917993
233	0xbf245438	-0.6419101
234	0xbe5572ec	-0.2084462
235	0x3e10aed9	0.14129199
236	0x3edc3e19	0.43016127
237	0xbc9e49ef	-0.019322364
238	0x3eb4187a	0.35174924
239	0x3f52b772	0.82311165
240	0xbe8820e8	-0.26587605
241	0x3f5da8e5	0.8658584
242	0xbf9d603e	-1.2294996
243	0xbf376e13	-0.71652335
244	0x3f011c63	0.5043394
245	0xbea38f47	-0.3194525
246	0x3f54171f	0.8284778
247	0xbf3fca50	-0.7491808
248	0xbfbd14c3	-1.4771961
249	0x3f210851	0.62903315
250	0x3ee1cbaa	0.44100696
251	0x3f5d0781	0.86339575
252	0xbf0b4263	-0.54398173
253	0xbcc1f78f	-0.023677615
254	0xbea63f11	-0.3246999
255	0x3f3d0e27	0.7384972

arith.constant5 f4 [64]
0	0x3f6c7246	0.9236187
1	0x3ed968bb	0.42462716
2	0xbf0f8bbc	-0.5607259
3	0x3d4bf551	0.0497945
4	0xbf8be320	-1.0928688
5	0x3e418b47	0.18900786
6	0xbfd0e649	-1.6320277
7	0xbef298d3	-0.4738222
8	0xbf673267	-0.9031128
9	0x3f838bbd	1.027702
10	0xbedf52b7	-0.43617794
11	0x3f61896e	0.88100326
12	0x3f9c647a	1.2218163
13	0x3f51f785	0.8201831
14	0x3f1a33ca	0.60235274
15	0xbfc78343	-1.5586933
16	0xbeda558c	-0.42643392
17	0x3ff5549f	1.9166449
18	0x3eda68cf	0.42658088
19	0x3facc433	1.3497375
20	0xbef14229	-0.4712079
21	0x3de8d50f	0.11368763
22	0xbc1bef64	-0.009517524
23	0x3f17da1f	0.593172
24	0xbf840778	-1.0314779
25	0xbf8b003e	-1.0859449
26	0xbfa94568	-1.3224306
27	0x3e912997	0.28352043
28	0x3e8ac2ef	0.27101848
29	0xbf208d18	-0.6271529
30	0x3dedac9b	0.116051875
31	0xbe450fdb	-0.1924433
32	0xbda0a523	-0.07843997
33	0xbea49d58	-0.32151294
34	0x3f3d3e1c	0.73922896
35	0xbec4e9b0	-0.3845954
36	0xbf3fd7d7	-0.7493872
37	0x3ef407ed	0.47662297
38	0xbdcad5e7	-0.0990408
39	0xbeac5cc7	-0.33664533
40	0xbfbd98dd	-1.4812275
41	0x3e9794e8	0.29605794
42	0x3f0c7460	0.54865074
43	0x3ebfc76e	0.3745684
44	0x3f00769a	0.5018097
45	0xbf2a7c45	-0.6659587
46	0xbce9a422	-0.028520647
47	0xbf48dd96	-0.78463113
48	0x3ea56efd	0.3231124
49	0x3f1c0eaa	0.60959876
50	0x3e79be92	0.24389103
51	0xbefeca11	-0.4976354
52	0x3f053109	0.52027947
53	0x3e636a73	0.22208576
54	0x3ece7fd8	0.40331912
55	0xbf18cf56	-0.5969137
56	0xbe2f1647	-0.17098342
57	0xbe71f9de	-0.23630473
58	0x3ecdd26f	0.4019961
59	0xbdf2b482	-0.118508354
60	0xbf9b24f2	-1.212065
61	0x3c3e2dec	0.011607628
62	0xbfb584d6	-1.4181163
63	0xbf9fcdba	-1.2484658

arith.constant6 f4 [128]
0	0xbc07598f	-0.0082610985
1	0xbc6b7265	-0.0143705355
2	0xbb92b7b8	-0.0044774674
3	0xbbbd3533	-0.005774164
4	0x3ce5ae9b	0.02803736
5	0x3ad3ccda	0.0016159073
6	0x3c76c95a	0.015062654
7	0x3b14dc8e	0.0022714469
8	0x3c086d66	0.008326864
9	0xba95a286	-0.0011416234
10	0xbc8876ee	-0.016658273
11	0x3c859c86	0.016309988
12	0x3b638e98	0.0034722444
13	0x3c268690	0.010163918
14	0xbcaca7d2	-0.021076117
15	0x3c94fee5	0.01818795
16	0xbcdf7710	-0.027278453
17	0xbc64f671	-0.013974772
18	0xbc85ccbd	-0.016332978
19	0xb9528fdf	-0.00020080757
20	0xbc8f6ce3	-0.017507976
21	0x3b2042b3	0.0024453818
22	0x3b1543c6	0.0022775992
23	0x3cf19198	0.02948837
24	0xbb29b670	-0.0025896095
25	0x3b948107	0.004531983
26	0x3c904ec4	0.017615683
27	0x3d137789	0.03600267
28	0x3ae0d243	0.0017152507
29	0x3bc6e718	0.006070029
30	0xbc0e077e	-0.008668778
31	0x3ba55646	0.005045685
32	0xbc86b829	-0.016445236
33	0xbc566390	-0.013085261
34	0xbb99fcb1	-0.0046993126
35	0x3c271557	0.010197959
36	0x3b98d9b7	0.0046646255
37	0xb7e369a4	-2.7109701e-05
38	0x3d05fcbd	0.032711733
39	0x3ce2639e	0.027635392
40	0x3ad45464	0.0016199467
41	0x3bc2b429	0.005941887
42	0x3a8128ac	0.000985404
43	0xbab4f475	-0.0013805764
44	0xbcdd3764	-0.027003951
45	0xba487f2f	-0.00076483464
46	0x3d1480df	0.036255714
47	0xbb1a3bea	-0.0023534247
48	0xbcf11ad2	-0.029431734
49	0xbc538ca5	-0.01291195
50	0xbb1c796b	-0.0023876082
51	0xbc1d0733	-0.009584236
52	0x3d12da38	0.03585264
53	0x3c1ae46a	0.009453872
54	0x3bac407e	0.0052567115
55	0x3c604742	0.013688864
56	0x3c0eac60	0.00870809
57	0x3cb650b0	0.022255272
58	0xbb6692be	-0.003518268
59	0x3c98519b	0.0185936
60	0x3cf3fa94	0.02978257
61	0xbc84ba3c	-0.016202085
62	0x3c2d3e2e	0.010573907
63	0xbc22ba20	-0.009932071
64	0xba096cfc	-0.0005242375
65	0xbcc0303d	-0.023460502
66	0xbb472be7	-0.0030391158
67	0x3c13620d	0.008995545
68	0x3b39a5dc	0.002832762
69	0xbc2e4632	-0.010636853
70	0xbcaaf7c7	-0.020870103
71	0x3c839e5f	0.016066728
72	0xbc0c660b	-0.008569251
73	0xbba02852	-0.004887619
74	0xbca6c9ce	-0.0203599
75	0xbc7377bd	-0.014860091
76	0xbd317828	-0.04332748
77	0x3bbd5568	0.0057780035
78	0x3ce5a979	0.028034912
79	0x3d337431	0.04381198
80	0x3c9883ba	0.0186175
81	0xbc4a99a2	-0.0123657305
82	0xbb25cf21	-0.002530046
83	0x3c716895	0.014734407
84	0xbc0b9d2b	-0.0085213585
85	0x3d146678	0.036230534
86	0xbbc78d89	-0.0060898704
87	0x3ca44082	0.020050291
88	0x3c158f40	0.009128392
89	0xbb53b394	-0.0032303082
90	0xbc983347	-0.018579138
91	0x3c305075	0.01076137
92	0xbc3e26a2	-0.0116058905
93	0xbc440709	-0.011964568
94	0x3c12fc96	0.008971354
95	0xba6d40a1	-0.0009050463
96	0x3d0846dd	0.033270705
97	0xbbcf4b09	-0.0063260836
98	0x3cb1683b	0.021656146
99	0x3c911755	0.01771132
100	0x3d204e03	0.039136898
101	0xbca12063	-0.019668764
102	0xbc22c7c4	-0.009935323
103	0xbb82ee57	-0.0039956975
104	0xbcf87c35	-0.030332664
105	0xbb84e185	-0.0040552043
106	0xbc28953a	-0.010289485
107	0xbce50e50	-0.027960926
108	0x3d2cae50	0.042158425
109	0x3d08706e	0.033310346
110	0xbc1c45a6	-0.00953809
111	0xbbe7bceb	-0.0070720813
112	0x38b6d2be	8.71769e-05
113	0x3c7fffbd	0.015624938
114	0x3d553b05	0.05205824
115	0xbb99d314	-0.004694352
116	0x3cba0499	0.02270727
117	0x3d56a00d	0.05239873
118	0x3cb59ae0	0.022168577
119	0x3d8bf2b5	0.06833402
120	0xbcf345fc	-0.029696457
121	0x3d018b9e	0.03162729
122	0xbc5d00fe	-0.013489006
123	0xbc7e4691	-0.015519754
124	0xba586fb9	-0.0008256394
125	0x3c8002a2	0.015626255
126	0xbc9975c8	-0.01873292
127	0xbc56eecd	-0.013118458

sequential_1_1/dense_4_1/MatMul f4 [128, 8]
0	0x3e3e8c0e	0.18608114
1	0xbd9e0347	-0.07715469
2	0xbe040f47	-0.12896453
3	0xbe5a8074	-0.21338063
4	0xbe2734ca	-0.16328731
5	0x3e25ad09	0.16179289
6	0x3ddfe4d7	0.109323196
7	0xbe0b4add	-0.13602777
8	0xbe3eab2f	-0.18619989
9	0xbc9372cf	-0.017999081
10	0x3d02dd1d	0.03194915
11	0x3de74ed8	0.11294335
12	0xbd895c70	-0.06707084
13	0x3df65b10	0.120290875
14	0x3bb44135	0.0055009373
15	0xbe1d5fbb	-0.1536855
16	0x3e10b230	0.14130473
17	0x3d624d52	0.05524952
18	0x3e329be5	0.17442282
19	0x3e081dfe	0.13292691
20	0x3bca985b	0.006182713
21	0x3c65b2c4	0.014019672
22	0x3e185308	0.14875424
23	0xba8a72b6	-0.0010562751
24	0x3e105269	0.14093937
25	0x3d393d2f	0.045224365
26	0x3dbcac71	0.09212578
27	0x3d4e1338	0.050311297
28	0xbd883cfa	-0.06652255
29	0xbc86d02c	-0.016456686
30	0x3e74bbde	0.2389979
31	0xbe2ea2e3	-0.17054324
32	0x3d85a9dd	0.065265395
33	0x3d54233a	0.051791407
34	0xbe375ed9	-0.17907275
35	0x3df56902	0.11982919
36	0x3e1c7a9e	0.1528115
37	0x3dc660b4	0.096864134
38	0x3e70f6dc	0.2353167
39	0x3dcac9f3	0.099018
40	0xbe263443	-0.16230874
41	0x3e35f613	0.17769651
42	0x3dbfbfe6	0.093627736
43	0xbe056ea0	-0.13030481
44	0xbd19f81d	-0.037590135
45	0xbe2f1256	-0.17096838
46	0x3d7a906b	0.061172884
47	0xbd39c43e	-0.045353167
48	0x3de51aa7	0.11186724
49	0x3bf20ef8	0.0073870383
50	0xbd9a2fff	-0.07528686
51	0x3e022c19	0.12712134
52	0x3d750bfc	0.059825882
53	0x3d8ebaf3	0.069692515
54	0xbe3bd911	-0.18344523
55	0xbaa7fb0c	-0.0012815907
56	0x3df33310	0.11874974
57	0xbdb1234d	-0.08649311
58	0x3d69d5fc	0.057088837
59	0x3d755830	0.059898555
60	0xbdad43e4	-0.08460215
61	0x3cd78fb9	0.02631365
62	0x3e82ae6e	0.25523704
63	0xbd536199	-0.05160675
64	0xbdfcdeb0	-0.12347162
65	0x3d9e67bc	0.077346295
66	0x3e13268d	0.14370175
67	0xbe212861	-0.1573806
68	0x3e15ff12	0.14648083
69	0xbdb45eae	-0.08807121
70	0xbcb4ffab	-0.022094568
71	0xbdc18668	-0.09449464
72	0xbe0717e3	-0.13192706
73	0x3e101805	0.14071663
74	0xbe320798	-0.1738571
75	0xbd7f8f28	-0.062392384
76	0xbc452b34	-0.012034226
77	0x3cf30676	0.029666167
78	0xbdbc6952	-0.09199776
79	0x3b8f27c5	0.0043687546
80	0xba5eba71	-0.000849641
81	0xbdea63ed	-0.114448406
82	0x3d93e3c8	0.0722118
83	0xbd2ab3dd	-0.041675437
84	0xbd279cbe	-0.040920965
85	0xbd81cdcd	-0.063380815
86	0x3cb28bd2	0.021795187
87	0xbda301c1	-0.07959319
88	0xbe475b26	-0.19468364
89	0x3d6d2c25	0.057903428
90	0x3e13cf2a	0.14434496
91	0xbdabc26a	-0.08386691
92	0x3e2b6d03	0.16740803
93	0x3e1fce35	0.15606005
94	0xbe5c7584	-0.21529204
95	0x3d350e6f	0.044203218
96	0xbc17cdec	-0.009265404
97	0xbe3a81ae	-0.18213531
98	0xbe15c2c7	-0.14625083
99	0xbcea2a1f	-0.028584538
100	0x3dd8f307	0.10593229
101	0xbe51c72f	-0.20486139
102	0xbde27015	-0.11056534
103	0xbe4db67b	-0.20089142
104	0x3e58066f	0.21096204
105	0x3c3f8938	0.01169043
106	0x3d928b9d	0.07155535
107	0xbd68d3c2	-0.056842573
108	0xbe388af1	-0.18021752
109	0x3e348679	0.17629422
110	0xbdd0b9a7	-0.101916604
111	0x3e4bc8cd	0.19900818
112	0x3cb1fc74	0.021726824
113	0xbda3eced	-0.080041744
114	0xbe433f0a	-0.19067016
115	0x3e01591e	0.12631652
116	0x3e3a239b	0.18177645
117	0xbde273e2	-0.11057259
118	0xbd609826	-0.0548326
119	0x3d3efd29	0.04662815
120	0xbe18e9ab	-0.14932887
121	0xbdae7f60	-0.085203886
122	0xbe4ad12a	-0.19806352
123	0xbdc531a9	-0.096286125
124	0xbdddc2cf	-0.108281724
125	0xbd3e0318	-0.04638967
126	0x3e19763c	0.14986509
127	0xbc8035b2	-0.015650604
128	0xbe283f9a	-0.16430512
129	0x3dee0993	0.1162292
130	0x3d73d017	0.05952462
131	0xbc95afac	-0.018272243
132	0x3e1a191f	0.15048645
133	0xbd87ac7e	-0.06624697
134	0x3b5391a3	0.0032282851
135	0xbde3144e	-0.11087857
136	0x3e5398ac	0.20663708
137	0x3d729f7c	0.059234127
138	0xbcbc4262	-0.022980873
139	0x3e1264ae	0.14296219
140	0xbd4122f6	-0.047152482
141	0xbc348100	-0.011017084
142	0xbe41ff9b	-0.18945162
143	0x3d9b11e2	0.0757177
144	0xbe1dc8ce	-0.15408632
145	0x3e08950d	0.13338108
146	0x3e027fa9	0.12744011
147	0xbdf65129	-0.12027199
148	0x3dee6800	0.1164093
149	0xbd3c568e	-0.045980982
150	0xbdd4e602	-0.10395433
151	0xbe195ee8	-0.1497761
152	0x3e1c5051	0.15265013
153	0x3de3744b	0.111061655
154	0xbe4f66bf	-0.20254038
155	0x3d4513c1	0.048114542
156	0x3d8547f8	0.065078676
157	0x3dc9aafa	0.09847064
158	0xbdc5fc79	-0.09667296
159	0xbe4c6b98	-0.19962919
160	0xbe186dab	-0.14885585
161	0x3e0941a2	0.13403943
162	0x3ca555e5	0.02018256
163	0x3df95282	0.1217394
164	0xbdd4bc68	-0.10387498
165	0x3c0baf73	0.008525717
166	0xbb697e0b	-0.0035628106
167	0x3b709cf6	0.003671465
168	0x3d96b010	0.073578
169	0x3d4d73ad	0.050159145
170	0xbe2348dc	-0.15945762
171	0xbce23047	-0.027610911
172	0xbc306d71	-0.01076828
173	0x3dab79cc	0.0837284
174	0x3e472121	0.19446231
175	0x3c3ae687	0.011407501
176	0xbdc7070e	-0.097181424
177	0x3e11b69a	0.14229813
178	0x3df7a7c4	0.12092546
179	0x3d97dd5a	0.07415266
180	0xbe0c18da	-0.13681355
181	0xbe0e918e	-0.13922712
182	0xbe283bd2	-0.1642907
183	0x3dd0cba2	0.1019509
184	0xbde0e4ed	-0.10981164
185	0x3e08dcc9	0.13365473
186	0xbd052e11	-0.032514635
187	0x3d116164	0.03549327
188	0xbd34f161	-0.04417551
189	0xbba62610	-0.0050704554
190	0xbe89b284	-0.2689401
191	0xbe631a47	-0.22177993
192	0x3e358575	0.17726691
193	0x3e159943	0.14609246
194	0x3d3b5c29	0.045742188
195	0xbdb72320	-0.089422464
196	0x3d63ec78	0.055645436
197	0xbbec8c15	-0.0072188475
198	0xbe4b0582	-0.1982632
199	0xbe0a72c9	-0.1352035
200	0x3de5238d	0.111884214
201	0x3dc1bacf	0.09459459
202	0xbe0b57ca	-0.13607708
203	0x3d329879	0.04360244
204	0x3e4c672b	0.1996123
205	0x3e2a789b	0.1664757
206	0xbc9f74b7	-0.019464834
207	0xbe1f4e6c	-0.1555726
208	0x3e030dcb	0.1279823
209	0xbddcae0f	-0.107753865
210	0xbe4c2b2c	-0.19938344
211	0x3bfce0e7	0.00771724
212	0x3dd51afc	0.104055375
213	0x3dedfa2f	0.11619984
214	0x3dad8136	0.08471911
215	0xbdf3a418	-0.11896533
216	0xbe1c709d	-0.15277334
217	0x3cb8c49e	0.022554692
218	0xbd690990	-0.056893885
219	0xbe241a5b	-0.16025679
220	0xbdccb417	-0.09995287
221	0x3c947f46	0.018127095
222	0xbe0fa59c	-0.14028019
223	0xbe128c6d	-0.1431138
224	0xbc383368	-0.011242725
225	0x3dc6c080	0.09704685
226	0xbd5b70c9	-0.053574357
227	0xbd0fc57e	-0.035100453
228	0xbc0dcf4b	-0.0086553795
229	0x3d086fb7	0.033309665
230	0xbe36071a	-0.17776147
231	0x3d097f3a	0.0335686
232	0xbe19c9a8	-0.15018332
233	0x3d38caac	0.045115158
234	0xbdb0f5d9	-0.08640642
235	0xbc16d619	-0.009206318
236	0x3bc7d08c	0.006097859
237	0xbe38d83e	-0.1805124
238	0xbcbf1024	-0.023323126
239	0xbdf73076	-0.1206979
240	0x3dc5153a	0.09623189
241	0x3d9b58f8	0.07585329
242	0xbdd59465	-0.10428695
243	0x3e188990	0.14896226
244	0xbe0489bd	-0.12943168
245	0xbd4ad053	-0.04951508
246	0xbd1717ea	-0.03688804
247	0xbe1e6aab	-0.15470378
248	0xbd1a26a6	-0.037634514
249	0x3d1a11f3	0.037614774
250	0x3cb3df91	0.02195719
251	0xbc489922	-0.012243541
252	0x3da01541	0.07816554
253	0x3d9d4aa6	0.07680254
254	0x3e1d9f09	0.15392698
255	0x3e0bfe05	0.1367112
