app/src/main/assets/cardio_model.tflite (tflite, 41496 bytes, 5 tensors)

arith.constant f4 [1, 64]
0.12483052 -0.107885964 0.10428194 -0.13900769 -0.1699143 -0.01734745 -0.07938475 0.0932728
0.20628929 -0.04173876 -0.07052769 0.07158098 0.14870389 0.14487153 -0.059451986 -0.15184093
0.05902556 0.22485016 0.22006407 0.17025833 0.2998093 -0.11325939 -0.046751387 -0.13536833
-0.13844633 -0.056654226 0.068957284 0.20832393 -0.08178471 -0.12375851 0.119435124 0.21574214
-0.13821656 -0.07908999 -0.060463093 -0.05416378 -0.10395349 0.081447996 0.085520506 0.0982052
-0.061426833 -0.11782396 -0.13194692 0.12420905 0.076651275 -0.08366476 0.070810735 0.11527783
0.0026173508 0.11186892 -0.06977571 -0.0965862 -0.09027241 0.054174803 0.035043307 -0.091146715
0.22697204 0.1802137 0.14051086 0.27330157 0.17444459 0.08348299 -0.24246314 -0.071263924
00000000: 25a7 ff3d 51f3 dcbd c591 d53d 0858 0ebe
00000010: 04fe 2dbe 3d1c 8ebc 7994 a2bd cf05 bf3d
00000020: 803d 533e 43f6 2abd d270 90bd 0d99 923d
00000030: d545 183e 3459 143e ed83 73bd 307c 1bbe
00000040: c9c4 713d 1f3f 663e 7a58 613e 3358 2e3e
00000050: 9b80 993e 8af4 e7bd 627e 3fbd ff9d 0abe
00000060: e0c4 0dbe 430e 68bd 7a39 8d3d de52 553e
00000070: be7e a7bd 1a75 fdbd 679a f43d 82eb 5c3e
00000080: a488 0dbe eff9 a1bd 26a8 77bd d7da 5dbd
00000090: 91e5 d4bd 35ce a63d 6025 af3d cf1f c93d
000000a0: b49a 7bbd b04d f1bd 181d 07be 5061 fe3d
000000b0: 58fb 9c3d 6e58 abbd 3805 913d c816 ec3d
000000c0: dc87 2b3b 881b e53d 91e6 8ebd fcce c5bd
000000d0: bee0 b8bd 66e6 5d3d 9289 0f3d 21ab babd
000000e0: 5c6b 683e f189 383e 14e2 0f3e 2fee 8b3e
000000f0: 9aa1 323e 21f9 aa3d 4248 78be d2f2 91bd

arith.constant1 f4 [64, 128]
0.014117058 -0.08297012 -0.013578645 -0.05465647 -0.15381736 0.042103376 0.18963784 0.028742699
0.0073229442 9.066568e-05 -0.038201097 0.015724525 -0.1343571 -0.2537034 0.0524964 -0.04796413
-0.22333756 -0.16356322 0.03531191 -0.034402166 0.13993089 0.11250959 -0.047358163 -0.0006993227
-0.15003799 -0.058549047 -0.09228027 -0.04918041 -0.07470533 0.21813616 0.081609376 0.181062
0.115191676 0.142105 0.05000608 0.053683598 0.002263478 0.087653056 0.018151954 -0.084616624
0.011429004 -0.056518704 0.04462202 -0.080807775 -0.05141349 -0.06451734 -0.032085016 0.0058231056
-0.068923295 -0.11179849 0.041998107 0.11874215 -0.12300067 -0.0045246095 0.119159 0.037279032
-0.19327489 -0.10174983 0.010181556 -0.13516165 0.040445123 -0.15252621 -0.119622976 -0.021874988
-0.096517436 0.044356234 0.14980027 -0.016023355 0.13148631 0.034388047 0.13516164 0.055973537
0.01675294 0.054060925 -0.10778148 -0.030957233 -0.1625983 -0.055867348 0.123546354 -0.09836765
-0.09572385 0.1103116 -0.13692363 0.022033988 0.08220733 -0.13382316 -0.08591861 0.038164183
0.06603888 0.097316794 0.055371344 0.04429444 0.006303619 -0.19467506 0.06695335 0.14274354
0.022586297 0.13671812 0.09137381 0.08849975 -0.053855136 -0.14731927 0.120395176 0.058443286
-0.24397156 -0.11508034 -0.13111824 -0.16294463 0.027514419 -0.17577182 -0.012804444 0.10325784
-0.26287264 -0.0851073 -0.043752898 0.12187201 -0.16156645 -0.244528 -0.20082116 0.047277506
0.008311323 0.16528824 -0.08653676 0.071098365 0.044052146 0.10846627 -0.14131354 0.1452006
-0.14514829 0.038038045 0.14602257 -0.08698315 0.12444439 0.057473805 0.12423861 -0.07151078
-0.097000964 0.1417905 -0.051089965 0.09558962 -0.044489514 -0.06345854 0.18643382 -0.0662816
0.09658446 0.00063487777 0.07701116 0.00014919607 0.12461528 -0.27426267 -0.30808508 -0.20675582
0.14524207 0.11458268 0.07696931 -0.13352801 0.08987592 0.039075308 0.06397183 -0.013540182
0.15293363 0.011771987 0.08137051 -0.12291117 -0.06377702 0.18177702 0.042218935 0.061210644
-0.13682452 -0.06639139 0.019707289 0.112645015 -0.14222637 -0.20544444 0.029894723 -0.13071841
-0.05731655 -0.16101289 0.11107773 -0.27033803 -0.09601738 -0.042055085 0.06906223 -0.03191734
-0.07310422 0.03839879 -0.11721744 -0.04551454 -0.09375036 0.096455164 0.04652765 0.05293638
-0.19693261 -0.11067855 -0.09765311 -0.12861733 0.14098516 -0.2026652 -0.17152482 -0.15312144
-0.052811425 -0.07503271 -0.045397807 -0.25429314 0.1054932 -0.031720113 -0.17868519 -0.15718225
-0.17053485 0.080194175 0.016552024 0.114161894 0.12264811 0.114123106 -0.0016276028 -0.047930732
-0.120018825 0.12530969 -0.20897113 0.09982314 -0.35576567 -0.2919186 0.07795036 0.105949126
0.15148942 -0.12193084 0.18159501 0.1377544 -0.20453663 0.12409214 -0.16043656 0.013176169
-0.012164259 0.043103874 -0.054575272 0.17456177 0.068391405 0.20134722 -0.029900908 0.08042585
0.17780381 -0.07599347 -0.11622509 -0.12840524 0.058440045 -0.011341962 0.19032356 -0.17779662
-0.04909157 0.02742734 -0.024100214 -0.23975062 -0.05966927 -0.011145795 0.17177035 0.16277215
00000000: 3c4b 673c 3dec a9bd f778 5ebc 76df 5fbd
00000010: 4c82 1dbe 9774 2c3d 6c30 423e cf75 eb3c
00000020: 4ff5 ef3b c423 be38 c178 1cbd b8d0 803c
00000030: e894 09be 69e5 81be 7706 573d 0976 44bd
00000040: 9ab2 64be 1e7d 27be 39a3 103d 49e9 0cbd
00000050: 0b4a 0f3e 6e6b e63d a2fa 41bd c152 37ba
00000060: 8fa3 19be 20d1 6fbd 70fd bcbd 6671 49bd
00000070: 1cff 98bd 165f 5f3e d122 a73d 5168 393e
00000080: 9de9 eb3d f983 113e 2dd3 4c3d 55e3 5b3d
00000090: dc56 143b 7283 b33d 68b3 943c 7b4b adbd
000000a0: b840 3b3c 2880 67bd 94c5 363d 8c7e a5bd
000000b0: f496 52bd ab21 84bd 946b 03bd c0cf be3b
000000c0: a827 8dbd 9bf6 e4bd 3506 2c3d 162f f33d
000000d0: c6e7 fbbd 2d43 94bb a209 f43d e6b1 183d
000000e0: dae9 45be 3762 d0bd 8bd0 263c d167 0abe
000000f0: c9a9 253d d52f 1cbe e4fc f4bd 2d33 b3bc
00000100: efaa c5bd e2ae 353d 3e65 193e 6943 83bc
00000110: 59a4 063e 7bda 0c3d d067 0a3e 8244 653d
00000120: 763d 893c fd6e 5d3d 89bc dcbd 069a fdbc
00000130: 2b80 26be 29d5 64bd df05 fd3d fa74 c9bd
00000140: de0a c4bd 0ceb e13d b535 0cbe 9f80 b43c
00000150: 515c a83d f008 09be 19f6 afbd 0c52 1c3d
00000160: 643f 873d 074e c73d 10cd 623d 166e 353d
00000170: 978e ce3b e658 47be d71e 893d 5d2b 123e
00000180: e606 b93c d6ff 0b3e 3122 bb3d 5b3f b53d
00000190: 3497 5cbd ddda 16be bf91 f63d 3a62 6f3d
000001a0: aed3 79be 3eaf ebbd dc43 06be f5da 26be
000001b0: eb65 e13c 87fd 33be bbc9 51bc d978 d33d
000001c0: 3e97 86be bc4c aebd 3d36 33bd 0898 f93d
000001d0: ad71 25be 8c65 7abe 10a4 4dbe 0fa6 413d
000001e0: 372c 083c 5241 293e 2f3a b1bd 059c 913d
000001f0: 0670 343d 9023 de3d 7fb4 10be 77af 143e
00000200: c1a1 14be c8cd 1b3d f186 153e 3924 b2bd
00000210: b3dc fe3d a769 6b3d d070 fe3d 3e74 92bd
00000220: 71a8 c6bd 8731 113e b643 51bd 7ec4 c33d
00000230: a33a 36bd 8df6 81bd 82e8 3e3e a6be 87bd
00000240: 13ce c53d ed6d 263a 07b8 9d3d 8471 1c39
00000250: 4c36 ff3d 286c 8cbe 54bd 9dbe ccb7 53be
00000260: 56ba 143e 53aa ea3d 16a2 9d3d 91bb 08be
00000270: de10 b83d 6e0d 203d aa03 833d a4d7 5dbc
00000280: a29a 1c3e 4bdf 403c 95a5 a63d dab8 fbbd
00000290: 879d 82bd c123 3a3e c3ed 2c3d 03b8 7a3d
000002a0: ba1b 0cbe 36f8 87bd 2e71 a13c 6eb2 e63d
000002b0: caa3 11be 0760 52be c7e5 f43c 0cdb 05be
000002c0: c2c4 6abd 90e0 24be b97c e33d bf69 8abe
000002d0: c3a4 c4bd f441 2cbd 8070 8d3d c2bb 02bd
000002e0: aab7 95bd 0d48 1d3d b20f f0bd 746d 3abd
000002f0: 3000 c0bd 498a c53d c793 3e3d d1d3 583d
00000300: b4a8 49be 70ab e2bd 5bfe c7bd 43b4 03be
00000310: 6a5e 103e 7787 4fbe 34a4 2fbe decb 1cbe
00000320: cb50 58bd c0aa 99bd 0df3 39bd b632 82be
00000330: d20c d83d f3ec 01bd 40f9 36be 62f4 20be
00000340: b0a0 2ebe d83c a43d 1c98 873c b6cd e93d
00000350: ef2e fb3d 60b9 e93d 4a55 d5ba 0453 44bd
00000360: 6ecc f5bd 2f51 003e 87fc 55be 1370 cc3d
00000370: eb26 b6be 5b76 95be 70a4 9f3d dbfb d83d
00000380: 0b20 1b3e e0b6 f9bd 0bf4 393e 7d0f 0d3e
00000390: 0d72 51be 0524 fe3d 7b49 24be dce0 573c
000003a0: 9a4c 47bc b08d 303d 528a 5fbd 52c0 323e
000003b0: cb10 8c3d f72d 4e3e c0f2 f4bc 4fb6 a43d
000003c0: 3412 363e 77a2 9bbd 6c07 eebd aa7c 03be
000003d0: d45e 6f3d a3d3 39bc 2ee4 423e 5110 36be
000003e0: 3e14 49bd 4daf e03c d06d c5bc 3081 75be
000003f0: c467 74bd da9c 36bc 91e4 2f3e bead 263e

arith.constant3 f4 [64]
0.218188 0.11309942 0.15249129 0.13930702 0.10405147 0.14419016 0.10259603 0.1648371
0.1474528 0.16699779 -0.07490427 0.21883291 0.07638697 0.19380806 0.09292043 -0.038526703
0.18440387 0.1546047 0.015593727 0.10805663 -0.19667631 0.18189609 0.22118248 -0.010475514
0.05658439 -0.060410447 0.027977245 0.18702453 0.22593974 0.108813934 0.25594935 -0.09680934
0.14504017 0.16773973 0.15584321 0.20099312 0.061113745 0.14282061 0.21993198 0.15154018
0.17388064 0.26519114 0.13117592 0.20753653 0.19905847 0.1445765 0.18598473 0.12741816
-0.08161038 0.20619759 0.12212263 0.15769215 0.20796975 0.12959541 -0.15473267 0.07811281
0.17826428 -0.0690903 0.23911054 0.19069768 0.22429049 0.06615074 -0.10034324 0.12496742
00000000: ad6c 5f3e aba0 e73d ad26 1c3e 80a6 0e3e
00000010: f018 d53d 96a6 133e de1d d23d 0fcb 283e
00000020: defd 163e 7801 2b3e 6967 99bd bc15 603e
00000030: c670 9c3d 9f75 463e 114d be3d 2dce 1dbd
00000040: 5ed4 3c3e b250 1e3e d57c 7f3c cb4c dd3d
00000050: 8465 49be f842 3a3e a97d 623e 7ea1 2bbc
00000060: 09c5 673d f270 77bd 8930 e53c 5c83 3f3e
00000070: bf5c 673e d7d9 de3d cb0b 833e fa43 c6bd
00000080: 6985 143e f7c3 2b3e 5d95 1f3e 24d1 4d3e
00000090: 6852 7a3d 913f 123e d935 613e 592d 1b3e
000000a0: c40d 323e 22c7 873e fb52 063e 7584 543e
000000b0: fcd5 4b3e dd0b 143e c872 3e3e e879 023e
000000c0: 5823 a7bd 7625 533e 6e1b fa3d 0d7a 213e
000000d0: 06f6 543e a9b4 043e 3e72 1ebe 9cf9 9f3d
000000e0: e98a 363e 377f 8dbd 65d9 743e 4146 433e
000000f0: 68ac 653e 0a7a 873d c280 cdbd ebee ff3d

sequential_1_1/dense_3_1/BiasAdd/ReadVariableOp f4 [128]
-0.123937085 -0.035058185 -0.063444816 -0.08361659 -0.058683787 -0.1674436 -0.2518873 -0.058628228
0.06004847 -0.043972988 -0.18278632 -0.12478711 -0.1792609 0.041397586 -0.106740154 -0.021849295
0.083297715 -0.076327175 0.036331296 -0.10854508 0.017431002 -0.00066261675 -0.07347304 -0.12637542
0.18040837 0.047977604 -0.2909797 0.027563646 -0.016071761 -0.1923762 -0.09256513 0.08961753
0.04561593 -0.1457326 0.033545118 -0.13425434 -0.0841528 -0.011635878 -0.15715684 -0.021284474
-0.008938635 0.07223183 0.03346469 -0.07831855 0.037847016 0.077356696 -0.06515933 -0.17500919
0.023615127 -0.2607538 -0.029501468 0.04909815 -0.30630296 0.12185071 -0.08786321 -0.110002734
0.11076616 -0.100729905 -0.046458475 0.035958815 -0.05782114 -0.18555075 0.08506243 -0.051732935
-0.20186226 -0.06160012 -0.0704602 -0.042971294 -0.07594725 0.05497448 0.09926307 0.022061631
-0.008022797 -0.18024367 -0.19433255 -0.09962752 -0.08873566 -0.041125808 -0.16411719 -0.16612421
0.008153013 -0.047108848 -0.039222177 0.06813571 -0.107289664 -0.06604702 -0.016296381 -0.23025586
-0.058981493 -0.017300662 -0.13129763 -0.10122088 0.113319285 -0.12612009 -0.042470597 0.03559116
-0.06631111 -0.058508962 -0.09294047 -0.10278256 0.06892395 0.03918913 -0.09809501 0.09779333
-0.0040319995 0.10147696 0.12926276 0.017684855 -0.15419285 -0.03580316 -0.23248044 0.047396097
0.1462823 0.029929012 -0.03159528 0.039953813 -0.13606016 0.10037957 -0.096802354 -0.03278989
0.020735746 0.079744324 -0.14341463 -0.070599 0.09558198 -0.11770671 0.027154842 -0.036440235
00000000: bad2 fdbd 2c99 0fbd 5bef 81bd 2d3f abbd
00000010: 695e 70bd 5676 2bbe 5ff7 80be 2724 70bd
00000020: 62f5 753d 051d 34bd 562c 3bbe 6290 ffbd
00000030: 2b90 37be 8490 293d 959a dabd 4bfd b2bc
00000040: fe97 aa3d 6c51 9cbd 20d0 143d e24c debd
00000050: 76cb 8e3c 75b3 2dba 0879 96bd 8f68 01be
00000060: f9bc 383e 2a84 443d 4bfb 94be 28cd e13c
00000070: eda8 83bc 44fe 44be c992 bdbd 6589 b73d
00000080: c5d7 3a3d ed3a 15be 9b66 093d f879 09be
00000090: 4e58 acbd 69a4 3ebc b9ed 20be c75c aebc
000000a0: 5a73 12bc 48ee 933d 4512 093d 7a65 a0bd
000000b0: 7905 1b3d 306d 9e3d 4172 85bd 9c35 33be
000000c0: 8374 c13c 8681 85be 10ad f1bc 241b 493d
000000d0: bed3 9cbe dd8c f93d a0f1 b3bd 1d49 e1bd
000000e0: 5ed9 e23d 7b4b cebd 3e4b 3ebd 8d49 133d
000000f0: dcd5 6cbd 0401 3ebe 3635 ae3d eae5 53bd
00000100: fbb4 4ebe 6850 7cbd 704d 90bd ab02 30bd
00000110: 3b8a 9bbd ec2c 613d 704a cb3d 98ba b43c
00000120: 0d72 03bc cc91 38be 1dff 46be 8309 ccbd
00000130: 0bbb b5bd 8973 28bd 560e 28be 771c 2abe
00000140: 3794 053c 35f5 40bd 6fa7 20bd bc8a 8b3d
00000150: afba dbbd a943 87bd fd7f 85bc 31c8 6bbe
00000160: 9496 71bd 1eba 8dbc e372 06be e54c cfbd
00000170: f113 e83d a025 01be a6f5 2dbd 09c8 113d
00000180: 1fce 87bd 18a7 6fbd 9357 bebd aa7f d2bd
00000190: 0028 8d3d c884 203d 09e6 c8bd df47 c83d
000001a0: dd1e 84bb 27d3 cf3d 755d 043e d4df 903c
000001b0: bbe4 1dbe 56a6 12bd 5a0f 6ebe 6922 423d
000001c0: 07cb 153e b02d f53c 0d6a 01bd 9ca6 233d
000001d0: 5b53 0bbe ce93 cd3d 5040 c6bd b14e 06bd
000001e0: 03de a93c fe50 a33d 49db 12be 3596 90bd
000001f0: 7cc0 c33d 3710 f1bd d573 de3c 5b42 15bd

sequential_1_1/dense_3_1/MatMul f4 [128, 11]
0.16848566 -0.11352642 0.0024845602 -0.040577505 0.18432494 0.20379238 0.06720373 0.06320144
-0.00088724116 0.17601328 -0.089401916 -0.17349 0.15214416 -0.07744951 0.018553441 -0.41561404
0.15297799 0.027195819 -0.082385324 -0.11338533 0.09095021 0.047514107 -0.19060268 -0.13105467
0.076231524 -0.10561737 -0.04615721 -0.0065017855 -0.22223967 -0.33307987 0.12345765 -0.027273357
-0.09482652 -0.13441561 -0.13708067 -0.13594612 -0.016928414 0.13328835 0.039161664 0.15837395
-0.0075592333 0.18099765 -0.019700272 0.061708 -0.20142332 -0.074779764 -0.0789577 -0.0907562
-0.32406676 -0.12087532 0.045601793 0.051350243 0.0936826 0.032844316 -0.113651305 0.15064701
0.062689595 -0.13777107 0.12084323 -0.029753238 -0.20132905 0.039935425 0.1347089 -0.030540729
0.14964657 -0.06977411 -0.056962 0.040824946 -0.019939996 0.0066245315 0.3189318 0.13394019
0.0023470344 0.26173684 0.020954635 0.1747975 -0.042111177 0.036920913 0.21842664 -0.07165353
0.06426097 0.21796405 -0.09011705 -0.0023393661 -0.09644682 -0.07532904 0.044981588 -0.08495682
0.020419104 -0.19899814 0.20789468 0.13612676 0.0075334962 0.0760051 0.19397342 -0.19987214
-0.065737225 0.0014238099 0.02041997 -0.1452758 0.10441693 -0.06012817 -0.092986815 -0.0017309051
-0.058162127 -0.027412646 -0.19594681 0.016041348 -0.018848713 0.13020822 0.029562447 0.087037414
0.13178842 -0.06915961 0.040922295 0.21451183 0.011312384 0.11727182 -0.028991297 0.10362164
-0.10193826 0.16459006 0.1492141 -0.014189968 -0.019764852 0.045668736 -0.26982442 0.19270636
0.002280457 -0.15112408 -0.055136245 -0.034027334 0.119235694 0.0080940295 0.08292537 -0.09762923
0.11277086 -0.1264335 0.0569432 -0.12160762 -0.08317336 0.06576141 -0.16777728 0.025279036
-0.049092524 0.08891556 -0.05322307 -0.5027041 0.047008097 -0.06267719 -0.121915005 0.06281847
0.046048027 -0.06828323 0.037159484 0.0794883 -0.18521363 -0.2986137 -0.0054175504 -0.049118936
-0.113219045 -0.14966561 0.035638854 0.113813415 0.09010704 -0.1332785 -0.036210958 0.055562794
-0.0360321 -0.396046 0.108284205 -0.13565683 -0.21544279 0.01495906 0.05043449 0.035536863
-0.04021813 0.0110708885 0.109512895 -0.25270715 -0.48432764 -0.07791495 -0.054446407 0.093556575
0.025707304 0.036294844 0.039275594 0.06515393 0.010510106 -0.13438919 -0.14255662 0.10430562
-0.14095455 -0.051249944 0.040469587 -0.10781905 -0.1256847 -0.015193559 -0.0454821 0.1648225
-0.1764371 -0.06876205 0.04551737 0.017315459 -0.043062165 0.07407749 -0.1715639 -0.19475327
0.10922686 -0.03582301 -0.1942346 0.015779672 -0.051846057 -0.027855048 -0.007345208 0.22281678
0.049508665 0.032865863 -4.4144494e-05 0.04496621 -0.100202315 -0.24501342 -0.08184837 0.049588017
-0.12959306 -0.10470338 -0.14008673 0.08556144 0.12640578 0.14115588 -0.054376803 -0.059078697
-0.04024775 -0.020850515 -0.017554808 0.45999613 0.19566162 -0.019661266 0.017637791 -0.015135646
0.024104984 0.00023482517 0.37148637 -0.114619635 -0.08615594 -0.11770728 0.19637959 0.10662739
0.015240022 0.038546506 -0.0803047 0.0015613683 0.041249633 -0.08375074 0.127822 0.03608067
00000000: 8187 2c3e 8a80 e8bd 01d4 223b 9934 26bd
00000010: adbf 3c3e f3ae 503e 1ca2 893d c26f 813d
00000020: bf95 68ba d33c 343e 5a18 b7bd 5da7 31be
00000030: aecb 1b3e d99d 9ebd 63fd 973c 5dcb d4be
00000040: 43a6 1c3e c4c9 de3c a3b9 a8bd 9136 e8bd
00000050: 1b44 ba3d 279e 423d 592d 43be 3233 06be
00000060: 461f 9c3d eb4d d8bd 580f 3dbd ee0c d5bb
00000070: cc92 63be 7289 aabe 5dd7 fc3d 606c dfbc
00000080: 6834 c2bd 3fa4 09be e05e 0cbe 7635 0bbe
00000090: 75ad 8abc be7c 083e fb67 203d c82c 223e
000000a0: 72b3 f7bb 7357 393e 7762 a1bc 87c1 7c3d
000000b0: ea41 4ebe 2226 99bd 93b4 a1bd 63de b9bd
000000c0: 14ec a5be 7b8d f7bd f2c8 3a3d a254 523d
000000d0: aadc bf3d c387 063d 04c2 e8bd 3643 1a3e
000000e0: 6763 803d dc13 0dbe a87c f73d 10bd f3bc
000000f0: 3429 4ebe 5493 233d 21f1 093e 8d30 fabc
00000100: f33c 193e bbe5 8ebd fc50 69bd 0f38 273d
00000110: 3459 a3bc 9912 d93b 074b a33e 9e27 093e
00000120: b4d0 193b 5f02 863e 0ea9 ab3c 1efe 323e
00000130: c57c 2cbd 623a 173d 3cab 5f3e 16bf 92bd
00000140: 419b 833d f831 5f3e 4a8f b8bd 0d50 19bb
00000150: e985 c5bd 1d46 9abd 9d3e 383d d7fd adbd
00000160: f745 a73c 2bc6 4bbe 58e2 543e d064 0b3e
00000170: 8cdb f63b 90a8 9b3d f8a0 463e 48ab 4cbe
00000180: 3da1 86bd 229f ba3a c847 a73c 2ec3 14be
00000190: 8bd8 d53d f548 76bd df6f bebd 8adf e2ba
000001a0: 693b 6ebd 7c90 e0bc 48a6 48be 2569 833c
000001b0: 9e68 9abc 4e55 053e f22c f23c ac40 b23d
000001c0: 8bf3 063e 8ea3 8dbd 239e 273d fda8 5b3e
000001d0: 9457 393c 352c f03d 287f edbc 9537 d43d
000001e0: 02c5 d0bd 4c8a 283e 95cb 183e 0a7d 68bc
000001f0: e6e9 a1bc 240f 3b3d 6d26 8abe d154 453e
00000200: b873 153b 45c0 1abe 8bd6 61bd 3f60 0bbd
00000210: d831 f43d d29c 043c c7d4 a93d d5f1 c7bd
00000220: 69f4 e63d c977 01be 463d 693d 6a0d f9bd
00000230: cb56 aabd ebad 863d cfcd 2bbe fb15 cf3c
00000240: 3e15 49bd 5c19 b63d 6f00 5abd 37b1 00bf
00000250: 908b 403d e65c 80bd 93ae f9bd f8a6 803d
00000260: db9c 3c3d 14d8 8bbd 8b34 183d c3ca a23d
00000270: a4a8 3dbe e5e3 98be b585 b1bb f030 49bd
00000280: 63df e7bd f141 19be 0cfa 113d 0217 e93d
00000290: 0a8a b83d 297a 08be f151 14bd d095 633d
000002a0: 6596 13bd 8bc6 cabe 1cc4 dd3d a0e9 0abe
000002b0: 099d 5cbe d816 753c 6594 4e3d 1a8f 113d
000002c0: c4bb 24bd ac62 353c 4c48 e03d d562 81be
000002d0: cbf9 f7be e091 9fbd 3203 5fbd 979a bf3d
000002e0: 2098 d23c e7a9 143d 72df 203d 6c6f 853d
000002f0: 9432 2c3c 529d 09be 5dfa 11be 2f9e d53d
00000300: 6456 10be 76eb 51bd 70c3 253d 3cd0 dcbd
00000310: 7db3 00be 68ee 78bc 704b 3abd 3bc7 283e
00000320: edab 34be 1ed3 8cbd 6c70 3a3d 26d9 8d3c
00000330: f461 30bd f0b5 973d 72ae 2fbe 676d 47be
00000340: 55b2 df3d 26bb 12bd 6fe5 46be 5f44 813c
00000350: 885c 54bd 4530 e4bc 12b0 f0bb 152a 643e
00000360: 99c9 4a3d 5b9e 063d ca27 39b8 7d2e 383d
00000370: df36 cdbd cce4 7abe 1ea0 a7bd ce1c 4b3d
00000380: 0bb4 04be ba6e d6bd e572 0fbe d63a af3d
00000390: 8470 013e 2b8b 103e 36ba 5ebd 81fc 71bd
000003a0: d3da 24bd b3ce aabc 1acf 8fbc 9d84 eb3e
000003b0: 855b 483e aa10 a1bc 217d 903c 80fb 77bc
000003c0: d177 c53c 673b 7639 7633 be3e b3bd eabd
000003d0: 8772 b0bd 8410 f1bd bb17 493e 765f da3d
000003e0: 49b1 793c f1e2 1d3d ca76 a4bd d4a6 cc3a
000003f0: 60f5 283d 8285 abbd c5e3 023e 53c9 133d
