app/src/main/assets/cardio_model.tflite (tflite, 13592 bytes, 5 tensors)

arith.constant f4 [1, 32]
0	0x3f0912ea	0.53544486
1	0x3e801f42	0.25023848
2	0xbf4c0697	-0.79697555
3	0x3d270558	0.04077658
4	0x3a8d523d	0.0010781955
5	0x3ec09e69	0.37620857
6	0x3f31555d	0.6927088
7	0xbee60963	-0.44929036
8	0x3bd261e9	0.006420363
9	0xbe024c80	-0.12724495
10	0x3d8110f3	0.06302061
11	0x3df18a3b	0.117939435
12	0x3e857546	0.26066035
13	0xbea9b1da	-0.33143502
14	0xbab67f10	-0.0013923366
15	0xbe5e57f1	-0.21713234
16	0xbe5fd0ab	-0.21856944
17	0xbd8258c8	-0.0636459
18	0x3f051b3f	0.519947
19	0xbdea3e10	-0.11437619
20	0xbea5d2a9	-0.32387283
21	0x3edd2bd6	0.43197507
22	0x3e3c0325	0.18360575
23	0x3ec1f04f	0.37878653
24	0x3d7ce6ec	0.06174366
25	0x3eee35c0	0.46525383
26	0x3e53efbb	0.20696919
27	0x3ebf00bb	0.37305245
28	0xbe066779	-0.13125409
29	0x3c66b00c	0.014080059
30	0xbdf7454a	-0.12073763
31	0xbced74c8	-0.02898635

arith.constant1 f4 [32, 64]
0	0xbcb5d5f8	-0.022196755
1	0x3e491169	0.19635548
2	0x3bb25f5a	0.0054434957
3	0xbef9de9e	-0.48802656
4	0xbf0d3c84	-0.55170465
5	0xbe86aeb6	-0.2630517
6	0xbe15f808	-0.14645398
7	0x3e51561b	0.20443003
8	0xbee1c7a1	-0.44097617
9	0xbe8d99d2	-0.27656418
10	0x3e530077	0.20605646
11	0xbd9d1dc7	-0.07671695
12	0x3d1dad6e	0.038495474
13	0x3e29947b	0.16560547
14	0x3e5b65a0	0.21425486
15	0xbe5dae21	-0.21648456
16	0x3e80bda5	0.25144687
17	0xbf296d95	-0.66182834
18	0xbe6dadc6	-0.2321082
19	0xbea1550f	-0.31510207
20	0xbbad3fb8	-0.005287137
21	0xbd2ad99b	-0.04171143
22	0x3d8fba0f	0.0701791
23	0x3dbbb34c	0.091650575
24	0xbefe94ca	-0.49722892
25	0xbed94979	-0.42438868
26	0x3d9227ed	0.071365215
27	0x3ddc88f7	0.107683115
28	0x3d9bce70	0.07607734
29	0xbd2ea625	-0.042638917
30	0xbf0239da	-0.50869524
31	0x3e22f111	0.15912272
32	0x3e788962	0.24271157
33	0xbdc11dc1	-0.09429503
34	0x3deb07ae	0.11476074
35	0xbe064804	-0.1311341
36	0xbbd39015	-0.006456385
37	0xbe2cf4d4	-0.1689027
38	0xbd31e41d	-0.043430436
39	0xbda5d1c4	-0.0809665
40	0x3e95ad6f	0.29233882
41	0x3e982337	0.29714367
42	0x3dcb3819	0.09922809
43	0x3e29da99	0.16587295
44	0x3e01baaa	0.12668863
45	0x3d79e980	0.0610137
46	0x3d227c5a	0.039669372
47	0xbf98d988	-1.1941385
48	0xbd8f8cc7	-0.07009273
49	0xbdbbf1e7	-0.091769986
50	0xbf10eba1	-0.5660954
51	0x3e65cc40	0.22441196
52	0xbc074ca1	-0.008258016
53	0x3e73f44e	0.23823664
54	0x3e4e2459	0.20131053
55	0xbe3d751c	-0.18501705
56	0x3d479ece	0.048735432
57	0xbd6639a4	-0.056207314
58	0x3e524c7f	0.20536993
59	0xbe747769	-0.23873676
60	0xbebdef53	-0.37096652
61	0x3de84830	0.11341894
62	0xbe4e423c	-0.20142454
63	0x3ce4637a	0.027879465
64	0x3e469fac	0.19396847
65	0xbe3c0570	-0.18361449
66	0xbee3f999	-0.44526365
67	0xbf57e4e2	-0.8433362
68	0xbecd4fd2	-0.4009996
69	0xbcebae9a	-0.02876978
70	0xbe5a2a4b	-0.21305196
71	0x3cb88592	0.022524629
72	0xbd79cd4b	-0.0609868
73	0xbf19e2fc	-0.60111976
74	0x3e3e7adc	0.18601555
75	0xbc6a0800	-0.014284134
76	0x3e0d712f	0.13812707
77	0x3e9f93ac	0.31167352
78	0x3e9bb0d1	0.30408338
79	0x3cde5cf3	0.027143931
80	0x3d3d90a7	0.04628053
81	0xbee72f2a	-0.4515317
82	0xbcd1d7dc	-0.025615625
83	0x3ca9fd21	0.020750584
84	0xbdbd7448	-0.092506945
85	0xbe31bfcf	-0.17358325
86	0x3e17f988	0.14841282
87	0x3e812790	0.25225496
88	0xbf79da5f	-0.9759883
89	0xbe3296b4	-0.17440301
90	0x3e56c4b9	0.20973481
91	0x3d852b70	0.06502426
92	0x3dfea72e	0.12434231
93	0x3e258e1b	0.1616749
94	0xbf269f97	-0.65087265
95	0x3d007515	0.031361658
96	0xbe86153e	-0.26188082
97	0xbea28fbf	-0.31750295
98	0xbedac8f1	-0.4273143
99	0xbec6a6ba	-0.38799077
100	0xbc8091e5	-0.015694568
101	0xbd9955e3	-0.07487085
102	0xbe538f63	-0.20660166
103	0x3eb9c7cd	0.36285248
104	0x3da9aa84	0.082844764
105	0xbe23b443	-0.15986733
106	0x3dcd1b1a	0.10014935
107	0x3e2f4744	0.1711703
108	0x3d92a4d1	0.071603425
109	0x3e1ac94e	0.15115854
110	0xbe8cee38	-0.27525496
111	0xbef18e8e	-0.47179073
112	0xbd1bdd8e	-0.038053088
113	0xbdfb6c0d	-0.122764684
114	0xbe692f17	-0.2277187
115	0xbe44ad7c	-0.19206804
116	0xbd1f37ae	-0.03887146
117	0x3bba2d6d	0.0056816847
118	0x3df2fb6f	0.118643634
119	0xbe5646e6	-0.20925483
120	0x3d7eaf97	0.062179174
121	0x3e3fc684	0.18728071
122	0x3e6acd5e	0.22929904
123	0x3e870393	0.26369914
124	0xbe111368	-0.14167559
125	0xbe8b57cb	-0.27215418
126	0xbba793b0	-0.0051140413
127	0x3e21b279	0.15790738
128	0x3ead0011	0.33789113
129	0x3e251806	0.16122445
130	0x3e197510	0.14986062
131	0xbdb66b0f	-0.089071386
132	0xbe026b14	-0.1273616
133	0x3dbdafa4	0.092620164
134	0x3da85760	0.082197905
135	0x3e39e3b5	0.1815327
136	0xbcc3a84e	-0.023883965
137	0x3e5b37b6	0.21407971
138	0xbe9a27c3	-0.3010846
139	0xba840e59	-0.0010075077
140	0xbe65df3a	-0.22448435
141	0xbed83248	-0.42225862
142	0xbebc137a	-0.3673361
143	0x3ec4bc31	0.3842483
144	0x3eb48661	0.35258773
145	0xbe1cba79	-0.15305509
146	0xbe6ed8c0	-0.23324871
147	0xbec3b1f1	-0.38221696
148	0xbdfac04e	-0.122437105
149	0x3e237105	0.15961082
150	0xbd8a3e97	-0.06750219
151	0xbe765219	-0.24054755
152	0xbf03b08d	-0.5144127
153	0xbd86ff12	-0.065916196
154	0x3db998e5	0.090623654
155	0x3e77b6db	0.24190848
156	0xbf281032	-0.6564971
157	0xbe213b6d	-0.15745325
158	0x3e08f628	0.13375151
159	0xbe13e51e	-0.1444287
160	0x3ec2a06a	0.3801301
161	0xbe9475a0	-0.2899599
162	0xbe917da8	-0.2841618
163	0xbeeb2370	-0.45925474
164	0xbe1cd7fe	-0.1531677
165	0xbe527a5f	-0.20554493
166	0x3e96d241	0.29457286
167	0x3e3290fc	0.1743812
168	0xbe72eca8	-0.2372309
169	0xbe10953f	-0.14119433
170	0xbedcca9e	-0.43123335
171	0x3df707c9	0.12062032
172	0xbf010729	-0.5040155
173	0x3b92b84f	0.0044775377
174	0xbefe2933	-0.49640808
175	0xbe04b5fc	-0.12960047
176	0x3e5bd297	0.21467052
177	0x3e0334d3	0.1281312
178	0x3e166b43	0.14689355
179	0xbc1c2f6e	-0.0095327925
180	0xbdd2d244	-0.10294011
181	0xbeb08513	-0.34476528
182	0x3e5dee78	0.21673
183	0x3e5e4b02	0.217083
184	0xbf301dfc	-0.6879575
185	0xbe54dd26	-0.20787486
186	0xbcd3639a	-0.02580433
187	0xbf5373ec	-0.8259876
188	0x3d7e57a8	0.062095314
189	0x3de2344a	0.110451296
190	0x3e919e11	0.28440908
191	0xbecace0e	-0.39610332
192	0xbe0def30	-0.13860774
193	0x3e6d369a	0.2316536
194	0x3e919087	0.28430578
195	0x3d4d0750	0.050055802
196	0x3e15c017	0.14624058
197	0xbdd6ccc8	-0.10488278
198	0x3d31d08c	0.043411776
199	0x3d870f2a	0.06594689
200	0xbeab10e4	-0.33411324
201	0x3e3997c6	0.18124303
202	0xbe2d5cd8	-0.16929948
203	0x3d03a577	0.03214022
204	0x3d0366db	0.032080512
205	0xbda86efe	-0.08224295
206	0x3d05c6ca	0.032660283
207	0xbe983bf2	-0.29733235
208	0xbd04dce9	-0.03243724
209	0x3d4966cf	0.04917031
210	0x3dfabf96	0.12243573
211	0x3e5f49ce	0.21805498
212	0xbed2abc4	-0.41146672
213	0x3e879ac3	0.2648526
214	0x3e7100ca	0.23535457
215	0xbc0b52fc	-0.008503672
216	0xbea0938f	-0.31362578
217	0x3e8ae357	0.27126572
218	0xbd029e9b	-0.03188954
219	0x3c811d1a	0.015760947
220	0xbc94d1b1	-0.018166395
221	0x3e962fa6	0.29333228
222	0x39b741f8	0.0003495363
223	0xbe9aef0f	-0.30260512
224	0x3e992465	0.2991058
225	0x3e129a98	0.14316785
226	0x3e67f65f	0.22652577
227	0x3d0478fa	0.032341935
228	0xbd87d6be	-0.06632756
229	0xbdce9b0f	-0.10088169
230	0x3dbd354b	0.092386805
231	0xbe0d1a42	-0.13779548
232	0x3c86463f	0.016390918
233	0x3dede1f6	0.11615364
234	0xbd922707	-0.0713635
235	0xbe83bcc6	-0.2572996
236	0x3e9a8fac	0.30187738
237	0xbea037f3	-0.31292686
238	0x3d9d31a3	0.07675483
239	0xbede28f6	-0.43390626
240	0xbe05bd31	-0.13060452
241	0x3d9b1dc8	0.0757404
242	0xbddf3823	-0.10899379
243	0xbe2b2532	-0.16713408
244	0xbcfd0434	-0.030885793
245	0xbe20bb95	-0.15696557
246	0x3d837e5c	0.064205855
247	0x3e2ab4af	0.16670488
248	0xbe047dcb	-0.12938611
249	0x3dee938c	0.11649236
250	0x3d8048d1	0.062638886
251	0x3d8302ad	0.06396995
252	0xbda8cf7e	-0.08242701
253	0xbdbfc938	-0.09364551
254	0x3e628093	0.2211936
255	0x3e3728c6	0.17886648

arith.constant3 f4 [32]
0	0x3ed15001	0.4088135
1	0x3eb4694c	0.35236585
2	0xbe718f62	-0.23589852
3	0x3e13deaf	0.14440416
4	0x3cfe88b7	0.03107105
5	0x3e7f9feb	0.24963348
6	0xbe4364f5	-0.19081481
7	0x3e0ef566	0.139608
8	0xbd16dcb5	-0.036831576
9	0x3c908ee8	0.017646268
10	0x3e719606	0.23592386
11	0x3e9e9041	0.30969432
12	0x3e632130	0.22180629
13	0xbe1b758b	-0.15181558
14	0xbd1bdfc3	-0.038055193
15	0x3e1c9dde	0.15294597
16	0x3b9be468	0.0047574528
17	0x3db280eb	0.087159954
18	0xbe96d045	-0.29455772
19	0x3d95c245	0.073124446
20	0x3d30f394	0.043201044
21	0x3f10d3aa	0.56572974
22	0x3cd57886	0.026058447
23	0x3e654176	0.22388253
24	0x3ea95543	0.33072862
25	0x3e203747	0.15646087
26	0x3ea6b4a4	0.32559693
27	0x3e9cdf0a	0.30638915
28	0x3dedbd5f	0.11608385
29	0xbe3acb77	-0.18241678
30	0x3dae8f05	0.085233726
31	0xbe1342da	-0.1438097

sequential_1_1/dense_3_1/BiasAdd/ReadVariableOp f4 [64]
0	0xbe4da1d5	-0.20081265
1	0xbce8182a	-0.028331835
2	0xbdf0d66e	-0.11759649
3	0x3dcc5512	0.099771634
4	0x3c28ed76	0.010310521
5	0xbd918804	-0.07106021
6	0x3ca8ae4d	0.020590926
7	0xbe2d75ab	-0.16939418
8	0xbea22c92	-0.3167463
9	0xbea81d0e	-0.32834667
10	0x3e33855d	0.17531343
11	0xbe614362	-0.21998361
12	0xbe19ee28	-0.15032256
13	0xbd3eb2b0	-0.04655713
14	0xbe915f99	-0.28393248
15	0xbe71ee9d	-0.2362618
16	0xbe8b8d9f	-0.27256486
17	0xbdcf4a23	-0.10121562
18	0x3dbc29ba	0.09187646
19	0xbc6304fd	-0.01385617
20	0xbe877228	-0.26454282
21	0xbe303f43	-0.17211632
22	0x3c695824	0.014242206
23	0xbdefc2cd	-0.11707077
24	0x3b7120c4	0.0036793211
25	0xbe0a369c	-0.13497394
26	0x3da63f17	0.08117502
27	0xbd778e35	-0.060438354
28	0x3deb62bb	0.11493441
29	0xbd0858e2	-0.03328789
30	0xbdd4adb9	-0.103846975
31	0xbe699c79	-0.22813596
32	0xbead136f	-0.3380389
33	0xbe46d1dd	-0.19415994
34	0xbe8d1604	-0.2755586
35	0xbeea7df9	-0.45799235
36	0x3dd80caa	0.105492905
37	0xbcf287a5	-0.029605696
38	0xbe2bebe9	-0.16789211
39	0xbe3f147f	-0.18660162
40	0x3bfd9d72	0.007739716
41	0xbc2790a7	-0.010227359
42	0x3d9f5938	0.07780689
43	0xbe0644ca	-0.13112178
44	0xbdd0bdfc	-0.10192487
45	0x3ba892b8	0.0051444434
46	0xbd0e49e0	-0.03473842
47	0x3e136181	0.14392664
48	0xbeadcd5b	-0.33945736
49	0xbd0546b1	-0.03253812
50	0xbe5015a7	-0.2032076
51	0x3e043f55	0.12914784
52	0x3e2b20e6	0.16711769
53	0xbcb4a3ea	-0.022050817
54	0x3e88a11d	0.2668542
55	0xbeb528d4	-0.35382712
56	0xbdf07034	-0.11740151
57	0xbe226b26	-0.15861186
58	0x3dadd405	0.08487705
59	0xbed5ad67	-0.41733858
60	0xbea3e6f7	-0.3201215
61	0x3cee9920	0.02912575
62	0xbe9ee491	-0.31033757
63	0xbed11d9d	-0.40842906

sequential_1_1/dense_3_1/MatMul f4 [64, 11]
0	0xbe27cf0e	-0.16387579
1	0xbd96ec2f	-0.07369267
2	0xbe615c3b	-0.2200784
3	0xbe976594	-0.29569685
4	0xbf12c788	-0.5733571
5	0xbf525096	-0.82154214
6	0xbe23eb1e	-0.16007659
7	0x3e9f07e7	0.31060717
8	0x3d982d03	0.0743046
9	0x3d8804f4	0.0664157
10	0xbe0520b1	-0.13000752
11	0xbe5d0da0	-0.21587229
12	0x3d18bee0	0.037291408
13	0xbd7f5f6e	-0.06234687
14	0x3de1fe0c	0.11034784
15	0x3c9542ea	0.018220384
16	0xbe314963	-0.17313151
17	0x3e02309a	0.12713853
18	0x3c2bc869	0.010484793
19	0xbdf2a1f9	-0.118473
20	0x3c45ee91	0.012080804
21	0xbe22aaf6	-0.15885529
22	0x3e0366e9	0.12832226
23	0xbe2aac2d	-0.16667242
24	0xbea7106a	-0.3262971
25	0x3e1027d1	0.14077689
26	0xbe94b451	-0.2904382
27	0x3d93be7b	0.07214066
28	0xbdc96e3e	-0.0983548
29	0xbe1f9d37	-0.15587316
30	0xbe205b46	-0.15659818
31	0xbc0e8898	-0.008699559
32	0xbd9128d0	-0.070878625
33	0x3c3006c7	0.010743803
34	0x3d14f5b6	0.03636714
35	0xbc0bea6f	-0.00853978
36	0x3c8fee60	0.01756972
37	0xc03b16b5	-2.923261
38	0xbf4c60eb	-0.79835385
39	0x3c824f68	0.015907004
40	0xbd589d0c	-0.052884147
41	0x3c3f9482	0.011693122
42	0xbea75adf	-0.32686517
43	0xbd87473d	-0.066053845
44	0x3cd7dd47	0.02635063
45	0xbc37628c	-0.011192929
46	0x3b0a3e1c	0.002109415
47	0xbd541b35	-0.05178376
48	0xc0247bc3	-2.5700538
49	0x3cc350e8	0.02384229
50	0x3d96b326	0.073583886
51	0xbeafeed3	-0.34361896
52	0xbddbcffa	-0.10733028
53	0x3da9f7e0	0.082992315
54	0x39cd51d8	0.00039161625
55	0xbda12540	-0.07868433
56	0xbbd17131	-0.0063916673
57	0x3d3c424c	0.045961663
58	0xbcc8de6a	-0.024520118
59	0xbfac446f	-1.3458384
60	0xbf1f9b88	-0.62346697
61	0xbd88d196	-0.066806
62	0xbc017413	-0.007901209
63	0xbe4900e6	-0.19629249
64	0x3cef5c22	0.029218737
65	0xbc128794	-0.008943457
66	0x3d9dc5bc	0.077037305
67	0x3d1b037d	0.037845124
68	0xbbe0f6a1	-0.006865338
69	0xbc90032c	-0.017579637
70	0xc03bcd22	-2.9343953
71	0x3caa3866	0.020778846
72	0xbc3d4253	-0.011551457
73	0x3e128f67	0.14312516
74	0x3c9bc026	0.019012522
75	0x3c89a6eb	0.016803226
76	0x3eabfabe	0.3358974
77	0xbe688f4b	-0.22710912
78	0xbd8deab3	-0.06929531
79	0xbe4fa705	-0.20278557
80	0xbe880e37	-0.26573345
81	0xbe522539	-0.20522012
82	0xbd21e900	-0.039528847
83	0xbad50b70	-0.0016254019
84	0x3b721930	0.0036941282
85	0x3decc196	0.11560361
86	0x3df931b0	0.1216768
87	0xbd77db9d	-0.060512174
88	0xbda1f60d	-0.079082586
89	0xbdf2a7a3	-0.118483804
90	0x3e8976ee	0.2684855
91	0xbef7cf7b	-0.48400483
92	0xbf3d6d14	-0.73994565
93	0xbed6ffbf	-0.41991994
94	0xbdc53192	-0.096285954
95	0x3e9b7ade	0.30367178
96	0x3d53e75d	0.051734317
97	0xbdd56b19	-0.10420818
98	0x3d01e37b	0.031711083
99	0xbe162afd	-0.14664836
100	0xbe546641	-0.20742132
101	0xbd9b96f4	-0.075971514
102	0x3e89d884	0.26923
103	0xbf8c99c3	-1.0984424
104	0x3e2fff2e	0.17187187
105	0xbe8ac78b	-0.27105364
106	0xbe26f962	-0.1630607
107	0x3d171fd4	0.036895588
108	0x3d9622fb	0.07330891
109	0xbe07508d	-0.13214321
110	0xbd27d82c	-0.040977642
111	0xbe11691b	-0.14200251
112	0x3e90f91c	0.28315055
113	0x3e3d3f7f	0.18481253
114	0x3d2f1852	0.042747803
115	0x3e7b2a1e	0.24527785
116	0xbde38f1e	-0.11111282
117	0xbd832680	-0.06403828
118	0x3e8a9614	0.27067626
119	0xbd4e3190	-0.050340235
120	0xbe8c8a6a	-0.27449352
121	0x3da3d504	0.07999614
122	0x3dea3e8e	0.114377126
123	0xbd4c3e93	-0.049864363
124	0x3ee11b82	0.439663
125	0x3f8a2b22	1.0794413
126	0x3c853ccd	0.016264344
127	0x3e861bff	0.26193234
128	0xbdcf1441	-0.10111285
129	0x3e051dc0	0.1299963
130	0xbd0afd90	-0.033933222
131	0xbdd52669	-0.10407717
132	0xbdf61bd7	-0.12017029
133	0xbe2bc2db	-0.1677355
134	0x3e9d402b	0.3071302
135	0x3e23921d	0.15973707
136	0x3f2c6fcc	0.6735809
137	0xbd3d3764	-0.046195403
138	0x3ce2c03e	0.027679559
139	0x3e537298	0.20649183
140	0x3dca07c7	0.09864765
141	0xbd134313	-0.03595264
142	0xbb96e6fc	-0.004605172
143	0xbe871635	-0.2638413
144	0xbe2c7965	-0.16843183
145	0x3dc394ff	0.09549903
146	0xbda6bccc	-0.08141479
147	0xbe4dbbad	-0.20091124
148	0x3d3e3ffc	0.04644774
149	0xbd1cf810	-0.03832251
150	0x3d96cba2	0.073630586
151	0xbc05fb84	-0.008177642
152	0xbea0dddb	-0.31419262
153	0xbe7b2be0	-0.24528456
154	0xbd3b1b10	-0.045680106
155	0xbe2efc2e	-0.17088386
156	0xbdc797aa	-0.097457245
157	0x3e5963c4	0.21229464
158	0x3d8fb72b	0.070173584
159	0xbdde74cb	-0.1086212
160	0xbdf6c601	-0.12049485
161	0xbda58860	-0.08082652
162	0xbdaab059	-0.08334417
163	0xbe533fdc	-0.20629829
164	0x3ea23642	0.3168202
165	0x3da5b990	0.08092034
166	0xbe6b16f4	-0.22957975
167	0x3ebe7c7a	0.37204343
168	0xbe024b71	-0.12724091
169	0x3f1f510f	0.6223306
170	0xbe68395a	-0.22678128
171	0xbdb103fa	-0.086433366
172	0xbe5ef0f7	-0.21771608
173	0xbbb5a778	-0.0055436455
174	0x3df529c5	0.119708575
175	0xbdbc6e53	-0.0920073
176	0xbe83ce74	-0.2574345
177	0x3c80665c	0.015673809
178	0x3e39b8a8	0.18136847
179	0xbe46bb64	-0.19407421
180	0x3ea7ca4f	0.32771537
181	0x3da1659f	0.07880711
182	0x3dafee33	0.08590355
183	0xbe2eb3e3	-0.17060809
184	0xbe0b3245	-0.13593395
185	0x3e92da3d	0.28682128
186	0xbe88292e	-0.26593918
187	0xbdb6323a	-0.08896299
188	0x3d993776	0.074812815
189	0xbc89408d	-0.016754413
190	0xbd0dbe6b	-0.034605425
191	0xc0329663	-2.7904289
192	0xbf1096bf	-0.5648002
193	0xbdb10b45	-0.086447276
194	0x3d844d8d	0.06460104
195	0x3d5a9b61	0.053370837
196	0xbd2a3198	-0.041551203
197	0x3d424211	0.047426287
198	0x3de81486	0.113320395
199	0xbc397f3e	-0.011321841
200	0x3d837184	0.06418136
201	0xbca7a4f2	-0.020464394
202	0x3e833c9e	0.25632185
203	0xbbd570aa	-0.0065136747
204	0xbea0712a	-0.31336337
205	0xbd1ed9e4	-0.038782015
206	0xbe5e30ca	-0.21698299
207	0xbe875951	-0.2643533
208	0xbe17e629	-0.14833893
209	0x3d45761e	0.04820835
210	0x3e340cce	0.1758301
211	0xbdf95c39	-0.12175793
212	0x3df39ff2	0.118957415
213	0xc00ce9d9	-2.201773
214	0xbe0c54e8	-0.13704264
215	0xbe15dc24	-0.14634758
216	0xbda3c911	-0.07997335
217	0x3d89415d	0.0670192
218	0x3d7520f7	0.05984589
219	0x3e327fb9	0.17431535
220	0x3d87a8ca	0.06623991
221	0x3e5c6846	0.21524152
222	0x3dae4ee3	0.0851114
223	0xbe680104	-0.22656637
224	0x3e3a2d6d	0.18181391
225	0x3df17258	0.117893875
226	0x3dc473b3	0.095923804
227	0xbe574ccd	-0.21025391
228	0x3d89c2b2	0.06726588
229	0xbdaf839e	-0.08570026
230	0x3e4465ea	0.19179502
231	0xbe6a3477	-0.22871576
232	0x3d926a4c	0.07149181
233	0x3e98723d	0.29774657
234	0xbf0402e2	-0.515669
235	0x3f98018e	1.1875474
236	0x3d2be1b3	0.04196329
237	0x3e27a70e	0.1637232
238	0x3e426bc7	0.18986426
239	0x3d3eb1ae	0.046556167
240	0xbe1e8546	-0.15480527
241	0x3c1ffe56	0.009765228
242	0xbd0bd83a	-0.034141757
243	0xbd3baf41	-0.045821432
244	0x3de0058d	0.10938559
245	0xbe1a1b0a	-0.15049377
246	0xbf2b2bf8	-0.66863966
247	0xbf8485c1	-1.0353318
248	0xbd812342	-0.06305553
249	0xbeb55fb9	-0.35424593
250	0xbd94dfa2	-0.07269217
251	0xbe4ee2a9	-0.20203651
252	0xbd4173d0	-0.047229588
253	0xbeae766a	-0.34074718
254	0x3e5950f4	0.21222287
255	0xbdef73fd	-0.11692045
