app/src/main/assets/cardio_model_improved.tflite (tflite, 41496 bytes, 5 tensors)

arith.constant f4 [1, 64]
-0.08862352 0.103170864 0.07404131 -0.16647092 -0.057470743 0.12960787 -0.07785697 0.17678964
-0.17596264 0.1815242 0.2514271 -0.117144935 -0.10842177 0.20101121 0.034286767 0.079921424
-0.05734985 -0.14908181 0.17435835 0.1747682 0.093567304 0.29255983 0.06366508 -0.08919929
-0.100495055 0.14518176 -0.14403202 0.14330535 -0.122841775 -0.088692136 -0.077467546 0.1877712
0.095135316 -0.09563295 0.052280422 0.15765983 0.11831689 -0.053342033 -0.04037899 -0.10805382
-0.0713367 0.15956129 0.08319961 0.17555225 -0.05787912 0.18232448 0.11672879 -0.28418413
-0.13989975 -0.086248495 -0.06368121 0.08517482 -0.16011143 0.28671008 -0.18464027 0.043680903
-0.1303294 0.21316724 -0.10152717 0.05298536 -0.06610872 0.21110189 -0.10586077 0.08956987
00000000: 4080 b5bd 3f4b d33d f8a2 973d 5a77 2abe
00000010: 7166 6bbd edb7 043e 7a73 9fbd 5808 353e
00000020: 8d2f 34be 7be1 393e 0ebb 803e afe9 efbd
00000030: 3c0c debd e2d5 4d3e 4870 0c3d d8ad a33d
00000040: ade7 6abd e7a8 18be ff8a 323e 6ff6 323e
00000050: 37a0 bf3d 67ca 953e d662 823d 1eae b6bd
00000060: 5ad0 cdbd 87aa 143e 217d 13be a3be 123e
00000070: 7894 fbbd 39a4 b5bd 4ea7 9ebd 1847 403e
00000080: 4ed6 c23d 35db c3bd ff23 563d 9471 213e
00000090: 2050 f23d 2d7d 5abd 7164 25bd 524b ddbd
000000a0: fa18 92bd 0964 233e 8f64 aa3d f8c3 333e
000000b0: a812 6dbd 45b3 3a3e 810f ef3d 9580 91be
000000c0: e141 0fbe 0da3 b0bd 4b6b 82bd 2370 ae3d
000000d0: 40f4 23be aacb 923e 5712 3dbe bfea 323d
000000e0: 1275 05be 8348 5a3e 7aed cfbd 2d07 593d
000000f0: 0264 87bd 182b 583e 88cd d8bd 6870 b73d

arith.constant1 f4 [64, 128]
-0.0018300395 -0.19067703 -0.18512097 -0.015896356 0.14817713 0.040760998 -0.30743742 -0.10605208
-0.22353128 -0.1459911 -0.016853943 0.10623142 0.09661226 -0.20517637 -0.044070445 -0.057237424
-0.114340484 0.022499032 0.03282194 -0.07957402 -0.032650154 0.16841982 -0.106244035 0.050217018
-0.24141072 -0.14836228 -0.25549144 -0.10820136 0.04906596 -0.13522007 -0.09776714 -0.034295585
0.06959541 -0.032499697 -0.18874548 0.14208318 -0.054990817 0.06782826 0.14200062 -0.0857399
-0.15171297 -0.0768368 -0.055948235 0.04318489 -0.09468154 -0.1795468 0.009015212 0.067621894
-0.012082121 -0.16506064 0.032975804 0.09083709 0.030738939 -0.0729073 -0.13044578 0.042724077
0.11283747 -0.05049658 -0.18369977 -0.067852445 0.066266105 -0.086967565 -0.21382956 0.08060862
0.19626626 0.030175436 -0.009018982 0.20752947 0.049816106 -0.1493653 -0.17502035 0.11604899
-0.055972334 0.04513429 -0.045458768 -0.2014624 -0.12734197 -0.24357592 -0.13588397 0.06310728
-0.3508717 -0.06357997 -0.106775604 -0.158349 -0.044369858 0.017417235 0.022750074 0.018855697
-0.19151968 0.038105115 -0.009798705 0.12267134 0.10650512 -0.31126505 -0.18961205 -0.0074921846
-0.09248332 -0.06786597 -0.22456986 0.05184111 -0.08396833 -0.13646758 -0.18238956 0.023034846
-0.10711733 0.022533964 -0.014236897 0.13253525 0.03137367 0.111489184 -0.07377596 -0.24136443
-0.10502834 -0.006255337 0.03473671 0.013734721 -0.046502337 0.031464133 0.020742714 -0.19269757
0.057541914 0.07509489 0.0013375486 0.062309474 -0.10072555 0.07165908 -0.0754995 -0.23671354
-0.17855233 0.21302813 -0.10421246 -0.09650572 -0.10956044 0.0330151 -0.1477152 -0.05292042
-0.049380362 0.22904338 0.11174316 -0.0026234642 -0.35733277 0.047690757 -0.0095656 0.036263384
-0.01835552 0.12152279 0.07286467 0.17610736 -0.37038857 -0.32114533 -0.010133156 0.11250257
-0.052772317 -0.11068579 -0.0047533414 -0.11585519 0.20391588 -0.1256219 -0.02348789 -0.06007477
0.12623848 0.017268011 0.027554976 -0.21962534 -0.07140294 0.14761624 0.025368541 0.20204987
-0.032755245 -0.17442681 -0.076280534 -0.10653784 0.13555618 0.20254138 -0.08766465 -0.19541767
0.14572541 0.13193381 0.04708138 -0.040022876 -0.10026038 -0.15169503 0.06473153 -0.011044626
0.12585492 -0.138181 0.15860628 0.16361852 0.08327776 -0.03229995 -0.08337733 -0.07931891
0.08368157 0.06862453 -0.2067727 -0.18931997 0.04784242 0.008895223 0.023578495 0.052033473
-0.09958445 0.061132014 0.013518526 -0.020702092 -0.059134196 0.11735282 0.04285764 0.04377277
0.029766262 0.07083801 0.23138753 0.059209295 -0.12375977 -0.042439505 0.048614692 0.077406384
0.18061294 0.0822311 -0.19598371 -0.049003005 -0.17186731 -0.0067959945 0.027860004 -0.09803356
-0.037231382 -0.038556807 0.14377348 -0.032380458 0.09240791 -0.28500053 0.0029092627 0.16114049
-0.006069955 -0.114247605 -0.08628609 -0.2510515 0.007524213 0.043813765 -0.19639844 0.040875804
0.093848825 0.021755753 -0.26775327 0.030196812 0.14285135 -0.14723556 -0.22308418 0.1200053
-0.16937003 0.18925908 0.050757267 -0.010517869 -0.06379443 0.03710905 0.1593582 0.08696535
00000000: f0dd efba d740 43be 5a90 3dbe 1339 82bc
00000010: bfbb 173e 01f5 263d 7068 9dbe d531 d9bd
00000020: 62e5 64be b17e 15be 4811 8abc dc8f d93d
00000030: a6dc c53d c119 52be 3683 34bd ca71 6abd
00000040: 582b eabd e44f b83c 4c70 063d b4f7 a2bd
00000050: 2bbc 05bd 3f76 2c3e 7996 d9bd 5cb0 4d3d
00000060: 5f34 77be 48ec 17be c6cf 82be ad98 ddbd
00000070: 63f9 483d 2177 0abe 233a c8bd 8779 0cbd
00000080: 0a88 8e3d 671e 05bd 7f46 41be 417e 113e
00000090: 0d3e 61bd 8be9 8a3d 9c68 113e 6798 afbd
000000a0: a55a 1bbe 9d5c 9dbd fa29 65bd a4e2 303d
000000b0: 65e8 c1bd 1edb 37be 8ab4 133c 597d 8a3d
000000c0: 17f4 45bc a805 29be a311 073d cc08 ba3d
000000d0: 3ad0 fb3c 6c50 95bd 9493 05be 71ff 2e3d
000000e0: 5517 e73d 80d5 4ebd cb1b 3cbe 39f6 8abd
000000f0: 86b6 873d 0d1c b2bd 23f6 5abe 2216 a53d
00000100: 06fa 483e 7a32 f73c 5ac4 13bc 9b82 543e
00000110: f90b 4c3d 38f3 18be 8938 33be 18ab ed3d
00000120: 3f43 65bd bcde 383d f932 3abd 294c 4ebe
00000130: ef65 02be f76b 79be 2b25 0bbe 643e 813d
00000140: 75a5 b3be 3736 82bd 2bad dabd 3e26 22be
00000150: 2bbd 35bd 97ae 8e3c 5d5e ba3c 4377 9a3c
00000160: bc1d 44be 1c14 1c3d bf8a 20bc 1d3b fb3d
00000170: 5b1f da3d 225e 9fbe a929 42be 0081 f5bb
00000180: e567 bdbd 50fd 8abd a4f5 65be 5857 543d
00000190: 96f7 abbd 28be 0bbe 54c4 3abe 93b3 bc3c
000001a0: 5560 dbbd 2699 b83c e041 69bc 52b7 073e
000001b0: ad81 003d 7154 e43d da17 97bd 3d28 77be
000001c0: 1919 d7bd 92f9 ccbb 1548 0e3d 9807 613c
000001d0: 3c79 3ebd 89e0 003d a0ec a93c 8352 45be
000001e0: 12b1 6b3d 5acb 993d af50 af3a 3838 7f3d
000001f0: 3249 cebd ffc1 923d 7b9f 9abd 0965 72be
00000200: 6cd6 36be 0c24 5a3e 586d d5bd caa4 c5bd
00000210: 3961 e0bd d73a 073d a742 17be 15c3 58bd
00000220: 1043 4abd 598a 6a3e 99d9 e43d 6dee 2bbb
00000230: 52f4 b6be 6257 433d 09b9 1cbc ea88 143d
00000240: 515e 96bc f1e0 f83d 123a 953d 7d55 343e
00000250: 92a3 bdbe 296d a4be 8905 26bc bf67 e63d
00000260: c927 58bd 3baf e2bd ebc1 9bbb 7c45 edbd
00000270: 53cf 503e 07a3 00be ad69 c0bc f610 76bd
00000280: a944 013e a575 8d3c f9ba e13c 77e5 60be
00000290: b43b 92bd b628 173e b0d1 cf3c 29e6 4e3e
000002a0: 5d2a 06bd f19c 32be f838 9cbd 8330 dabd
000002b0: 3dcf 0a3e 0267 4f3e 8689 b3bd 921b 48be
000002c0: 0b39 153e a819 073e 68d8 403d 07ef 23bd
000002d0: 5055 cdbd f155 1bbe f791 843d 85f4 34bc
000002e0: 1de0 003e 527f 0dbe af69 223e 9d8b 273e
000002f0: 888d aa3d f44c 04bd bcc1 aabd f471 a2bd
00000300: 3e61 ab3d 058b 8c3d 39bc 53be 18dd 41be
00000310: 6af6 433d 45bd 113c b027 c13c 0d21 553d
00000320: eff2 cbbd 9065 7a3d cf7c 5d3c 6f97 a9bc
00000330: b336 72bd ad56 f03d 7e8b 2f3d 134b 333d
00000340: 60d8 f33c 8513 913d daf0 6c3e 7285 723d
00000350: c375 fdbd 0cd5 2dbd 3320 473d 3d87 9e3d
00000360: 99f2 383e c768 a83d f4af 48be 60b7 48bd
00000370: fcfd 2fbe efb0 debb aa3a e43c d2c5 c8bd
00000380: ef7f 18bd beed 1dbd 5b39 133e 5fa1 04bd
00000390: 5c40 bd3d 97eb 91be 54a9 3e3b 0302 253e
000003a0: 79e6 c6bb a6fa e9bd c3b6 b0bd d289 80be
000003b0: ac8d f63b 1076 333d ac1c 49be 636d 273d
000003c0: d033 c03d 1f39 b23c f516 89be 4e5f f73c
000003d0: a047 123e ebc4 16be 2e70 64be 57c5 f53d
000003e0: 566f 2dbe 22cd 413e dae6 4f3d 2453 2cbc
000003f0: a7a6 82bd a9ff 173d cc2e 233e e41a b23d

arith.constant3 f4 [64]
0.0077208253 0.17243622 0.22860138 0.11763148 0.21174885 0.28185746 0.18281151 0.17897932
0.021602402 -0.08989294 0.23039119 0.1674525 0.013965541 0.033892922 0.23811233 0.076358415
0.17225806 0.08025089 -0.02191842 0.20803903 0.2411548 -0.22217315 0.2620183 0.19828965
0.23471616 0.226791 0.04044504 0.022390112 0.14621328 0.20889378 0.07599373 0.12932254
0.24556147 0.22934987 -0.06457027 0.2385305 0.22123365 0.09926018 -0.04479097 0.14111955
0.20445828 0.253364 0.18141025 0.2575412 0.26519176 0.03018697 0.25449565 -0.051772036
0.10601591 0.13126804 0.012615832 0.2665936 0.115433 0.28319365 0.12888762 0.1772749
0.11909331 0.19976377 0.20592737 0.16219047 0.23254773 -0.03597081 -0.012973505 -0.049528558
00000000: fafe fc3b 1f93 303e 7b16 6a3e c6e8 f03d
00000010: b1d4 583e 9f4f 903e f132 3b3e 5b46 373e
00000020: 85f7 b03c ca19 b8bd abeb 6b3e ab78 2b3e
00000030: b9cf 643c 4ed3 0a3d b8d3 733e cd61 9c3d
00000040: 6b64 303e 945a a43d 428e b3bc 2f08 553e
00000050: 49f1 763e 5c81 63be 4327 863e 710c 4b3e
00000060: 6f59 703e e63b 683e b3a9 253d 786b b73c
00000070: efb8 153e 40e8 553e 9aa2 9b3d 216d 043e
00000080: 7774 7b3e b1da 6a3e 6b3d 84bd 5741 743e
00000090: 138b 623e ec48 cb3d bc76 37bd a581 103e
000000a0: 835d 513e edb8 813e 9cc3 393e 71dc 833e
000000b0: 37c7 873e aa4a f73c 414d 823e ea0e 54bd
000000c0: df1e d93d 216b 063e a2b2 4e3c f57e 883e
000000d0: 2368 ec3d c2fe 903e 1efb 033e 8d87 353e
000000e0: 31e7 f33d e08e 4c3e a0de 523e 4215 263e
000000f0: fe20 6e3e 2156 13bd d38e 54bc 75de 4abd

sequential_1_1/dense_3_1/BiasAdd/ReadVariableOp f4 [128]
0.008690072 -0.013966256 -0.029970016 -0.09642477 0.05402451 -0.13613786 0.06860466 -0.060781945
-0.12671207 0.14968812 -0.10627624 -0.0066733267 0.052615482 -0.08889053 0.076802395 -0.15584551
-0.12554151 -0.1974123 0.02929973 -0.20790997 0.0039068875 0.089620866 -0.06921947 -0.04630597
-0.034979418 -0.16612265 -0.058203004 -0.16825183 -0.016122494 -0.19013426 0.023734594 -0.017458577
0.008272676 -0.019147992 -0.11627893 0.153441 -0.08538413 0.03813114 -0.12969832 -0.20518272
-0.11623619 -0.06625174 -0.048727207 -0.040310413 -0.2452439 -0.016861726 0.15456438 0.05247294
-0.089345425 -0.17969932 -0.1976079 -0.01735332 -0.077716574 0.04410618 -0.11216731 -0.10644376
-0.014248981 0.092592075 -0.15855902 -0.099192366 -0.06669722 -0.12458041 -0.16387428 -0.03146434
0.041977108 0.06876032 0.02379388 -0.17979123 0.031452008 0.13208297 -0.18988769 -0.089460835
-0.0089362925 -0.030524133 0.061188526 -0.11620192 -0.019664165 -0.17338482 -0.085847616 -0.19330814
0.027352855 -0.07507044 -0.06543695 -0.22827578 -0.083039284 0.23127632 -0.0977299 -0.19169994
-0.10498588 -0.12877183 -0.032657713 0.03326004 -0.120430045 0.07635306 -0.1572517 0.09873899
-0.16575007 -0.16170795 -0.12770319 -0.042636443 0.0054447176 0.08437292 -0.13560379 0.01958333
-0.12289405 -0.069906145 -0.29607302 0.29131162 0.04992268 0.05374922 0.08832522 0.031207107
-0.123675376 0.029671432 -0.12225479 0.038639486 0.012259092 -0.023880403 0.02341161 -0.07036098
-0.08445624 -0.014293689 -0.043794654 0.04554144 0.124398276 -0.15158291 -0.085712194 -0.015612521
00000000: ce60 0e3c b9d2 64bc ae83 f5bc 5a7a c5bd
00000010: ce48 5d3d b967 0bbe 9a80 8c3d 7df6 78bd
00000020: cfc0 01be d847 193e 5ba7 d9bd ecab dabb
00000030: 5583 573d 3d0c b6bd 934a 9d3d f795 1fbe
00000040: f48d 00be 7326 4abe fd05 f03c 5ae6 54be
00000050: 5905 803b 258b b73d f0c2 8dbd 54ab 3dbd
00000060: 9446 0fbd 0e1c 2abe 4666 6ebd 354a 2cbe
00000070: 5213 84bc 8eb2 42be 0d6f c23c 4a05 8fbc
00000080: 1e8a 073c 40dc 9cbc a623 eebd a31f 1d3e
00000090: e0dd aebd 662f 1c3d a3cf 04be 6b1b 52be
000000a0: 3d0d eebd feae 87bd 2e96 47bd 881c 25bd
000000b0: 3821 7bbe 9a21 8abc 2046 1e3e deed 563d
000000c0: bcfa b6bd 1903 38be ba59 4abe 8d28 8ebc
000000d0: de29 9fbd afa8 343d fab7 e5bd 30ff d9bd
000000e0: 8f74 69bc eaa0 bd3d 4c5d 22be 5e25 cbbd
000000f0: 8d98 88bd 0424 ffbd a9ce 27be c0e0 00bd
00000100: 30f0 2b3d 36d2 8c3d 62eb c23c 311b 38be
00000110: d2d3 003d c240 073e eb71 42be 3e37 b7bd
00000120: 8769 12bc bf0d fabc d2a0 7a3d 46fb edbd
00000130: be16 a1bc ca8b 31be e0d0 afbd 92f2 45be
00000140: 1813 e03c 88be 99bd cf03 86bd 20c1 69be
00000150: 8010 aabd b3d3 6c3e 9d26 c8bd fd4c 44be
00000160: d602 d7bd c3dc 03be 18c4 05bd ae3b 083d
00000170: 07a4 f6bd fe5e 9c3d 9706 21be ab37 ca3d
00000180: 63ba 29be c596 25be a0c4 02be 8da3 2ebd
00000190: 9a69 b23b b6cb ac3d b8db 0abe 386d a03c
000001a0: e0af fbbd f42a 8fbd e296 97be cc26 953e
000001b0: b97b 4c3d 2428 5c3d dae3 b43d 0ca6 ff3c
000001c0: 8449 fdbd 8111 f33c b860 fabd 7044 1e3d
000001d0: 5cda 483c d6a0 c3bc b4c9 bf3c 6b19 90bd
000001e0: 65f7 acbd 1430 6abc 0662 33bd a989 3a3d
000001f0: 86c4 fe3d 8d38 1bbe e089 afbd a9cb 7fbc

sequential_1_1/dense_3_1/MatMul f4 [128, 11]
-0.18228449 -0.043526456 0.07803408 -0.14566383 -0.08417477 0.022974854 -0.09272419 -0.05242304
0.104148515 -0.053260196 0.0039656824 0.12574619 -0.10884387 0.015241704 -0.12609096 0.27507073
0.17675413 0.024772208 -0.0050114575 -0.009525878 0.030685524 0.21675085 0.15675922 -0.16593705
-0.014799144 0.05898356 0.09594419 0.1140381 -0.18633464 -0.0909189 0.048867714 0.021753743
0.019915279 -0.13263525 -0.0884256 0.047351215 0.07687295 -0.39181048 -0.11831774 -0.13994078
-0.05593458 -0.049739562 0.07280416 6.2392966e-05 -0.0065673357 0.08972202 -0.023229448 -0.09327277
-0.47033155 0.030402113 -0.066465534 -0.21865372 0.011008779 0.03460463 0.15113343 -0.08053398
0.06742392 0.016971411 0.033423897 -0.027644606 -0.07401809 0.21039143 -0.04076569 0.1389949
0.11936513 0.08241488 -0.086233065 -0.022385295 -0.012890962 -0.050053906 0.5675473 0.16273133
0.058446754 -0.007575218 0.010600532 0.009177526 0.025922703 0.08362071 -0.06732289 -0.030885754
0.030031351 0.00952147 0.017375857 -0.1323422 -0.12975027 0.13687134 -0.14278364 0.055347633
0.39370838 -0.1052302 -0.1308202 0.035721622 0.04179339 0.09493941 0.1328721 -0.1205849
0.0073535666 -0.07770814 -0.115997955 0.074020945 -0.016645756 0.12190093 -0.14849165 0.29978257
0.08383992 0.04358683 -0.005002187 -0.030230902 -0.051553864 0.06929362 -0.07001344 -0.11538631
-0.14282952 -0.1100424 -0.1226765 -0.077217035 0.09284565 -0.10661565 0.076628566 0.07297622
-0.07441532 -0.18745178 -0.09901606 0.08670117 0.09636213 -0.0095719695 -0.03989743 -0.21344896
-0.30630195 -0.069376014 0.07790916 0.01806779 -0.10840184 -0.03782302 0.1240811 -0.23821709
-0.29129046 0.028747475 -0.08674811 0.12123318 0.07716776 -0.017600596 -0.030348813 -0.16371681
-0.08576653 -0.06604178 -0.07815776 -0.096584626 -0.13051267 0.27412853 -0.040602114 0.020675654
0.02966645 0.11421868 -0.06544698 0.0027872408 -0.08504928 0.09172286 0.03970861 0.017246261
-0.16378288 -0.000536449 -0.2508323 -0.18385994 -0.02637625 0.11619852 0.15343958 0.03709505
0.18109664 -0.4285833 -0.1195246 0.07408427 0.1130082 0.05926996 0.029013919 0.028043196
-0.11068231 0.13314016 -0.04862513 -0.15908614 -0.2781753 0.057925396 0.08862747 -0.07085231
-0.062217057 0.1181851 0.052299086 0.2058555 -0.06793393 -0.13668348 -0.057210255 -0.085102275
0.34455416 0.27168995 -0.03916252 0.007961295 0.026300464 0.027460076 -0.09030776 0.0009029981
-0.09045029 -0.018611124 0.16838627 -0.09512312 0.060056727 -0.0019580082 -0.14434122 0.1362025
-0.06601405 0.03629093 -0.016840423 0.040030044 0.08793814 -0.24344243 -0.002353733 0.18002626
-0.05011851 0.021718685 0.0015535083 0.036768813 -0.05583789 0.098623395 -0.02008745 -0.02587883
-0.37246126 0.03563809 -0.017123474 -0.12684411 0.027619941 0.03456658 0.014884084 -0.07025707
-0.0056027942 -0.09862551 0.03949682 -0.3882272 -0.041821443 -0.017760323 -0.10274639 0.059849855
0.0022286666 0.2232822 0.21435422 0.11504483 -0.049700238 -0.066011146 -0.02260687 -0.057004478
-0.11128488 -0.09905273 -0.15110011 -0.14693017 0.06383733 -0.09211109 -0.18120666 -0.09653728
00000000: c9a8 3abe cc48 32bd 55d0 9f3d e628 15be
00000010: d263 acbd c335 bc3c 2ee6 bdbd 8bb9 56bd
00000020: d14b d53d 5d27 5abd 8ef2 813b 9cc3 003e
00000030: 89e9 debd 57b8 793c fd1d 01be 12d6 8c3e
00000040: 09ff 343e 16ef ca3c 2737 a4bb 6e12 1cbc
00000050: 3560 fb3c eff3 5d3e 7d85 203e 67eb 29be
00000060: 1c78 72bc bf98 713d 637e c43d cf8c e93d
00000070: 82ce 3ebe b033 babd 8329 483d e834 b23c
00000080: 5e25 a33c 89d1 07be 7b18 b5bd 59f3 413d
00000090: 916f 9d3d 629b c8be 9250 f2bd a34c 0fbe
000000a0: a81b 65bd b6bb 4bbd 591a 953d f8d8 8238
000000b0: ce32 d7bb 2ec0 b73d af4b bebc cb05 bfbd
000000c0: 4ccf f0be da0d f93c 151f 88bd c3e6 5fbe
000000d0: 2a5e 343c 96bd 0d3d b9c2 1a3e 00ef a4bd
000000e0: 8d15 8a3d a107 8b3c 7fe7 083d f176 e2bc
000000f0: cc96 97bd da70 573e edf9 26bd ae54 0e3e
00000100: b575 f43d 22c9 a83d f69a b0bd 5e61 b7bc
00000110: 9d34 53bc 5305 4dbd c84a 113f 0ba3 263e
00000120: dd65 6f3d 8939 f8bb dbad 2d3c 565d 163c
00000130: d95b d43c 5641 ab3d 95e0 89bd 1f04 fdbc
00000140: 4f04 f63c f1ff 1b3c d057 8e3c b784 07be
00000150: 41dd 04be 0028 0c3e e035 12be 33b4 623d
00000160: 2594 c93e ee82 d7bd bbf5 05be d650 123d
00000170: 8c2f 2b3d 986f c23d a00f 083e 37f5 f6bd
00000180: 30f6 f03b 7225 9fbd 5690 edbd 4b98 973d
00000190: ae5c 88bc 32a7 f93d 320e 18be 1a7d 993e
000001a0: 44b4 ab3d 1b88 323d 63e9 a3bb cca6 f7bc
000001b0: 252a 53bd d0e9 8d3d 3563 8fbd a84f ecbd
000001c0: e741 12be e95d e1bd d13d fbbd f723 9ebd
000001d0: dc25 be3d 4e59 dabd 70ef 9c3d 8e74 953d
000001e0: 0f67 98bd 5cf3 3fbe efc8 cabd 6290 b13d
000001f0: 8259 c53d c0d3 1cbc 7d6b 23bd 5d92 5abe
00000200: 9cd3 9cbe 0315 8ebd d68e 9f3d e702 943c
00000210: c901 debd 50ec 1abd 3b1e fe3d 2eef 73be
00000220: 0624 95be d37f eb3c fea8 b1bd 1a49 f83d
00000230: 210a 9e3d 202f 90bc 139e f8bc 61a5 27be
00000240: 5da6 afbd ea40 87bd 2d11 a0bd 29ce c5bd
00000250: 1da5 05be 935a 8c3e 674e 26bd fd5f a93c
00000260: 0e07 f33c 7ceb e93d 1109 86bd 24aa 363b
00000270: 512e aebd 32d9 bb3d 7fa5 223d 0848 8d3c
00000280: b3b6 27be 7ca0 0cba 176d 80be c845 3cbe
00000290: 0113 d8bc 7df9 ed3d 441f 1d3e fbf0 173d
000002a0: 6671 393e 456f dbbe 50c9 f4bd 7eb9 973d
000002b0: d870 e73d 0fc5 723d 99ae ed3c d8ba e53c
000002c0: 68ad e2bd e555 083e 252b 47bd 7ae7 22be
000002d0: fe6c 8ebe 2e43 6d3d 5282 b53d 041b 91bd
000002e0: 50d7 7ebd 080b f23d 9137 563d c9cb 523e
000002f0: f220 8bbd c1f6 0bbe 4d55 6abd 1a4a aebd
00000300: 6769 b03e f21a 8b3e e168 20bd 1770 023c
00000310: 1274 d73c f4f3 e03c 46f3 b8bd 2db7 6c3a
00000320: 003e b9bd 5b76 98bc 736d 2c3e e9cf c2bd
00000330: 0bfe 753d ed51 00bb 2fce 13be ab78 0b3e
00000340: 6032 87bd cca5 143d edf4 89bc 8bf6 233d
00000350: e918 b43d f948 79be 1641 1abb ce58 383e
00000360: 1149 4dbd 62eb b13c 179f cb3a e59a 163d
00000370: 45b6 64bd 10fb c93d 708e a4bc d7ff d3bc
00000380: 3eb3 bebe 3ff9 113d 8746 8cbc 6ce3 01be
00000390: 3743 e23c b095 0d3d 60dc 733c f0e2 8fbd
000003a0: a597 b7bb 2cfc c9bd 6bc7 213d b7c5 c6be
000003b0: f64c 2bbd 197e 91bc b36c d2bd 1f25 753d
000003c0: d20e 123b 17a4 643e ac7f 5b3e a09c eb3d
000003d0: 7a92 4bbd da30 87bd 0b32 b9bc 877d 69bd
000003e0: 54e9 e3bd 28dc cabd fdb9 1abe dd74 16be
000003f0: 25bd 823d bda4 bcbd 3d8e 39be 56b5 c5bd
