app/src/main/assets/lung_disease_model.tflite (tflite, 48396 bytes, 6 tensors)

arith.constant f4 [3, 64]
000000 cb 53 6e 3e cb 1a 05 be 3f 35 58 be ac 5a 8e 3e
       0.23274152 -0.12998502 -0.21114062 0.27803552
000010 d7 96 9e 3e b5 c9 7e be cf c8 70 be 79 55 0a be
       0.30974457 -0.24881633 -0.23514102 -0.13509168
000020 e7 36 03 bd f3 f0 5c 3e 5b b8 b3 3d 96 c9 ee be
       -0.03203478 0.2157629 0.087753974 -0.46638173
000030 e4 33 59 be 01 86 4b 3e f6 5d 2b bd 8e ab d8 3c
       -0.21211201 0.19875337 -0.041837655 0.026448991
000040 77 77 de 3d 22 22 26 3e d2 d9 85 3e 7b 33 99 3b
       0.1086263 0.16223958 0.26142746 0.0046753264
000050 06 3e 98 3e f9 46 7a 3d de 49 e7 3c 61 97 8c bd
       0.2973482 0.06110284 0.028233465 -0.06864811
000060 02 86 46 be 70 3d ac bd 6e 36 f8 bd af 3f ad bd
       -0.19387057 -0.08410156 -0.12119757 -0.08459412
000070 da a2 51 be 95 13 68 be 31 36 01 bd 2c 92 5d be
       -0.20472279 -0.2266372 -0.03154582 -0.21637791
000080 e2 84 24 3e ba 29 5e bd b3 72 ae be 19 b4 bd be
       0.16066316 -0.054239012 -0.34071884 -0.37051466
000090 44 0c 44 3e a4 56 07 3e 1d 37 17 3e b1 a9 30 be
       0.19145304 0.13216645 0.14767118 -0.17252232
0000a0 53 5f 85 bd b5 2a 99 3e 39 35 86 3d 95 23 ed bd
       -0.06512322 0.29915395 0.0655312 -0.11579052
0000b0 ac ec ed bd e7 a4 2e 3e 13 69 12 3e 00 6c cd be
       -0.11617407 0.17055093 0.14297895 -0.4012146
0000c0 a6 05 05 3e 75 48 9f 3c e0 69 a8 bd aa d0 69 bc
       0.12990436 0.01944373 -0.08223319 -0.014270941
0000d0 a5 0a 46 3e 8e 4d aa be a1 bd 52 bd ef db 9c 3e
       0.19339998 -0.33262295 -0.051450375 0.30636546
0000e0 ab a3 9e 3e a6 54 0b 3e 92 98 4e 3e 00 ba 1b be
       0.30984244 0.1360651 0.20175388 -0.15207672
0000f0 f2 6b b0 3d 0d bb 9f be 8c dc 4a 3e fb af 2d 3e
       0.08614339 -0.31197396 0.19810694 0.16961662
000100 0c 68 09 be 29 3d 2a 3e b2 98 1b 3e 39 3f ea 3c
       -0.13418597 0.16624893 0.15194967 0.0285946
000110 54 f2 af be 47 30 42 be 27 fb 5b 3d 73 c7 29 3e
       -0.3436457 -0.18963729 0.053706314 0.1657999
000120 79 43 e5 3d a9 7d f6 bd ad d8 38 ba 9c de 68 3e
       0.1119451 -0.120356865 -0.000705133 0.22741169
000130 4d 36 d3 3d 28 a9 f7 bd 74 45 87 3e 8f 76 69 3e
       0.103130914 -0.12092811 0.26420176 0.22799133
000140 48 5b 66 3e 73 6f 08 be 68 1b cd bd f5 0b 46 be
       0.22495759 -0.13323765 -0.10014993 -0.19340499
000150 be da 65 be 5e 2c 42 be ab e1 09 be 9c b6 1b 3e
       -0.22446725 -0.18962237 -0.13464992 0.15206379
000160 fa 49 87 3e 88 ce ed 3c 50 5d 88 3d 15 2c 93 be
       0.26423627 0.029029146 0.06658423 -0.2874457
000170 8e b5 0d be b7 82 b0 3d 0f be 3f 3e f1 f1 b4 be
       -0.13838789 0.08618682 0.18724845 -0.35340837
000180 c5 12 cb 3c 70 d1 12 3e 4e 35 30 be 24 5d b6 bd
       0.024789223 0.14337707 -0.17207834 -0.08904484
000190 04 3f fc bd 4d 8b ce 3d ff c8 a0 be fb 8b 1d 3e
       -0.12316707 0.10085163 -0.31403348 0.1538543
0001a0 e9 a7 32 be ac 0b f4 bc 9a 35 94 3d b4 c5 cd be
       -0.17446865 -0.029790722 0.07236786 -0.40189898
0001b0 b4 d3 23 3e 13 47 ad be ca ff 93 3d 36 d4 02 be
       0.15998727 -0.33843288 0.07226522 -0.12776265
0001c0 6e e0 88 be 51 e4 07 be c0 ba 69 3e c5 19 a3 3e
       -0.26733726 -0.1327069 0.22825146 0.31855598
0001d0 cf 10 53 be f9 9a 6a be f4 80 77 3e 3e 29 67 3e
       -0.2061188 -0.2291068 0.24170285 0.22574326
0001e0 b1 6e 26 bd ff ac 0f be f8 65 bc bb fd c0 21 bd
       -0.040632907 -0.14030837 -0.0057494603 -0.03949069
0001f0 a6 c2 92 be d0 12 8b be 4e a9 5b be 3b d5 8a 3d
       -0.2866413 -0.2716279 -0.21451303 0.06778952
000200 20 f0 ee bd 6a a6 87 be 5d 4d 23 3d 96 c0 3d bd
       -0.11666894 -0.2649415 0.0398687 -0.046326242
000210 bf d6 78 3e 9a 34 eb 3d 66 a8 86 3e e2 f5 b6 3d
       0.24300669 0.11484642 0.26300353 0.08933617
000220 56 bf d8 bd 45 3c 9d 3d eb 6f b1 3e 33 ff 25 3e
       -0.105833694 0.07677511 0.346557 0.16210632
000230 76 ab 89 3e d7 02 10 3e 55 7d a1 be 4d 13 73 3d
       0.26888627 0.14063583 -0.31540933 0.05934458
000240 96 cc a9 bd 6d 8d 25 be 81 40 91 bd 93 0a 36 be
       -0.08290975 -0.16167231 -0.07092381 -0.17777471
000250 02 39 ca 3d 38 66 1c be d1 72 a2 3e a0 b3 2d bd
       0.098741546 -0.15273368 0.31728223 -0.042407632
000260 44 25 aa 3d 39 ea 36 be c5 52 7b be d5 bb 2c 3e
       0.08307889 -0.17862786 -0.24543293 0.16868527
000270 83 00 89 3e e3 75 66 be 96 ea 06 be 73 18 42 3d
       0.26758203 -0.22505908 -0.13175425 0.047386598
000280 72 54 2a be f0 59 6c 3e 14 7f 5f be d2 f4 99 3d
       -0.16633776 0.23081183 -0.2182582 0.07517399
000290 56 3f 54 bc d1 2a 38 be 0c 02 99 3e f1 ca e2 bb
       -0.012954554 -0.17985083 0.29884374 -0.006921165
0002a0 42 90 52 3e c2 64 22 be 41 5a 69 be 59 10 75 3d
       0.20562842 -0.15858749 -0.22788335 0.059830043
0002b0 2a 21 01 be 66 df d7 3d 10 3f 13 be b6 31 14 bc
       -0.12610307 0.10540657 -0.14379525 -0.009045055
0002c0 04 ca 16 3e da da 5d be 4c d7 7d bd 52 05 ba 3e
       0.147255 -0.21665516 -0.0619729 0.36332184
0002d0 2f d0 45 3e df ba c4 bd d9 4b 34 be 95 53 8f bd
       0.19317697 -0.09605955 -0.17607059 -0.06998364
0002e0 ab ec 1a bd 59 39 34 3e 5e 30 fb bc a2 b4 a6 3e
       -0.03782336 0.17600001 -0.030662712 0.32559687
0002f0 9b 42 9b 3e b9 75 d3 3b 3a 74 e1 3c c2 00 c4 bc
       0.30324253 0.0064532426 0.027521241 -0.023926143

arith.constant1 f4 [3]
000000 eb 74 f5 bc 7d b0 83 3f b3 7e 15 be
       -0.029962977 1.0288235 -0.14599113

arith.constant2 f4 [64, 128]
000000 9f 77 ae be e4 cb cc be 29 ea dc be 67 bc b8 be
       -0.3407564 -0.39999306 -0.431474 -0.3608124
000010 2c 6a 62 bf 60 84 a1 3d 27 05 77 be 35 09 7d 3e
       -0.88443255 0.07886577 -0.24123059 0.24710543
000020 26 86 2a 3b fc 67 08 3f 41 c5 89 3e d9 0f 4e 3e
       0.00260199 0.5328367 0.26908305 0.20123233
000030 1b 21 94 be ef fe 3f be 0f 0e 02 be 76 06 2c be
       -0.28931507 -0.18749593 -0.12700675 -0.1679934
000040 75 e6 26 be a5 f8 3b 3f 31 09 32 bf f5 08 b2 bd
       -0.1629885 0.73426276 -0.69545275 -0.08693115
000050 b9 70 16 3e 70 3c ed be e3 38 b2 be f0 3a 9b 3e
       0.14691438 -0.46335173 -0.34809026 0.30318403
000060 26 1c 9a bd cb 89 9a 3e a7 e2 1d bf 96 3b fe 3e
       -0.075249 0.30183253 -0.6167397 0.49654835
000070 7a ab 5b 3d 19 c1 b3 3e cb 1f 59 3e 67 90 1d 3d
       0.05363033 0.3510826 0.21203534 0.03846779
000080 8d 9c e8 3d 9a a6 04 bf 70 54 13 3e 4b 90 e9 bd
       0.11357985 -0.51816714 0.14387679 -0.11404475
000090 02 f3 c2 3d 41 16 89 be 77 f7 be 3e ae ad 02 3f
       0.09519006 -0.2677479 0.37298176 0.51046264
0000a0 9a c0 5d be 23 ec 16 3e 6d fc da bd 04 52 9b bd
       -0.21655503 0.14738517 -0.10692678 -0.075840026
0000b0 89 41 1d bf a1 cd 32 3c cc 61 03 3e 11 40 5d 3e
       -0.61428124 0.010913284 0.12830275 0.2160647
0000c0 7a a5 35 3e f6 c4 f8 3e 2f 56 4c 3e 8c 8d 66 be
       0.17738906 0.4858777 0.19954751 -0.22514933
0000d0 31 b7 f8 be 3a 93 17 3e 9a 08 b1 be 2a 6c f6 be
       -0.48577264 0.14802256 -0.34576875 -0.48129398
0000e0 e4 eb 25 bf 64 ee d4 be 1f 69 a3 be d1 79 00 3e
       -0.64813066 -0.41588128 -0.3191614 0.1254647
0000f0 36 91 3e 3e 77 3e fc 3e d1 24 16 3e 4b 39 2f bf
       0.18610081 0.49266407 0.14662482 -0.684468
000100 cb ef 94 3d 58 ad 21 3f ed ca 6b be 0f dc 57 3e
       0.072722994 0.63155127 -0.23026629 0.2108004
000110 94 ce f6 3e e2 6b e9 3e 2c fc 8a bd 3f 8e a9 bd
       0.48204482 0.4559012 -0.06786379 -0.082790844
000120 4a af 1b 3a 17 86 1a 3e 2a 7c 9e be c6 40 31 3e
       0.0005938901 0.15090214 -0.30954105 0.17309865
000130 b3 91 e4 bd 12 28 e0 bd 4f 75 af 3d d7 53 2b 3f
       -0.111606024 -0.10945143 0.08567297 0.66924804
000140 12 19 a6 bd 49 a6 92 3e f6 27 ef be d0 3d 81 be
       -0.081102505 0.2864249 -0.46710175 -0.25242472
000150 0d 9f 8b bb f8 2b 09 be 65 5f c4 be 09 aa ad 3e
       -0.0042609037 -0.13395679 -0.3835403 0.3391879
000160 41 f7 3a 3e c9 c9 51 3d 44 d8 d3 3e 56 5c e6 bc
       0.18258382 0.051217828 0.41375935 -0.028120201
000170 57 41 09 3d 53 29 0a 3f 29 11 0c 3c 6f 59 79 3e
       0.03350958 0.53969306 0.008549013 0.24350522
000180 99 7c 62 be fc 02 88 bd e5 1f 1d 3f cd 02 9f be
       -0.22117843 -0.06641194 0.6137679 -0.31056824
000190 13 ae 02 3e a5 89 a6 3e 68 41 47 be 57 03 9d be
       0.12761717 0.3252689 -0.19458544 -0.3066661
0001a0 0a 63 f4 be c1 77 01 bf 33 43 07 be f5 6e 18 bd
       -0.4773181 -0.50573355 -0.13209228 -0.037215192
0001b0 77 7c af bd 9c 40 cd 3e be eb 56 bf b2 6c 8b 3d
       -0.08568662 0.40088356 -0.83953464 0.06807841
0001c0 44 8f f2 be 98 70 1a 3f 02 bf 9e 3e b9 6a e5 3d
       -0.47374928 0.60328054 0.31005102 0.11201996
0001d0 be 19 53 3e 64 f5 3d 3e d4 e8 25 be 78 1f df 3e
       0.20615289 0.1855064 -0.16202098 0.43578696
0001e0 29 d2 9d 3e 40 75 9e 3e 46 36 eb bc c6 84 f0 3e
       0.30824402 0.3094883 -0.028712403 0.46976298
0001f0 eb 66 6a be 98 85 82 3e aa ef 46 be 32 5e 1c be
       -0.22890823 0.2549255 -0.19427362 -0.15270308
000200 42 18 11 3e d0 23 08 3f 27 c5 31 be e0 b0 99 3e
       0.1416941 0.53179646 -0.17360364 0.30017757
000210 94 ed 10 3f 8a 5c d7 3e 21 05 81 bd ef b4 8d bc
       0.56612515 0.4206279 -0.062998064 -0.01729819
000220 8d 62 9b 3d ad 27 dc 3d 8e 97 cb bc 03 bd 25 3e
       0.075871564 0.10749755 -0.02485254 0.16185383
000230 ba 77 1f 3f 37 7e aa 3e 56 c2 fa 3e 27 24 6f be
       0.62292063 0.3329942 0.48976392 -0.23353635
000240 33 2b 9d 3e 45 5f ad be 13 56 c4 3e 7d 32 d4 3e
       0.3069702 -0.33861747 0.3834692 0.4144477
000250 46 96 43 3e 1e 7d d6 3e b6 60 86 be 24 48 b3 be
       0.19100294 0.41892332 -0.2624566 -0.35015976
000260 fb a1 a8 3c 15 65 b5 3e 51 01 bf be e4 53 a4 bd
       0.02058505 0.35428682 -0.37305692 -0.08023813
000270 26 74 1d bf 78 18 1b 3f 28 44 54 3e d6 b4 c3 bd
       -0.61505353 0.6058421 0.20729125 -0.09555976
000280 67 29 85 be b3 5a 92 be 54 65 96 3e da 1a 0e 3f
       -0.2600815 -0.28584823 0.29374182 0.5550972
000290 c3 02 8e 3d 89 cf 7e 3e 95 fb ce 3e 7d d1 06 bf
       0.069341205 0.24883856 0.40426317 -0.52663404
0002a0 ba 87 83 3f e6 95 c3 3e d9 39 1e 3e 0a 5d 64 bd
       1.0275795 0.382003 0.15451755 -0.05575279
0002b0 16 f4 13 3e 91 f9 19 3d 24 e5 5b 3d cb 25 cb bd
       0.1444858 0.03759152 0.053685322 -0.09919318
0002c0 04 ab 62 3d 04 7e fe be b0 92 a6 3d 44 77 eb be
       0.055338874 -0.49705517 0.08133447 -0.4598943
0002d0 70 ee eb 3e 3d 59 0a bd c5 c9 22 be 58 60 92 be
       0.4608035 -0.03377651 -0.15897281 -0.2858913
0002e0 d1 8c 21 3f f2 8a 66 3f 2c 1d b9 3e 76 42 c3 be
       0.63105494 0.90055764 0.3615507 -0.38136643
0002f0 53 20 92 bd 97 a0 23 3f 03 3d c6 3e f1 29 0a 3f
       -0.071350716 0.63916916 0.38718423 0.5397025
000300 1a b0 45 bd f4 7f 83 3d 57 ba ec 3d e6 a6 12 be
       -0.048263647 0.064208895 0.11558979 -0.14321479
000310 71 d5 85 3d a8 d0 05 bf dd 91 88 be fd 7c c2 bd
       0.06534851 -0.5227151 -0.26673785 -0.09496496
000320 c8 6c b7 3e a5 ab fe 3d 00 64 8e bd 3e 33 8b 3e
       0.3582518 0.12435082 -0.06952667 0.27187532
000330 86 57 05 be ba 3c 90 3e 4e 05 bd 3d 19 11 28 3e
       -0.13021669 0.2817133 0.092295274 0.16412772
000340 66 5e 1a 3d 9b 31 38 be 62 f5 fb be be 3b b5 be
       0.03768768 -0.17987673 -0.4921065 -0.35397142
000350 46 71 01 3d c1 3f 02 3f 77 12 83 bd 41 0d 33 3e
       0.031602167 0.5087853 -0.06400006 0.17485525
000360 c3 49 d9 be 59 2c 0f 3f 3b 93 1a bf 2b d4 20 be
       -0.42439088 0.55927044 -0.60380906 -0.15705936
000370 98 7a 84 3e 12 48 c7 3d 83 17 df 3e 51 07 01 3e
       0.25874782 0.09730543 0.43572626 0.12600447
000380 37 21 b9 be 2b 22 d0 be 37 5b af bd f7 4c a8 3c
       -0.36158153 -0.40651068 -0.0856232 0.020544512
000390 79 04 71 3d fe d4 6f 3c ad 74 62 be 79 0a 31 3f
       0.058842156 0.014638184 -0.22114821 0.69156605
0003a0 e7 86 e8 3d 57 f7 32 3d dc 8a 86 3e f6 04 40 be
       0.113538556 0.043692913 0.26277816 -0.18751892
0003b0 15 17 19 3b 55 74 af 3e ce 5c 59 bd 38 14 10 bf
       0.0023359705 0.34268442 -0.05306702 -0.5628085
0003c0 b7 7b 09 3e a0 45 6b bf 11 c4 4a 3e 11 78 16 bf
       0.134261 -0.91903114 0.19801356 -0.58776957
0003d0 39 d3 43 3f a2 2f 06 3f 65 9e 06 be f0 4b ac 3e
       0.76494175 0.5241643 -0.1314636 0.33651686
0003e0 a9 5b f7 be eb 2b 45 3e e7 40 3b 3d ce 3e 28 3f
       -0.4831212 0.19255035 0.045716193 0.6572083
0003f0 45 60 b6 bd 6c 46 7d be 6a 8e 4a bd e8 ad 84 be
       -0.08905081 -0.24733895 -0.049452223 -0.2591393

arith.constant3 f4 [64]
000000 5f 6d af 3d 84 72 9b bf 83 5b cb 3e a1 7f 35 bf
       0.08565783 -1.2144322 0.39718255 -0.7089787
000010 8a a0 d8 3e 6b 49 2a 40 4d d6 ca 3e a9 4b e7 3f
       0.42309982 2.660731 0.39616624 1.8069965
000020 93 b6 09 bf 99 36 7f bf 6d bc fc 3f 7c e5 5e be
       -0.5379421 -0.99692684 1.9745003 -0.21767229
000030 ae f2 68 3f 48 f4 18 3e 62 b5 a7 3e 19 89 c5 3e
       0.909953 0.14936936 0.32755572 0.3858116
000040 6a d7 fe bf 8f 6c f1 3d a5 6c 5a bf f6 a4 3b bf
       -1.9909489 0.11788284 -0.8532203 -0.73298585
000050 ad 4c a3 3e ec 3e 22 3f 30 38 cb 3f 7f 3e 22 3f
       0.31894436 0.6337726 1.5876522 0.6337661
000060 9c 85 24 3c b0 e1 a5 bf 1a 92 6e be 0a d4 d7 3e
       0.010041621 -1.2959499 -0.23297921 0.4215396
000070 45 e0 5b 3f 76 cd b7 3e 74 6b 7e 3f d8 19 1b 40
       0.85889083 0.35898942 0.9938271 2.4234524
000080 4f b4 90 3e 75 aa 94 3e bc 8f 47 3f 36 40 0d 40
       0.28262565 0.29036298 0.77953696 2.2070441
000090 93 d6 15 3f 55 4a 58 3c 68 75 bb 3f dd 41 43 3e
       0.5853054 0.013201316 1.4645205 0.19068094
0000a0 93 da dc 3f d3 ae 0a 3f a9 e6 c7 3e b4 09 5d 3f
       1.7254204 0.5417301 0.39043167 0.8634293
0000b0 2a 13 26 3e 0b 82 a0 be 25 a7 8d bf 42 85 d3 3f
       0.16218248 -0.31349215 -1.1066633 1.6525042
0000c0 29 7d 72 bc b3 70 39 3e 34 4b 90 bd 71 06 05 40
       -0.014800348 0.18109398 -0.07045594 2.0785182
0000d0 7d 39 4d bf d3 d9 d6 3f 75 04 d4 3e 91 1b 81 bf
       -0.80165845 1.6785225 0.4140965 -1.0086538
0000e0 4a 33 9a bf 08 28 2f bf ce d6 cd bf 83 f6 56 3f
       -1.2046902 -0.6842046 -1.6081178 0.839699
0000f0 59 9c 15 be a6 b1 ea 3e 18 c6 84 3f bf 90 88 bf
       -0.14610423 0.4583866 1.0372953 -1.0669173

arith.constant4 f4 [128]
000000 db 50 fc bc 3c a6 54 bd a2 25 bf bd 87 08 11 3c
       -0.030800274 -0.051916346 -0.0933335 0.008852131
000010 68 96 65 bd e8 02 9e bd c1 a9 4e 3d b5 5e 68 bc
       -0.05605164 -0.07715398 0.05045486 -0.014182736
000020 fa c9 c3 bc 65 2b 69 bd ae 40 bf bd 74 02 ce bd
       -0.02390002 -0.05692615 -0.093385085 -0.10059062
000030 13 a0 66 be be d7 fc bc 61 cd 39 bd a9 ca 69 3d
       -0.22522001 -0.030864593 -0.04536188 0.057078037
000040 06 fd 0c bd a8 27 29 be cc c3 37 bc b1 8e 04 3d
       -0.03442099 -0.16519034 -0.011216115 0.032362644
000050 3e 3c 99 bd 44 0c 85 bc 11 44 6f 3d bd 7a 44 bd
       -0.074821934 -0.0162412 0.058414523 -0.047968615
000060 c2 21 21 3d 0c f8 7f 3c e4 6f 22 bd 90 b0 61 be
       0.039338835 0.015623104 -0.03965749 -0.2204001
000070 6c c8 03 3b 49 b7 28 bd 3c 4a dc bb c5 43 86 3c
       0.0020108474 -0.04119042 -0.0067227166 0.016389737
000080 ef ed 26 bc 92 c3 8c bd 18 00 31 bd 0f fa 58 3d
       -0.010188564 -0.068732396 -0.04321298 0.05297285
000090 97 e9 28 3b 66 8f 0d bd bb ca f9 bd d4 37 34 bd
       0.0025773996 -0.034560584 -0.12196871 -0.043998554
0000a0 e1 80 d9 bc 21 35 86 bd 80 6f 0d bd 58 ad 34 3d
       -0.026550712 -0.06553102 -0.034530163 0.044110626
0000b0 1f be 3d bd 09 68 c5 bd bb 44 31 bd c8 c6 1a 3d
       -0.04632389 -0.09638984 -0.043278437 0.03778723
0000c0 af 18 a1 bb c7 b4 f0 bc 73 46 6b bc 71 01 17 bd
       -0.0049162726 -0.029383076 -0.014360058 -0.03686661
0000d0 42 0b 6a bd d3 14 95 3c 71 a3 01 bd e9 a5 a4 3d
       -0.057139643 0.018198406 -0.03165001 0.08039457
0000e0 e3 07 9b 3d 18 7f 85 3c 77 a4 55 3b 51 ef 06 3d
       0.07569864 0.016295955 0.003259925 0.032943074
0000f0 ba 2d 5c 3b 63 34 85 bb 0b 1e 4f 3c 98 e0 4d bc
       0.003359659 -0.004065083 0.01264144 -0.012565754
000100 98 da c1 3c 2c 93 1d bd 52 65 0a 3c 96 c6 e8 3c
       0.023663804 -0.038470432 0.008447008 0.028415006
000110 d0 fd d4 bb 86 52 71 3d c9 22 fb bd bd 3e 22 bc
       -0.0064999834 0.05891659 -0.12262494 -0.009902653
000120 2f 9b bc bb 1a d9 7c 3d 58 d4 1e 3c 07 e4 30 3b
       -0.005755804 0.06173048 0.009694181 0.0026991384
000130 ad eb 89 3c aa 18 2c 3c f6 b5 26 bd 4f 87 01 bd
       0.016836012 0.010503927 -0.040700875 -0.03162318
000140 51 66 3d bc 72 a7 04 bd 09 2c c3 bc da 61 57 bd
       -0.011560039 -0.03238625 -0.023824709 -0.052583553
000150 62 ba 8b 3d bb 0f 45 bd 8b 8e bb bc 2d 84 55 bd
       0.06822659 -0.048110705 -0.022895118 -0.052128006
000160 1d 17 1b 3c e3 4a 77 bb 10 d8 ff bc e0 b3 7e bd
       0.00946596 -0.0037733845 -0.031230956 -0.06218326
000170 fb f2 d2 bd f6 1e bc bd 3f d8 d2 bc 25 c8 11 3d
       -0.10300251 -0.09185593 -0.02573788 0.035591263
000180 f2 1a b8 bc d1 bd 7d bc 72 9c df bc a6 35 d3 bd
       -0.022473786 -0.01548715 -0.027296279 -0.10312967
000190 51 93 d1 3c 94 ba dd 3d e1 32 b1 bd 02 d1 bc bc
       0.025582941 0.108266026 -0.086522825 -0.023048881
0001a0 1f 10 d0 bd 2e 97 09 3d 69 7d 7a bd 7f 8e 52 bd
       -0.10159325 0.03359144 -0.061154757 -0.051405426
0001b0 2a 50 f4 bd 58 93 b7 bc 30 38 66 3d 1a 4e 00 3d
       -0.119293526 -0.022409126 0.05620593 0.031324483
0001c0 b1 a8 e8 bd f5 27 83 bd d9 b4 ac bd f5 28 86 bd
       -0.113603 -0.064041056 -0.084329315 -0.06550781
0001d0 10 14 a4 bd f5 e5 98 bd 74 18 8c bd 9a a8 b5 3c
       -0.08011639 -0.07465736 -0.068406016 0.022175122
0001e0 0c fa 8a bd 19 06 61 bc 4d 4b 2b bb ee 00 55 bd
       -0.06785974 -0.013734364 -0.0026137412 -0.05200284
0001f0 4d c1 9a bc 4a 00 0f be 3c db 96 bc 34 f8 54 bd
       -0.018891001 -0.13964954 -0.018415086 -0.051994517

sequential_4_1/dense_13_1/MatMul f4 [128, 23]
000000 69 fe f8 bd 1c 8b 60 be 8f 87 e2 bd 29 93 17 3e
       -0.121579 -0.21928066 -0.11061012 0.14802231
000010 5a 60 86 bd 25 86 eb 3d 7c ea 13 be 07 8b 83 bd
       -0.06561346 0.115001954 -0.14444917 -0.06423002
000020 25 ea 91 3d 56 79 5c bd c2 38 6a 3b d4 4c 2b 3d
       0.07124738 -0.053826652 0.0035739397 0.041821316
000030 5b 77 56 3e 38 58 27 3e b1 d7 10 be d3 3c 28 be
       0.20943968 0.16342247 -0.1414478 -0.16429453
000040 85 d8 f4 bd 99 34 52 be 70 d5 bc 3c 75 55 e7 bd
       -0.1195536 -0.20527877 0.023050994 -0.112955965
000050 aa 3a 27 3e 9d d1 f0 3c 74 a8 b3 3d b5 1f ea bd
       0.16330972 0.029396826 0.08772364 -0.11431829
000060 82 ab 2a be db 25 4b b9 85 6c 14 be 84 64 08 be
       -0.16666988 -0.00019373691 -0.14494522 -0.13319594
000070 43 2e 0b 3e 2d d5 9c 3d d8 8d 25 bd 66 74 1a 3d
       0.13591866 0.076578476 -0.040418476 0.037708662
000080 b2 28 07 be c9 fb 33 3e e9 d0 3a be 0e 70 77 3d
       -0.13199118 0.17576517 -0.18243755 0.060409598
000090 fd 2d 54 bc 91 75 86 bb 25 24 0a 3c 94 5c e7 bd
       -0.012950418 -0.0041033705 0.008431469 -0.11296955
0000a0 87 b3 f1 bc d6 08 e1 bc 9c 44 cc bd a2 0b 70 bd
       -0.02950455 -0.027470034 -0.09974024 -0.058604844
0000b0 0a b8 5b be 00 db 99 ba 3a 7a 29 3e e1 16 57 3d
       -0.21456924 -0.0011738241 0.16550532 0.052512053
0000c0 04 4e 04 3e 60 f8 3d 3e ae 52 6b bc 97 74 df 3d
       0.12920386 0.18551779 -0.014362974 0.109109096
0000d0 ab 6b df 3d db 17 19 3e 24 b4 f2 bd af 53 a0 bd
       0.10909208 0.14950506 -0.11850765 -0.078284614
0000e0 52 c4 4b bc 14 e4 d5 3d 7c f0 32 3e aa 44 c5 bd
       -0.012436943 0.10443893 0.1747455 -0.09632237
0000f0 43 b1 be 3d 14 c2 16 be 56 22 b7 3d fd ee 25 be
       0.09311154 -0.14722472 0.08942096 -0.16204448
000100 c6 56 37 be ff 87 03 be 28 16 4f be 7e 51 32 3e
       -0.17904195 -0.12844847 -0.20223296 0.174139
000110 ce ab fb bd 5a 3a 0d be c1 f4 12 3e 72 a0 ff bd
       -0.122886285 -0.1379179 0.14351179 -0.124817744
000120 cd 6a 2d be 74 d0 ed bd 28 e1 63 be 62 26 40 3d
       -0.16935273 -0.11612025 -0.22253859 0.046911605
000130 79 11 18 3e 3f 41 00 3c 80 c5 cc bd b2 92 f3 bc
       0.14850415 0.007828056 -0.09998608 -0.029733036
000140 6c 30 c2 3d db 98 38 3e 5d b8 7a bd 58 b0 b8 bc
       0.09481892 0.1802706 -0.06121098 -0.022545025
000150 59 60 b4 bd 4f 9c c7 3c 2d 2e 15 3e 63 31 4e 3e
       -0.08807439 0.024366526 0.14568396 0.20136027
000160 6e eb c0 bc 77 ff 0f 3e fc 32 2c be 58 5f f1 3d
       -0.023549762 0.14062296 -0.16816324 0.117857635
000170 e7 8c f6 bc ff c4 95 3c 31 4e 4c be 28 27 12 bc
       -0.030096484 0.018282412 -0.19951703 -0.008920468
000180 6b c8 b9 3d 27 1f b8 3c 15 7f e3 3c b4 09 b2 bd
       0.0907143 0.022475792 0.027770558 -0.08693257
000190 c4 84 1c 3e 48 3d 3c be 07 55 78 bd 23 72 cd bd
       0.15285021 -0.18382752 -0.060627963 -0.100315355
0001a0 55 a0 68 3d 83 0f 03 3c 09 fd e2 3b b9 d3 f6 bd
       0.05679353 0.007999304 0.006927137 -0.12052102
0001b0 0e ed 2f 3d 53 4f 9c bd bd 5c c1 3b 99 fa 19 3e
       0.042950682 -0.076323174 0.005900948 0.15037002
0001c0 28 b8 9d bc ab 92 20 be b7 17 29 be 37 bb c9 bc
       -0.019252852 -0.1568095 -0.16512953 -0.024625404
0001d0 12 95 92 3d 71 7c 7c be 6b c9 ae bd 51 4f 13 bd
       0.07157339 -0.24656846 -0.08534511 -0.035964314
0001e0 ca 74 cf bd 8e f3 34 be 73 b6 8f 3b 38 5b c3 bd
       -0.101296976 -0.17671034 0.0043857633 -0.09538883
0001f0 a6 78 f0 bd 3e 80 01 3e b4 51 94 3d b2 49 4d 3e
       -0.11741762 0.12646577 0.07242146 0.20047644
000200 8b 37 8e be bc f5 07 be 62 39 a4 3d 53 ee ba bd
       -0.2777675 -0.13277334 0.080187574 -0.09127488
000210 dc 73 f1 3d e3 a9 69 be d5 de 70 be 5e c0 46 bd
       0.117896765 -0.22818713 -0.23522504 -0.0485233
000220 ca 4c c1 3d da 67 ec bd fa eb 28 3e b6 b8 24 3e
       0.094384745 -0.115432456 0.16496268 0.16086087
000230 6f f2 ff 3d 11 cf 1b be bd 24 2b 3e 93 57 cb bd
       0.124974124 -0.15215708 0.16713233 -0.09928813
000240 ad ac 32 3e e0 da 24 bc 7f e5 13 be 98 f3 c3 3d
       0.17448683 -0.0100619495 -0.14443015 0.09567946
000250 6b 6e 0b 3e 44 6d ea bd 41 fd f3 bd a3 d1 1a 3e
       0.1361634 -0.11446622 -0.11913539 0.15119033
000260 35 f2 01 3e 38 76 8e 3d d9 35 a9 bd ff 90 37 3e
       0.12690051 0.06956142 -0.08262224 0.17926405
000270 9c a5 e8 bc 03 a4 39 3e 82 19 2c be c6 7d 72 be
       -0.028399281 0.18128972 -0.16806605 -0.23680791
000280 0b ae d0 3d b9 9f d4 bc a5 91 33 be 2a 45 59 3e
       0.10189446 -0.025955068 -0.17536028 0.2121779
000290 cc f1 b6 bd 0e aa a8 bc 2f 2b 9d bd 15 51 81 3d
       -0.08932838 -0.0205889 -0.07674252 0.06314293
0002a0 ea 5a f3 bd 49 56 ac 3d d1 95 31 bc 53 4a 72 3e
       -0.11882575 0.08414895 -0.010838942 0.23661165
0002b0 89 1d 65 3e b3 a5 e9 3d fd 17 04 3e 64 ad 54 be
       0.22374548 0.11408558 0.12899776 -0.20769268
0002c0 cd d8 0b be fc ae b7 bd 9b d7 ed bc f3 66 8f bd
       -0.13656922 -0.089689225 -0.029033473 -0.07002058
0002d0 3b 37 05 bd b2 5a f9 bd 5d e2 42 3e f8 a3 d0 3d
       -0.032523375 -0.12175502 0.19031663 0.101875246
0002e0 5e a3 eb 3d f4 20 4c bc dc e0 bf 3d 48 5f f1 3d
       0.11505769 -0.0124590285 0.093690604 0.117857516
0002f0 6b 51 97 bc 54 a1 cb 3d b9 08 a3 3d d9 b2 fe 3c
       -0.01847144 0.0994288 0.07960648 0.03109114
000300 ae c6 9b bd 4f a4 4b 3e 99 98 ed bd bb d1 5c 3e
       -0.076062545 0.19886898 -0.11601371 0.21564381
000310 ca c9 a0 bd 7d 92 6f 3e c7 13 1f 3e 84 ab d0 bd
       -0.07850988 0.23395725 0.15534888 -0.10188964
000320 3b 09 d6 bd dc b6 75 bd e0 b9 4d 3d f0 67 7a 3c
       -0.10450979 -0.05998884 0.050226092 0.01528357
000330 67 50 39 3e db 7f cf bd 1e 3f 15 3e 1d 2e d1 bd
       0.18097077 -0.10131808 0.14574859 -0.102138735
000340 f3 e7 8f 3d 82 fe 13 3e fc 12 cb 3d e8 88 0d be
       0.07026663 0.14452556 0.0991573 -0.13821757
000350 22 ad 0a 3d 13 7b d3 bd 8c 55 43 be eb 80 d5 3d
       0.03385652 -0.10326209 -0.19075602 0.1042498
000360 c2 7d 28 be 73 67 a5 3b 3d 34 83 bd 12 bb 0f 3e
       -0.16454223 0.0050477325 -0.06406448 0.14036205
000370 f9 00 29 be 65 a6 e0 bd 2f 38 88 bd 2f e3 07 3e
       -0.16504277 -0.10969237 -0.06651341 0.13270257
000380 cf ff 82 be 35 66 fe 3c 9f 56 90 be c8 4d c5 bc
       -0.2558579 0.031054595 -0.28191087 -0.02408494
000390 86 ad 67 be 7f d9 37 bd 2e 0a 80 bd e9 8b a9 3d
       -0.22624788 -0.044885155 -0.062519416 0.08278639
0003a0 0b 44 10 3e 02 96 12 3e e4 66 a9 3d ef 95 86 bb
       0.14088456 0.14315036 0.08271578 -0.004107229
0003b0 4e a5 df bd d2 d5 54 bd 18 22 63 be 21 19 2a be
       -0.10920201 -0.051961727 -0.22180974 -0.16611148
0003c0 17 c3 79 bd d6 0e f0 bd bd c4 76 3d d7 b5 8f bd
       -0.060977068 -0.1172158 0.060246218 -0.07017105
0003d0 a5 32 ea 3d 30 7b 27 3e f6 14 dc 3d 0d c5 89 3e
       0.11435441 0.16355586 0.107461855 0.2690815
0003e0 f1 70 91 3d cf d7 67 bd 4b 38 6d 3d 22 49 f3 bd
       0.0710162 -0.056602295 0.057915013 -0.11879183
0003f0 41 ad 89 3d 0e c6 26 bd c0 0e 6e 3d eb b8 cd bd
       0.06722499 -0.040716223 0.058119535 -0.10045036
