app/src/main/assets/lung_disease_model_improved.tflite (tflite, 48340 bytes, 6 tensors)

arith.constant f4 [3, 64]
0.27785343 -0.25565386 0.242832 0.13911276 0.021737138 0.09312037 0.32514244 0.18004264
-0.15134515 0.20117305 -0.190238 0.17601986 -0.13821526 0.12398144 -0.16208301 -0.21146856
0.008590723 0.20472746 -0.039040077 0.20080781 0.18019566 0.1920402 0.050353225 -0.07375607
-0.18012874 0.09515793 -0.13525452 -0.19366778 0.035709053 0.1459384 -0.1332375 0.09969032
0.010346796 -0.27933982 -0.17752244 -0.25027198 0.15513061 0.04615596 0.23603876 -0.20343065
-0.15095627 -0.17421693 0.25654766 -0.18868335 0.046065256 -0.1557894 -0.34929037 -0.3300309
-0.034224667 -0.2678027 -0.26536474 0.048594188 -0.3326997 -0.14878032 -0.009537076 0.33394876
0.24221553 -0.012983877 -0.2907014 0.19354603 0.23995307 -0.24796847 0.20824912 0.21088658
-0.025039628 -0.038318872 -0.034054805 -0.21866663 0.17158659 0.2838205 0.19539395 0.16807131
-0.009683359 -0.17341371 0.2330415 -0.22830597 0.1655315 0.06583871 -0.17986864 -0.30425218
0.28056183 0.06774483 0.16965504 -0.24005787 0.029712673 -0.085912526 -0.0065726102 0.20566353
0.15303665 -0.08442909 0.1965818 0.22244625 -0.23810825 -0.16492748 0.020556593 -0.3346654
-0.055449776 -0.23156807 0.16489151 -0.35373694 -0.05104509 -0.07776712 0.14668784 0.20491342
0.25200295 -0.19062288 0.21057948 -0.28113925 -0.048570186 0.2840432 0.192922 0.04697566
0.26243904 0.30400714 0.13059682 0.20725195 -0.04850359 -0.1509593 0.20360628 0.029177118
-0.22145426 -0.35779068 -0.19486198 -0.1360645 -0.076488234 0.062506415 -0.16507398 -0.14262837
-0.19086412 0.25872377 -0.17716865 0.35904175 -0.014932464 -0.087637395 -0.015145779 -0.10371334
-0.2976158 -0.023501087 -0.27509633 0.2204166 -0.33027416 -0.2712474 0.17253983 0.0067968257
0.36564505 0.2787319 0.00066370086 0.21279313 -0.02329623 -0.079478666 -0.20831297 -0.05205027
0.16060999 0.25773656 0.112533145 -0.09020219 -0.11817943 -0.109806545 0.07282549 0.22438891
0.23583351 -0.011076307 0.0040218723 0.179489 -0.16434896 0.24314922 -0.07795963 0.28349128
-0.10662274 0.11675499 -0.042153247 0.10961909 0.2658141 -0.033882692 0.31995532 -0.20846462
0.046857428 0.102483176 0.3464517 0.088245966 0.044370912 -0.44903797 0.28079754 0.16292933
0.0762099 -0.104225636 0.12533832 0.15365501 0.26363072 -0.08675897 -0.16893625 -0.16817415
00000000: ce42 8e3e 10e5 82be f4a8 783e 9373 0e3e
00000010: 1512 b23c e4b5 be3d 1279 a63e 195d 383e
00000020: 39fa 1abe 4f00 4e3e c0cd 42be 8d3e 343e
00000030: 4d88 0dbe fbe9 fd3d 17f9 25be 378b 58be
00000040: 1bc0 0c3c 13a4 513e 7de8 1fbd 90a0 4d3e
00000050: 3685 383e 30a6 443e 2f3f 4e3d 6c0d 97bd
00000060: ab73 38be 29e2 c23d 2980 0abe d950 46be
00000070: a843 123d e070 153e 696f 08be 702a cc3d
00000080: 9c85 293c a105 8fbe 71c8 35be a623 80be
00000090: 8fda 1e3e 080e 3d3d 25b4 713e 2050 50be
000000a0: 4894 1abe ec65 32be 375a 833e 3536 41be
000000b0: ecae 3c3d 4287 1fbe 30d6 b2be cff9 a8be
000000c0: 2a2f 0cbd 6f1d 89be e3dd 87be b30a 473d
000000d0: 9d57 aabe de59 18be 6541 1cbc 55fb aa3e
000000e0: 5907 783e 54ba 54bc d0d6 94be ee30 463e
000000f0: 42b6 753e 72eb 7dbe 423f 553e a7f2 573e
00000100: e81f cdbc 40f4 1cbd 0d7d 0bbd 25ea 5fbe
00000110: 65b4 2f3e ec50 913e 5a15 483e e31a 2c3e
00000120: f4a6 1ebc 5d93 31be 6ea2 6e3e 0ac9 69be
00000130: 1781 293e 72d6 863d 7c2f 38be f1c6 9bbe
00000140: cda5 8f3e cdbd 8a3d 0dba 2d3e bbd1 75be
00000150: fe67 f33c e8f2 afbd 0d5f d7bb 7699 523e
00000160: a4b5 1c3e 29e9 acbd bd4c 493e f3c8 633e
00000170: a6d2 73be c0e2 28be 4d66 a83c 4359 abbe
00000180: 4e1f 63bd 2e20 6dbe 52d9 283e 021d b5be
00000190: a814 51bd 5e44 9fbd 5635 163e d3d4 513e
000001a0: 8806 813e a532 43be 26a2 573e 7cf1 8fbe
000001b0: 88f1 46bd 1c6e 913e 588d 453e 8d69 403d
000001c0: 695e 863e d3a6 9b3e 2cbb 053e db39 543e
000001d0: b3ab 46bd 1395 1abe 2a7e 503e da04 ef3c
000001e0: e8c4 62be 5730 b7be e689 47be 7e54 0bbe
000001f0: dda5 9cbd 5d03 803d 2709 29be 2c0d 12be
00000200: e271 43be 7177 843e b36b 35be 52d4 b73e
00000210: 4ba7 74bc 3c7b b3bd 0026 78bc a967 d4bd
00000220: 1961 98be 5a85 c0bc 6dd9 8cbe e4b4 613e
00000230: b219 a9be f0e0 8abe 48ae 303e e8b7 de3b
00000240: d435 bb3e f3b5 8e3e 36fc 2d3a 71e6 593e
00000250: bcd7 bebc b6c5 a2bd ff4f 55be aa32 55bd
00000260: f276 243e 0cf6 833e c777 e63d edbb b8bd
00000270: 0f08 f2bd 41e2 e0bd 8825 953d 35c6 653e
00000280: 577e 713e 6679 35bc e9c9 833b f7cb 373e
00000290: 184b 28be 1cfc 783e 4ca9 9fbd c525 913e
000002a0: 065d dabd 3d1d ef3d e2a8 2cbd f97f e03d
000002b0: c918 883e 94c8 0abd 2fd1 a33e c077 55be
000002c0: 93ed 3f3d b3e2 d13d 1e62 b13e 4dba b43d
000002d0: 46be 353d 4ee8 e5be b2c4 8f3e f2d6 263e
000002e0: f013 9c3d 4074 d5bd b058 003e bd57 1d3e
000002f0: 9bfa 863e b0ae b1bd a0fd 2cbe d835 2cbe

arith.constant1 f4 [3]
-0.15286414 -1.0962082 -0.66687626
00000000: 6b88 1cbe 8d50 8cbf 67b8 2abf

arith.constant2 f4 [64, 128]
-0.12480263 -0.1560955 -0.081141606 -0.19077294 -0.008319122 0.61395967 0.99539286 0.1681358
0.2575855 -0.6899862 -0.033503186 0.69768333 -0.26852503 -0.12828709 0.23658215 0.4884398
0.14299521 0.28788757 -0.48043603 0.39199004 -0.4860557 0.02680614 -0.063555695 -0.011416889
-0.5634228 -0.64930993 -0.4875878 0.023910148 0.52666503 -0.20975843 -0.14222565 0.16981506
-0.07006845 -0.082251444 -0.36716247 0.56185 0.6641039 -0.09130263 0.5935784 0.19244657
0.016930152 0.26265973 0.087023966 -0.58303404 0.72928333 -0.2002198 -0.16480055 -0.35477105
0.08200627 0.08133856 -0.3657277 0.07958549 -0.075036004 0.14052793 -0.2396998 0.35062918
-0.056643285 0.2872592 0.34616292 0.27398515 0.18346886 -0.25915152 0.31882033 -0.2881576
0.32539597 0.3323802 -0.5237173 0.33072525 -0.4410686 -0.004291387 0.5032735 -0.5619294
0.34077787 0.15659401 -0.26047975 0.18272229 0.22302042 0.13661161 0.4514123 0.6417335
0.6425432 0.19240892 -0.91296345 0.29287398 -0.44583574 0.90442324 -0.2093779 0.28748298
0.014376086 -0.18657707 0.38825995 0.2830735 0.25487873 -0.6618267 -0.05235432 0.5302263
0.972095 -0.47993767 -0.10781223 -0.19521996 -0.106842384 0.18210474 0.40223306 -0.61474913
0.41713244 -0.27928442 -0.2840957 0.60688704 -0.42351884 0.08285192 -0.52993244 -0.521639
-0.016896661 -0.31084496 0.15487273 0.42869225 -0.2317993 0.35345334 -0.114007674 -0.046127677
0.21563366 -0.2674972 0.31435904 0.47307 -0.2871451 0.10597067 -0.5573806 -0.06493833
0.25564465 0.16236925 0.33236626 0.10041214 0.40544635 -0.26391307 0.28729448 -0.45215467
-0.41810074 0.36200616 -0.3615245 -4.8620223e-05 -0.23183253 0.30774856 0.15143196 0.32100764
-0.69448817 0.024164869 0.1987221 0.15263435 0.04931841 -0.4692135 0.08121506 -0.17399299
-0.6722295 -0.7029684 0.83588094 0.22697182 -0.13818868 0.054336574 -0.04044989 -0.0070056184
-0.37078106 -0.72476476 0.003743483 -0.6722625 0.2224669 -0.3553284 0.6214677 -0.11144068
0.2616284 -0.22417605 -0.35330048 -0.017631657 -0.642985 -0.24718758 -0.039753508 0.18759757
-0.29437277 0.11893645 -0.500234 0.26519695 0.15691751 0.16345187 0.1246994 -0.1437304
0.18169823 0.36918843 -0.36741883 0.057580564 0.11061452 0.19780415 0.1601463 0.07940874
-0.16201878 -0.14666744 0.25524184 -1.2579491 -0.37335503 0.23483475 -0.40638018 -0.55102307
0.4225074 -0.3648155 -0.47057965 0.0031667538 -0.28926653 0.4302579 0.33227924 0.31400213
-0.039062843 -0.07709932 -0.66444755 -0.38166514 0.04950371 -1.1991409 0.16456881 -0.09312356
0.10200598 -0.092378296 -0.4525022 -0.44877204 -0.5350503 -0.3926395 -0.19468409 -0.49149525
0.15432069 -0.24524061 0.20133774 -0.19509968 0.56104857 0.11567844 0.27546585 0.45848966
0.097581245 -0.26987934 -0.11305373 0.48690397 -0.030685628 -0.542551 0.44102034 0.106769554
0.39117593 -0.24443829 0.24519882 0.21055067 -0.13815375 -0.65283114 0.1807332 -0.24321182
0.4178411 -0.35167775 0.17107347 -0.522229 -0.07030303 0.27590817 0.58249 -0.21567526
00000000: 8598 ffbd 80d7 1fbe 922d a6bd fb59 43be
00000010: ed4c 08bc 762c 1d3f 11d2 7e3f cb2b 2c3e
00000020: 3fe2 833e f0a2 30bf a33a 09bd 609b 323f
00000030: 1d7c 89be b15d 03be 9742 723e c814 fa3e
00000040: 566d 123e 0066 933e b6fb f5be ebb2 c83e
00000050: 4bdc f8be 8d98 db3c 7d29 82bd e70d 3bbc
00000060: 7a3c 10bf 2d39 26bf 1ca5 f9be 37df c33c
00000070: 85d3 063f eaca 56be 9aa3 11be 00e4 2d3e
00000080: 0c80 8fbd 7273 a8bd b8fc bbbe 67d5 0f3f
00000090: b702 2a3f e0fc babd c1f4 173f b710 453e
000000a0: 1ab1 8a3c 567b 863e 9f39 b23d b841 15bf
000000b0: 50b2 3a3f 6b06 4dbe 7ac1 28be 8da4 b5be
000000c0: e7f2 a73d d594 a63d a940 bbbe b8fd a23d
000000d0: 7aac 99bd 8ee6 0f3e dd73 75be ab85 b33e
000000e0: ca02 68bd a313 933e 443c b13e c847 8c3e
000000f0: 43df 3b3e 82af 84be 6b3c a33e 6589 93be
00000100: 4d9a a63e bd2d aa3e 5612 06bf d254 a93e
00000110: bed3 e1be c39e 8cbb 88d6 003f 9bda 0fbf
00000120: 707a ae3e 2e5a 203e 9a5d 85be 8d1b 3b3e
00000130: 775f 643e eae3 0b3e 831f e73e a648 243f
00000140: b67d 243f d806 453e f9b7 69bf 94f3 953e
00000150: 9544 e4be 4888 673f 2967 56be f830 933e
00000160: ad89 6b3c 0f0e 3fbe 02ca c63e 03ef 903e
00000170: 777f 823e 7a6d 29bf 7c71 56bd e9bc 073f
00000180: 38db 783f 64ba f5be a9cc dcbd bee7 47be
00000190: 2ed0 dabd aa79 3a3e 7ef1 cd3e 3360 1dbf
000001a0: 6292 d53e 5efe 8ebe fe74 91be f35c 1b3f
000001b0: 76d7 d8be 44ae a93d a7a9 07bf 228a 05bf
000001c0: de6a 8abc 1227 9fbe f596 1e3e 8d7d db3e
000001d0: cc5c 6dbe d6f7 b43e db7c e9bd 60f0 3cbd
000001e0: 12cf 5c3e 65f5 88be abf3 a03e 3b36 f23e
000001f0: af04 93be 2707 d93d 7fb0 0ebf 63fe 84bd
00000200: dbe3 823e 2044 263e e92b aa3e e1a4 cd3d
00000210: aa96 cf3e 9d1f 87be 4318 933e d180 e7be
00000220: 4d11 d6be df58 b93e bd19 b9be 91ed 4bb8
00000230: 8265 6dbe 3891 9d3e fb10 1b3e 1d5b a43e
00000240: fac9 31bf 67f5 c53c ce7d 4b3e 2e4c 1c3e
00000250: 1a02 4a3d c03c f0be 1554 a63d 382b 32be
00000260: 3c17 2cbf bdf5 33bf 4bfc 553f 4d6b 683e
00000270: 5581 0dbe 0790 5e3d c9ae 25bd 638f e5bb
00000280: 04d7 bdbe 2f8a 39bf 3955 753b 6519 2cbf
00000290: 5dce 633e 9bed b5be 8218 1f3f 033b e4bd
000002a0: 28f4 853e 688e 65be cde3 b4be 4470 90bc
000002b0: aa9a 24bf be1e 7dbe 93d4 22bd 9419 403e
000002c0: 07b8 96be f494 f33d 560f 00bf e5c7 873e
000002d0: fcae 203e ed5f 273e 6662 ff3d 102e 13be
000002e0: 1a0f 3a3e 4406 bd3e 521e bcbe 99d9 6b3d
000002f0: de89 e23d 2c8d 4a3e 64fd 233e 0da1 a23d
00000300: 40e8 25be fd2f 16be 0faf 823e 7a04 a1bf
00000310: 6428 bfbe 8578 703e 1011 d0be d90f 0dbf
00000320: e452 d83e 19c9 babe d1ef f0be 5089 4f3b
00000330: be1a 94be c34a dc3e 8120 aa3e e3c4 a03e
00000340: 5c00 20bd 40e6 9dbd 3c19 2abf 9d69 c3be
00000350: 67c4 4a3d 737d 99bf ba84 283e 91b7 bebd
00000360: 83e8 d03d d530 bdbd 5eae e7be 73c5 e5be
00000370: 0ef9 08bf 0b08 c9be 445b 47be 44a5 fbbe
00000380: 3e06 1e3e 5b20 7bbe 7b2b 4e3e 36c8 47be
00000390: e1a0 0f3f d1e8 ec3d dc09 8d3e 28bf ea3e
000003a0: add8 c73d a02d 8abe b788 e7bd 7a4b f93e
000003b0: 6d60 fbbc 9fe4 0abf 6bcd e13e ffa9 da3d
000003c0: 3648 c83e 084e 7abe 6615 7b3e 989a 573e
000003d0: 2d78 0dbe f11f 27bf 2012 393e 850c 79be
000003e0: 45ef d53e 1b0f b4be e22d 2f3e cdb0 05bf
000003f0: 09fb 8fbd d643 8d3e 111e 153f fad9 5cbe

arith.constant3 f4 [64]
-0.79617476 1.4825112 -0.92964774 1.1470503 0.43437088 0.62708056 0.12522969 -0.5351672
-1.1149436 0.08037533 -0.46259308 0.36188594 0.6579332 -0.6166506 1.6038233 0.5140362
1.1377462 0.56098217 0.23068386 -0.26706392 -1.0355662 -0.19884805 0.1328679 1.2183751
1.803173 1.4508924 -0.87792313 -0.08501817 -0.9129654 -0.40622997 1.2075626 -0.44785053
-0.056334008 1.4581856 0.9136962 1.70598 1.3902631 1.4721793 0.51631844 0.36328
-0.34099242 1.2511245 -0.038512766 0.15563595 1.1722921 1.4545286 1.480196 0.22872293
0.7126353 0.12810613 -1.7540321 -1.4357412 0.513256 0.541236 -0.86989707 0.189269
1.2105246 1.076545 1.76887 -0.87487024 2.1624243 1.2734916 -0.5100314 -0.74157673
00000000: 1cd2 4bbf edc2 bd3f 65fd 6dbf 8bd2 923f
00000010: dc65 de3e 5a88 203f 363c 003e b800 09bf
00000020: 79b6 8ebf d29b a43d 00d9 ecbe 1d49 b93e
00000030: 4f6e 283f d0dc 1dbf 154a cd3f e097 033f
00000040: aba1 913f 879c 0f3f 6438 6c3e 9abc 88be
00000050: 6f8d 84bf d39e 4bbe 860e 083e b7f3 9b3f
00000060: 5fce e63f d8b6 b93f 92bf 60bf 021e aebd
00000070: 1ab8 69bf 60fd cfbe 6991 9a3f aa4c e5be
00000080: 7dbe 66bd d3a5 ba3f ffe7 693f 8d5d da3f
00000090: 24f4 b13f 5f70 bc3f 722d 043f d6ff b93e
000000a0: 8f96 aebe d924 a03f 90bf 1dbd 085f 1f3e
000000b0: ab0d 963f fe2d ba3f 1077 bd3f 5836 6a3e
000000c0: 446f 363f 412e 033e 2084 e0bf 5ec6 b7bf
000000d0: bf64 033f 718e 0a3f 93b1 5ebf bccf 413e
000000e0: 78f2 9a3f 3acc 893f 556a e23f 7ff7 5fbf
000000f0: 2965 0a40 c601 a33f 6b91 02bf f9d7 3dbf

arith.constant4 f4 [128]
0.016294735 0.041853122 -0.027103825 -0.07607372 0.012199872 -0.024511905 -0.06254435 -0.042519312
-0.021991225 -0.040059853 0.01164523 -0.050729346 0.052370552 0.016781699 -0.10279466 0.014977719
0.011717651 0.037185423 -0.030818092 -0.1560572 0.026539413 -0.0667967 -0.061453413 -0.003059115
-0.021763626 -0.043012574 -0.080254294 0.03845726 -0.1595182 0.010109499 0.0105967615 -0.071258
-0.07638749 -0.12298154 -0.035875205 -0.024366964 -0.009293056 -0.04593647 -0.019456113 -0.015585663
-0.07357958 -0.059245747 -0.0047953706 -0.062032174 -0.019099379 0.045205686 0.018315991 -0.03403907
-0.09047912 -0.08068318 -0.00012433073 -0.0026508314 -0.041769385 -0.11263386 -0.071048826 -0.007570372
-0.034603085 -0.035647616 -0.049601242 0.07712308 0.033227578 -0.019244486 -0.17546271 0.015341657
-0.19953959 0.039483245 -0.060056742 -0.05551806 0.049870636 -0.01582133 -0.047191832 -0.054729022
0.015862593 6.591399e-05 -0.09185644 -0.10064638 -0.008739643 -0.027912786 -0.00177846 -0.078587055
-0.05566717 -0.04227722 7.3036063e-06 0.056547385 -0.061580013 -0.030047894 0.07938495 -0.031520676
0.01082387 0.02409041 -0.027006136 -0.0301336 0.014764794 0.025722483 0.006293556 -0.04914095
-0.123800926 -0.18118174 -0.025774738 0.05740666 -0.09015873 0.020316131 -0.03778894 -0.01649968
-0.13590842 -0.11357256 -0.010662468 -0.02029345 -0.02689019 -0.051042583 -0.060195155 -0.022170573
-0.019130763 0.03623171 -0.04121679 -0.055532485 -0.048428297 -0.03944882 -0.056282505 -0.007897534
0.0045907544 0.012546869 -0.028748253 -0.03592453 -0.1165631 0.05861811 -0.0055339965 0.032289144
00000000: 897c 853c 2e6e 2b3d d708 debc 8acc 9bbd
00000010: f9e1 473c 31cd c8bc 4117 80bd bb28 2ebd
00000020: f126 b4bc cd15 24bd a3cb 3e3c 93c9 4fbd
00000030: 8182 563d c679 893c 0286 d2bd 1b65 753c
00000040: 64fb 3f3c be4f 183d 3976 fcbc 75cd 1fbe
00000050: 2f69 d93c b5cc 88bd 93b6 7bbd 6f7b 48bb
00000060: a249 b2bc f42d 30bd 5d5c a4bd 5c85 1d3d
00000070: bd58 23be 50a2 253c 0a9e 2d3c b7ef 91bd
00000080: 0b71 9cbd bfdd fbbd e1f1 12bd 3a9d c7bc
00000090: e741 18bc e127 3cbd 6d62 9fbc 025b 7fbc
000000a0: e4b0 96bd abab 72bd 7c22 9dbb 7315 7ebd
000000b0: 4d76 9cbc 9929 393d 6b0b 963c 8d6c 0bbd
000000c0: 1e4d b9bd 393d a5bd c75e 02b9 92b9 2dbb
000000d0: 6016 2bbd 95ac e6bd 0c82 91bd e210 f8bb
000000e0: f7bb 0dbd 3c03 12bd ac2a 4bbd b5f2 9d3d
000000f0: a419 083d 9da6 9dbc 7fac 33be 935b 7b3c
00000100: 1b54 4cbe 2fb9 213d 0ffe 75bd e866 63bd
00000110: 2745 4c3d bc9b 81bc 394c 41bd 8a2b 60bd
00000120: 45f2 813c 4e3b 8a38 3b1f bcbd b01f cebd
00000130: b830 0fbc 5ba9 e4bc 371b e9ba 40f2 a0bd
00000140: 4203 64bd e12a 2dbd 8011 f536 3b9e 673d
00000150: 533b 7cbd 0027 f6bc 9494 a23d d31b 01bd
00000160: 9a56 313c 4059 c53c f93b ddbc bdda f6bc
00000170: 09e8 713c f5b7 d23c 2d3a ce3b 0548 49bd
00000180: 578b fdbd b587 39be 8b25 d3bc 3f23 6b3d
00000190: 24a5 b8bd 046e a63c 93c8 1abd 562a 87bc
000001a0: 942b 0bbe bb98 e8bd a2b1 2ebc 733e a6bc
000001b0: d148 dcbc 0712 51bd 328f 76bd 109f b5bc
000001c0: 1eb8 9cbc b467 143d f0d2 28bd 0876 63bd
000001d0: c05c 46bd 1695 21bd 7c88 66bd a964 01bc
000001e0: 0a6e 963b 6291 4d3c 7581 ebbc 9a25 13bd
000001f0: a2b8 eebd 8b19 703d 8756 b5bb 9f41 043d

sequential_1/dense_1/MatMul f4 [128, 23]
0.09453351 -0.08008639 0.048667867 -0.120067105 -0.16487007 0.12296015 -0.011308933 -0.15386415
-0.080187 -0.116569385 0.0020953985 0.020342555 -0.21450825 -0.08224843 -0.06135304 -0.11661279
-0.077194124 -0.06571946 -0.06565415 -0.16020173 0.17630042 -0.04320485 0.2217982 -0.04171757
0.10571267 -0.011982073 0.104962215 0.18906343 0.17254847 0.1084105 0.19497652 -0.01829217
-0.107918024 0.04256701 0.0716358 0.12904568 0.1808069 0.010653897 -0.043746207 0.11430245
-0.13963988 0.030958103 -0.10958589 0.0544026 -0.07728573 -0.18141718 -0.17095587 0.11388141
-0.07519237 0.1650892 0.0802226 0.14708544 -0.16299365 -0.01408313 -0.1555601 0.2241959
7.1606664e-05 -0.059196375 -0.16997881 0.15117821 0.10183084 0.13321763 0.13450964 0.14452825
0.08562895 -0.14983052 -0.04267551 0.10737101 -0.12718864 0.14223798 0.008189249 0.19340162
-0.014045719 0.06729983 -0.020608831 -0.2044132 0.2708572 0.18075606 0.12718666 0.091870755
-0.07541219 0.16405256 0.14901957 0.049301974 -0.04265614 0.08931983 0.18283443 0.024232378
0.120177425 -0.10075692 -0.07388324 0.038215794 0.0929378 -0.0013817218 0.19104123 -0.103811525
0.16187039 -0.1717606 0.17376575 0.056535788 -0.12409765 -0.005007443 -0.057853647 0.069730096
0.14047809 -0.026687915 0.16916572 -0.0018750363 -0.157258 -0.13809948 0.03777874 0.21747737
-0.11802809 -0.10616907 -0.0011594503 -0.073246 0.0006291329 -0.06764432 -0.14433657 -0.019630812
0.051543277 0.15816124 0.076138325 -0.0855082 -0.15238859 0.008439088 -0.16865025 -0.19890738
0.078589216 0.061530773 0.13713817 -0.016521497 -0.15319335 -0.12802577 0.03129542 -0.1274146
-0.041611686 -0.0052208 -0.05154468 0.02879986 -0.036288355 -0.05241465 -0.15811308 -0.14170745
0.16361414 -0.10050697 0.15902188 -0.06692387 0.029343052 0.0073633334 -0.17836663 0.18572569
0.12927888 -0.07947376 0.037935834 -0.18888387 0.18924999 0.1384878 0.08516856 0.108844355
-0.022238968 -0.1574189 0.014920847 -0.13000375 0.109916806 -0.052454762 0.07339034 0.2423577
-0.06389059 0.097180575 -0.18361115 0.19181728 -0.0101256175 -0.1332249 -0.11164963 0.1066971
-0.09256661 0.122103095 0.16731922 0.17418472 -0.054565005 -0.13550498 0.084309235 0.11690256
0.07811143 0.15131614 -0.04131432 0.14678735 0.11552762 0.2051572 -0.066509604 0.09271026
-0.07091246 -0.14549927 -0.17006312 -0.018103661 -0.15621583 -0.12827116 -0.01148596 -0.1559834
-0.01839866 -0.013619447 0.0089110155 0.01040511 0.19344214 0.10201019 0.22929624 0.04848577
0.08770114 -0.08709481 0.10725329 0.17501271 -0.1277957 -0.10308561 0.16782713 -0.061036333
-0.048575565 -0.20021676 -0.1901085 0.07176953 0.14900216 0.05456275 -0.09220823 0.0775466
0.1904719 0.22994258 0.017110433 -0.039912798 0.046941403 -0.057578083 0.15426734 -0.07243909
-0.015122767 -0.221865 -0.022683945 0.17391156 -0.13994266 -0.15693897 0.0038260182 0.13834476
-0.010242294 -0.11146559 -0.02413676 0.08368269 -0.17180829 0.011179514 -0.13156153 -0.08792478
-0.17010076 0.08628603 0.07563548 -0.13456652 0.16585837 0.035127647 -0.10993773 -0.0024510887
00000000: c99a c13d 5504 a4bd f557 473d bee5 f5bd
00000010: b3d3 28be 88d2 fb3d 1a49 39bc 908e 1dbe
00000020: 1539 a4bd eebb eebd f452 093b 6ea5 a63c
00000030: 0da8 5bbe dd71 a8bd 534d 7bbd b0d2 eebd
00000040: f417 9ebd ed97 86bd af75 86bd ec0b 24be
00000050: 1988 343e 92f7 30bd 111f 633e 0be0 2abd
00000060: e27f d83d 7550 44bc 6ef6 d63d d899 413e
00000070: 8cb0 303e 5306 de3d eda7 473e 76d9 95bc
00000080: 2004 ddbd bf5a 2e3d cab5 923d 8d24 043e
00000090: 7225 393e af8d 2e3c 392f 33bd 6717 ea3d
000000a0: c2fd 0ebe d99b fd3c 916e e0bd 43d5 5e3d
000000b0: fb47 9ebd 6dc5 39be 0e0f 2fbe a83a e93d
000000c0: 75fe 99bd 250d 293e bf4b a43d 919d 163e
000000d0: cfe7 26be eebc 66bc 264b 1fbe 9c93 653e
000000e0: 892b 9638 e677 72bd ed0e 2ebe 76ce 1a3e
000000f0: b08c d03d 346a 083e e5bc 093e 37ff 133e
00000100: 3b5e af3d 2c6d 19be 84cc 2ebd 55e5 db3d
00000110: bd3d 02be d5a6 113e 332c 063c 130b 463e
00000120: 0420 66bc 7ed4 893d dad3 a8bc b251 51be
00000130: cbad 8a3e 1e18 393e 383d 023e bc26 bc3d
00000140: b571 9abd 65fd 273e 9698 183e def0 493d
00000150: 34b8 2ebd 51ed b63d f338 3b3e fb82 c63c
00000160: 951f f63d a559 cebd 1950 97bd 2a88 1c3d
00000170: 2c56 be3d e41a b5ba 50a0 433e 239b d4bd
00000180: 5ac1 253e 03e2 2fbe a6ef 313e 1292 673d
00000190: e926 febd 7a15 a4bb f2f7 6cbd a7ce 8e3d
000001a0: 7dd9 0f3e 9da0 dabc c739 2d3e c7c3 f5ba
000001b0: 3e08 21be f369 0dbe e1bd 1a3d 63b2 5e3e
000001c0: b6b8 f1bd 2b6f d9bd b2f8 97ba 0002 96bd
000001d0: 65ec 243a 1b89 8abd f7cc 13be ccd0 a0bc
000001e0: 0b1f 533d 05f5 213e 69ee 9b3d ec1e afbd
000001f0: c10b 1cbe 1a44 0a3c a7b2 2cbe 60ae 4bbe
00000200: 62f3 a03d b107 7c3d f36d 0c3e 1758 87bc
00000210: b8de 1cbe 3019 03be a02f 003d f978 02be
00000220: 0471 2abd 3f13 abbb 8420 53bd afed eb3c
00000230: 19a3 14bd beb0 56bd 65e8 21be c21b 11be
00000240: 778a 273e 99d6 cdbd a2d6 223e 620f 89bd
00000250: d760 f03c 1e48 f13b bea5 36be e02e 3e3e
00000260: af61 043e 24c3 a2bd 9b62 1b3d c66a 41be
00000270: c0ca 413e bfcf 0d3e db6c ae3d cae9 de3d
00000280: 7f2e b6bc 6c32 21be 9176 743c b41f 05be
00000290: 101c e13d ceda 56bd ad4d 963d 9e2c 783e
000002a0: 12d9 82bd 9c06 c73d 9004 3cbe c06b 443e
000002b0: ebe5 25bc 1c6c 08be 90a8 e4bd 0284 da3d
000002c0: 9093 bdbd 3011 fa3d bb55 2b3e 7b5d 323e
000002d0: 8e7f 5fbd d1c1 0abe 52aa ac3d 9c6a ef3d
000002e0: e3f8 9f3d 9ef2 1a3e 3439 29bd 6c4f 163e
000002f0: bf99 ec3d bb14 523e 3036 88bd e0de bd3d
00000300: 8d3a 91bd c3fd 14be 0725 2ebe 214e 94bc
00000310: 0bf7 1fbe 8459 03be 9c2f 3cbc 1dba 1fbe
00000320: c9b8 96bc 1a24 5fbc 82ff 113c 327a 2a3c
00000330: b215 463e b8ea d03d a2cc 6a3e 0499 463d
00000340: a89c b33d c45e b2bd 9da7 db3d 8836 333e
00000350: e0dc 02be 8c1e d3bd e0da 2b3e 3c01 7abd
00000360: 2cf7 46bd 9f05 4dbe cdab 42be e7fb 923d
00000370: 0694 183e 317d 5f3d abd7 bcbd c0d0 9e3d
00000380: 110b 433e 1176 6b3e 2e2b 8c3c 9a7b 23bd
00000390: a145 403d ffd6 6bbd 42f8 1d3e f25a 94bd
000003a0: 7bc5 77bc 9430 63be aed3 b9bc df15 323e
000003b0: 214d 0fbe 9cb4 20be efbd 7a3b 40aa 0d3e
000003c0: 4bcf 27bc 1248 e4bd 74ba c5bc d561 ab3d
000003d0: 83ee 2fbe 482a 373c 11b8 06be e811 b4bd
000003e0: e52e 2ebe bbb6 b03d c6e6 9a3d cecb 09be
000003f0: c7d6 293e 02e2 0f3d 0827 e1bd 72a2 20bb
