app/src/main/assets/lung_disease_model.tflite (tflite, 16964 bytes, 6 tensors)

arith.constant f4 [3, 32]
000000 a4 4b ce be c5 be ee be 9f 59 f9 be e3 d7 ff 3e
       -0.40292084 -0.4662992 -0.48701188 0.49969396
000010 cd 28 9c 3e 34 22 b7 be 36 07 9b 3d 08 f5 dc 3e
       0.3049988 -0.35768282 0.07569735 0.43155694
000020 a8 9d 16 3f a4 41 81 3e e0 33 ad 3e ad 59 a9 3e
       0.58834314 0.25245392 0.3382864 0.3307623
000030 10 1e a6 be 57 de 22 3e 33 58 9b be d7 88 fd 3e
       -0.3244481 0.15905128 -0.30340728 0.49518463
000040 4d f6 a0 3e 23 2f 5a bd 6b 36 02 bf 81 fa 6f be
       0.31437913 -0.05326761 -0.50864285 -0.23435403
000050 36 93 32 be 21 4d 51 be 7a 91 ff bd 6f 66 7c bc
       -0.17438969 -0.20439579 -0.12478919 -0.015405281
000060 b9 5f 8e 3e 29 9c c3 3e 00 c2 ed bd da 75 05 be
       0.27807406 0.38205078 -0.11609268 -0.13033238
000070 98 6c e5 3d a8 38 7b be 5e 57 57 3d c0 06 c6 3d
       0.11202353 -0.24533331 0.052573554 0.09669256
000080 9a 37 10 3f a1 ab c9 3e c6 97 88 be fb 9f 09 3e
       0.5633484 0.39388755 -0.26678294 0.13439934
000090 ab 17 2a be d0 2a 94 3d 1d 5b c5 bd 53 e5 bd be
       -0.16610591 0.07234728 -0.09636519 -0.37089023
0000a0 7d e3 e2 bd 05 b1 42 3e 55 44 af be bb 86 7b be
       -0.11078546 0.1901284 -0.3423182 -0.24563114
0000b0 01 a7 05 3f 10 60 28 3d 8c 02 b6 3e 2d 01 92 be
       0.5220795 0.041107237 0.35548818 -0.28516522
0000c0 b3 44 8f 3e f3 62 17 bf 4d b0 b2 3d 42 86 d6 be
       0.279821 -0.5913536 0.08725033 -0.41899306
0000d0 86 37 f5 3e 10 a5 ae be 5a 92 c6 be 56 11 4b be
       0.47893924 -0.34110308 -0.38783532 -0.19830832
0000e0 97 67 7f be 1b f8 c7 be a2 35 36 be 00 0c 94 3a
       -0.2494186 -0.39056477 -0.17793897 0.001129508
0000f0 ca b2 03 be 37 6a ab be 4a 1a 84 be d7 b6 27 3e
       -0.12861171 -0.33479473 -0.25801307 0.16378342
000100 46 a7 a1 be 83 b5 c6 3e 9f cb fd 3e 77 e8 77 bd
       -0.31572932 0.38810357 0.49569413 -0.06052443
000110 f7 d1 6f be c5 fd d0 3e ad e9 d3 3e c5 95 23 be
       -0.23419939 0.4081861 0.41389218 -0.15975101
000120 c3 40 e6 3d 01 4d c7 be ca ad 87 be 3f 83 f9 be
       0.11242821 -0.38925937 -0.26499778 -0.48732945
000130 2f be 70 be 9a 58 ef 3e f7 60 de be 0a 38 c8 be
       -0.2351005 0.46747285 -0.43433353 -0.39105254
000140 37 9d db be ca 09 bc bd a2 2f 04 be 17 32 fb 3e
       -0.42893383 -0.091815546 -0.12908795 0.49061653
000150 55 50 ef be 39 7d d6 bd af b9 24 3e 2d 98 9d 3e
       -0.46740976 -0.10473103 0.16086458 0.30780163
000160 21 00 ad bd df 9f 48 3e 8a 67 56 3e 68 a6 c3 be
       -0.0844729 0.19592236 0.20937935 -0.38212895
000170 e2 ec f3 3e e0 c9 f0 3e cb f9 bb 3e 0f 8c d4 be
       0.47641665 0.47029018 0.36714014 -0.41513106

arith.constant1 f4 [32, 64]
000000 a7 00 97 bc b7 23 79 3e d1 d5 57 3c cb db ef 3d
       -0.018432928 0.2433003 0.013173536 0.11711844
000010 0f 8b 8c be ed b3 1f be df c3 bc 3c b0 bb 8b 3e
       -0.27449843 -0.1559598 0.023042617 0.27291632
000020 73 51 05 be ed 94 ab 3e e4 74 8f be 48 c0 72 be
       -0.13019352 0.3351206 -0.28018868 -0.23706162
000030 f4 2b 9a 3e 3e b7 8d be 86 69 76 3d d1 4a 59 3e
       0.3011166 -0.27678865 0.06015923 0.21219946
000040 a7 67 b0 bd 37 c1 4b be fe 49 85 bc ec cc 44 3e
       -0.0861352 -0.19897924 -0.016270634 0.19218796
000050 4c 2f 60 be 63 67 3f 3e a7 17 98 bd d6 44 25 3c
       -0.21893042 0.18691783 -0.07426386 0.010087213
000060 91 0f 1b 3e ac 84 0b be 33 29 e5 bc 4b 19 76 be
       0.15142657 -0.13624829 -0.027973747 -0.24033086
000070 20 78 8f 3e 90 76 e2 3d f5 07 fb bd e1 ef 80 bd
       0.28021336 0.1105777 -0.12257377 -0.06295753
000080 96 5d d9 bd 4a ca ef bd 51 8c 91 3e 1e 28 a5 3d
       -0.10613553 -0.117085055 0.28427365 0.08064292
000090 cd be 3c 3d 67 d7 42 be 71 ed 03 3e 19 95 59 3e
       0.0460804 -0.19027482 0.12883545 0.21248282
0000a0 68 0a 78 3d 89 1b 07 be 29 aa 9c bd 99 dd 6e 3d
       0.0605568 -0.13194098 -0.07649643 0.0583168
0000b0 72 34 76 3d 1c 6b 1b be 33 cf 1f 3d 7f e9 68 3e
       0.06010861 -0.15177578 0.03901596 0.22745322
0000c0 56 d2 5c 3e 93 de cc 3d 8e eb 89 3d ac c7 6b 3c
       0.21564612 0.1000339 0.067343816 0.014390867
0000d0 6a 5e 92 3e 45 ad 2a 3e 76 f1 2d bd dd 76 4c 3e
       0.28587657 0.1666766 -0.042466603 0.19967218
0000e0 b2 60 ad be cd 83 81 bd 05 cc b1 bc a0 5a 4c be
       -0.33862835 -0.06323967 -0.02170373 -0.19956446
0000f0 87 35 3d bd b0 e5 a5 3e 37 91 ce 3b fd 2e f3 3b
       -0.046193626 0.324018 0.006303932 0.007421373
000100 b0 c7 42 bd f5 de 2e 3c aa 7a 36 3e e0 7b 8a 3e
       -0.047553718 0.010673274 0.1782023 0.27047634
000110 07 c5 7e bd bd 1b 8a 3d 28 6b 64 3e dc e2 86 3d
       -0.06219962 0.06743572 0.22306502 0.06586239
000120 fb 8f 7b 3d 17 bc be bd 60 5a b3 3d db 58 f7 3d
       0.061416607 -0.09313219 0.08757472 0.12077495
000130 87 3e e1 3d dc 1d 47 3e c7 67 cc bc 2e e7 22 be
       0.10998254 0.19444984 -0.024951829 -0.159085
000140 6a 5f 37 3e 2b d8 83 3e 8e 24 ec bd 42 66 39 3e
       0.17907491 0.2575086 -0.1153041 0.18105415
000150 56 3e d8 bd 99 f3 7b bd fc 5c 21 3d 8d 42 1a be
       -0.10558765 -0.06151161 0.039395317 -0.1506445
000160 a4 5f 88 bb 9f bd 8e 3b 3a 86 19 bc be 47 88 3e
       -0.004161792 0.0043561007 -0.009370381 0.26617235
000170 88 18 1c be c2 d8 a3 3e 07 0e 6d 3e 59 3a c5 bd
       -0.15243733 0.3200131 0.23149882 -0.096302696
000180 05 38 1d be 9c b4 00 3e f3 cb 32 3e c7 ec 07 3d
       -0.15353401 0.12568897 0.17460613 0.033184793
000190 4e d2 b0 3d 4d 8e 24 be 22 30 15 3d 36 0e 14 3e
       0.086338624 -0.16069908 0.036422856 0.14458546
0001a0 fb 87 90 3e 5a d6 2e 3e 37 5a f3 bd ca 17 3e 3c
       0.28228745 0.17073956 -0.118824415 0.011602351
0001b0 47 f3 fd 3d c5 8b d0 3d 5a fa 5a be 91 40 29 3e
       0.12399917 0.10182909 -0.21384564 0.16528536
0001c0 96 03 a6 3e 48 3d a9 be 7c c5 88 3e 24 86 86 3e
       0.3242461 -0.33054566 0.2671317 0.26274216
0001d0 a1 0c 1c be 8b 5a ec bd 9d c2 85 bd 80 de 85 bd
       -0.15239193 -0.11540707 -0.0653126 -0.06536579
0001e0 f5 b5 48 3d 79 2f d3 3d 33 e4 e1 bd 07 10 1e be
       0.049001653 0.10311789 -0.11029854 -0.15435801
0001f0 eb 8d 8b 3c 4c 58 5b bd 3a c7 a3 3e e7 7d 93 3e
       0.017035445 -0.053551003 0.31987935 0.28806993
000200 a9 84 d8 3d 83 eb 5a 3e 29 33 34 3e 39 ee 3a 3e
       0.10572178 0.21378903 0.17597641 0.18254937
000210 b0 e4 48 3e 99 8c 31 3e c2 8d b7 3d 22 b1 fc bd
       0.19618487 0.1733879 0.08962585 -0.12338473
000220 5a 05 77 3e f4 e1 e6 3c 2c 87 88 3e e0 df 0b be
       0.24123135 0.028183915 0.26665628 -0.1365962
000230 8c da 47 bd 5a b0 f1 bd 77 75 b4 3c 6a f1 c4 bd
       -0.048792407 -0.118012145 0.022028668 -0.096163586
000240 f2 da 23 3e 40 02 16 be 6c d1 0f 3d 38 de cb 3d
       0.1600149 -0.14649296 0.03511183 0.09954494
000250 7f 78 06 be d7 18 fc bd 39 7f 8d be 91 57 8b 3d
       -0.13131903 -0.12309425 -0.27636126 0.06803811
000260 9b ac fa bd ac f8 21 3e 3c 74 6e bb fd 4d 56 3d
       -0.12239953 0.15817517 -0.00363852 0.05232047
000270 2d d7 05 be 38 7c dc bd f3 b5 0c 3b 34 3b 91 3e
       -0.13070364 -0.1076588 0.0021470755 0.2836548
000280 5f 2f 29 3d be 3a 52 bd c5 de be bc dd 57 23 be
       0.041304942 -0.051325552 -0.023299584 -0.15951486
000290 a0 04 6f 3e 07 a3 b1 bb d6 23 bc 3d 0f 4d 13 3e
       0.23341608 -0.0054210457 0.09186523 0.14384864
0002a0 32 81 0e be 4f 1e 3f be 1c 1d 0e be b2 e2 29 3d
       -0.13916472 -0.18663906 -0.13878292 0.04147596
0002b0 29 41 1d be ce 52 70 be a1 fd 4a bc d5 72 a3 3d
       -0.15356888 -0.23469087 -0.012389571 0.07980887
0002c0 de 70 1d be 58 92 8b 3d 1d 5b e9 bd 01 6b 1e 3e
       -0.15375087 0.06815022 -0.113943316 0.15470506
0002d0 f2 b3 7a 3e a8 3a 1f be 63 0b ed 3d 05 56 9d 3e
       0.24482706 -0.1554972 0.115744375 0.3072969
0002e0 d2 4b d6 3c ee 5e 8e 3d 56 87 5d bd ea 03 50 3c
       0.0261592 0.069517 -0.054084145 0.012696246
0002f0 f1 de 4b 3e 99 b8 7f bc a2 c9 6a bd e6 21 b8 bd
       0.19909264 -0.015607976 -0.0573212 -0.089908406
000300 a1 2c 71 be 03 1d 5e be d1 95 8e bd c7 e5 53 3d
       -0.23552181 -0.21690755 -0.06962169 0.051732805
000310 91 df c3 3d 18 ca b9 3d f0 52 07 be 5f 83 a9 bd
       0.09564126 0.090717494 -0.13215232 -0.0827701
000320 f9 fd 9d bd fd 42 13 bd dd 19 16 3d 52 18 e3 bd
       -0.07714457 -0.035952557 0.03664576 -0.11088623
000330 c4 73 69 3d 00 a7 3d 3e d6 97 3f 3d 4c 76 35 b9
       0.05699517 0.18520737 0.04677566 -0.00017305574
000340 a2 61 e3 3b 82 34 2d bc 44 49 0d 3e 5b 05 90 3e
       0.006939129 -0.010571601 0.1379748 0.28129086
000350 9d 83 85 3e f6 43 61 3d c8 9b a3 3e 02 11 0d be
       0.26076975 0.054996453 0.3195479 -0.13776019
000360 49 cb fb bd cc f0 ff 3d 0e 22 8f 3d b7 5f 73 3d
       -0.12294633 0.124971 0.06988917 0.059417453
000370 d1 ca 7b 3c 6d c8 15 3c fa d9 48 be 31 17 4c be
       0.015368179 0.0091420235 -0.19614401 -0.19930722
000380 3c 12 d2 3c e0 45 f7 3c ac b4 5e 3b b9 ce 5f 3d
       0.02564346 0.030184686 0.00339822 0.054640505
000390 ba fd 41 be ae 74 04 be 17 d2 32 bd 1e 45 15 be
       -0.18944445 -0.12935135 -0.04365739 -0.14577147
0003a0 72 39 6b 3d 04 e4 95 be 11 da 86 3d ea d9 a1 3a
       0.05742783 -0.29275525 0.065845616 0.0012348269
0003b0 2d 07 31 be c1 ac 86 3e aa 45 21 3e 63 ee 72 be
       -0.17287894 0.26303676 0.15749231 -0.2372375
0003c0 3e ec 3e 3e d9 6d 36 bd fc 23 ec bd c7 16 ff bd
       0.18644807 -0.044538353 -0.11530301 -0.12455516
0003d0 92 58 0c be 24 9b 20 be 2a c3 50 3e 01 d4 d8 3d
       -0.13705662 -0.15684181 0.20386949 0.105873115
0003e0 ec 5e 8f 3e 3b 41 72 3e 68 28 67 3e e8 a8 8a 3e
       0.28002107 0.23657696 0.22574008 0.2708199
0003f0 3d eb 3b be 60 7d 0d be bb 33 a5 3d c7 71 07 be
       -0.18351455 -0.13817358 0.080665074 -0.13226996

arith.constant2 f4 [3]
000000 a2 29 93 bd d4 88 95 3c 79 e1 58 3d
       -0.07185675 0.018253721 0.052949402

sequential_1/dense_1_2/BiasAdd/ReadVariableOp f4 [32]
000000 00 c2 80 3d aa 50 a4 3d 0c 17 49 3d cc bf 16 bd
       0.062870026 0.08023198 0.049094245 -0.036804006
000010 49 e4 0d bc 82 e7 aa 3d 5c c5 63 3d 39 0b e7 bc
       -0.008660384 0.08344938 0.05560814 -0.028203594
000020 4c 7c 25 3d 57 74 69 bc 90 ca 7f 3a 62 f0 d6 bc
       0.04040174 -0.014248929 0.0009757662 -0.02623767
000030 6e 9b 8b 3d ef cc 83 3d 7d b1 31 3c a7 1a 03 bc
       0.06816755 0.06435572 0.010845539 -0.00800196
000040 77 9c 95 3b 49 28 c1 3d 47 3a b2 3d 53 77 2e 3d
       0.004565771 0.09431512 0.08702522 0.042594265
000050 79 80 16 3d 9d 36 c7 bc 9b 2e 08 3d 5b 33 d0 3b
       0.036743615 -0.024318034 0.03324757 0.0063537783
000060 64 39 e2 bc 7b b8 8d 3d 5d 02 17 bd 00 00 00 00
       -0.027615257 0.069199525 -0.03686749 0.0
000070 39 c0 98 3c df c0 9f 3d a7 4f 33 3d 73 38 0b bc
       0.018646346 0.07800459 0.043777134 -0.008497345

sequential_1/dense_1/BiasAdd/ReadVariableOp f4 [64]
000000 28 81 ac 3d 43 29 a0 3c 93 4d 1b bc 96 51 ae 3d
       0.08423072 0.019550925 -0.009478944 0.08511655
000010 64 90 92 3d 3b 59 d8 3d cb 56 aa 3d 36 80 2d 3d
       0.071564466 0.10563894 0.08317336 0.0423586
000020 51 46 fe bc d7 10 45 3d 28 58 5c 3d f4 a0 e7 3c
       -0.031039389 0.048111763 0.05379501 0.02827499
000030 36 c7 0b 3d 42 22 12 3c 1d 51 32 bc 58 44 ec bc
       0.03412553 0.0089193005 -0.010883597 -0.028841183
000040 48 e2 1f 3d 5b 04 ff bb 1c 63 51 bc 3d 56 19 3d
       0.039034158 -0.0077825016 -0.012779977 0.03743576
000050 02 12 81 3d d0 30 02 bc 9d 9b b9 3c d3 38 91 3c
       0.06302263 -0.007946208 0.02265721 0.017727291
000060 f4 b0 b8 3c 12 a8 f8 3c e7 54 26 3d 98 00 9e 3b
       0.022545315 0.03035358 0.040608313 0.004821848
000070 9b 09 91 bb 59 1d b1 3d 80 b5 8b 3d c5 75 6b 3d
       -0.004426194 0.08648176 0.06821728 0.05748536
000080 5f 9d 47 bc 65 43 04 bd 8c d0 82 3d 25 96 67 3d
       -0.012183516 -0.032290835 0.063874334 0.056539673
000090 7f 30 b6 3d 09 92 89 bb e2 cd c2 3d 29 e1 aa 3d
       0.08895969 -0.004198317 0.09511925 0.08343727
0000a0 c8 bd d9 3d ce 07 85 3d 51 92 8c bd 73 83 d3 bc
       0.10631901 0.06495629 -0.06863845 -0.025819516
0000b0 2c 5d d9 3c 54 53 0f bd 5b 4a be bc 6b c0 01 3d
       0.026533686 -0.034991577 -0.023228815 0.031677645
0000c0 82 dc d2 3d 0c a5 c5 3b ea 94 c2 3d 94 60 8e 3d
       0.10295965 0.006031638 0.09501059 0.069520146
0000d0 48 39 70 3c 06 fa 85 bb 07 7c 2b 3d 3c 81 5a 3d
       0.014662094 -0.004088643 0.04186633 0.053345904
0000e0 97 39 92 3d a6 a0 79 3d 40 07 d8 3c e0 76 bf 3c
       0.07139891 0.060944222 0.026370645 0.023372114
0000f0 f8 73 7f 3d 10 b7 a5 3d 60 30 4b 3d cb 47 6c 3c
       0.062366456 0.08091557 0.04960668 0.014421414

sequential_1/dense_1/MatMul f4 [64, 23]
000000 43 15 72 3c 1e 7a 41 be 23 17 8d be cb 55 ec 3d
       0.014775577 -0.1889424 -0.27556714 0.11539801
000010 2b 64 b2 3d ca 9c 57 3d 21 34 98 be 47 7f 11 be
       0.08710512 0.05263976 -0.2972727 -0.14208709
000020 d4 60 95 3d f4 f5 5b 3d 10 37 c4 3d 94 b0 a0 bd
       0.07293859 0.053701356 0.09580815 -0.078461796
000030 e4 93 45 bd 0f c0 72 be 85 3a 12 be 7c f2 95 be
       -0.048236743 -0.23706077 -0.14280136 -0.29286563
000040 ed c8 55 bd b7 38 34 3e a1 2a a9 3e ac be 2a 3e
       -0.05219357 0.1759976 0.33040336 0.16674298
000050 26 7c 95 3e 09 b1 50 be 1c 23 ae 3e 77 ac 06 3c
       0.2919628 -0.20380034 0.3401116 0.00821983
000060 25 b3 b0 bc 18 ce 85 3e 8f 1f b8 3d 1d 4c da bd
       -0.021569798 0.261338 0.08990394 -0.10659049
000070 59 a3 3b be 7b e0 7f 3e e9 05 2e bd c9 7c 70 be
       -0.18324031 0.24987976 -0.042486105 -0.23485102
000080 ec 6e 3a 3e 7c 9f 85 3e 1f 49 58 be 3e 01 bb bd
       0.18206376 0.2609824 -0.21121643 -0.09131096
000090 c1 4a 32 3d d5 4f 94 be e4 b4 c8 3c d6 a1 83 3e
       0.043528322 -0.28967157 0.024500318 0.2570941
0000a0 ba 26 2b 3e 3d e3 1e be 70 75 17 be b8 f1 7c bd
       0.16713992 -0.15516372 -0.14790893 -0.06175396
0000b0 c0 f8 13 3e 14 7b c0 bd 16 d4 16 be c5 50 6f 3e
       0.1445036 -0.09398475 -0.14729342 0.23370655
0000c0 96 d7 f4 bd 1a e5 99 be 56 18 b7 3d fc f5 21 3e
       -0.11955182 -0.30057603 0.089401886 0.15816492
0000d0 e9 ab 5e be ec 3a 11 3d 38 2d 01 3e fc 0e 4b bd
       -0.21745266 0.035456583 0.12614906 -0.049574837
0000e0 1a 72 be 3d 1e 22 1e 3e 71 80 78 be eb 5c 62 3e
       0.09299107 0.15442702 -0.24267747 0.22105758
0000f0 5b a0 21 3e d3 24 82 bd a4 96 25 3b 0a 73 92 3d
       0.15783827 -0.0635468 0.002526679 0.07150848
000100 47 d7 82 3e 08 a5 82 be d2 2f 26 be 0e 2c 05 3e
       0.2555487 -0.25516534 -0.1622918 0.13005087
000110 92 b4 36 be 76 88 e7 3d 28 af 67 3d 32 5b 98 bd
       -0.1784232 0.11305325 0.056563526 -0.07439269
000120 eb 39 c9 3d ec dc 05 be 9b 76 fc bd fd 4a ba 3e
       0.098255 -0.13072556 -0.1232731 0.36385337
000130 2a 36 f9 bd 4e b1 16 bd 5b 51 d3 3c 9d 00 5f bd
       -0.12168534 -0.036790185 0.02579563 -0.054443944
000140 b9 5e f6 3d b3 29 03 3e 92 cd d9 3c d3 5e a4 be
       0.12029786 0.12808876 0.026587281 -0.32103595
000150 cc ee c5 3d 81 9c 09 3e 44 de 39 3e 68 34 55 be
       0.096646875 0.13438608 0.18151194 -0.20820773
000160 98 19 f7 3d eb 48 9e be 8f 08 3b 3e d5 ca 8b be
       0.120654285 -0.30915007 0.18264984 -0.27303186
000170 5f 55 6a be 26 96 2a 3e 02 94 6a 3d 5f bb 0f be
       -0.22884129 0.1665884 0.057270057 -0.1403632
000180 63 5f 2d be 48 b0 65 3e 48 5b ad 3c 78 3f d5 bd
       -0.16930918 0.22430527 0.02116169 -0.10412496
000190 7c 63 4f 3d c8 af a0 3e 13 fa 22 3e 4a 0b 2b 3d
       0.050631985 0.3138411 0.15915708 0.041758813
0001a0 9f 20 72 3e 3f dd 2a 3e 1a b7 b6 bd 7b 50 d2 3d
       0.23645256 0.16685961 -0.089216426 0.10269257
0001b0 b2 5d 33 3e c9 a7 8d 3e 87 44 94 3d 6b bb 84 3e
       0.1751621 0.27667072 0.07239633 0.2592424
0001c0 ba 0e be 3d 25 f5 1b 3e 4a 88 17 be 4f 7d 71 be
       0.092801526 0.15230234 -0.14798084 -0.23582958
0001d0 1d 55 59 3e 2f eb 95 be 31 40 a9 3d 8f 65 d5 3d
       0.21223874 -0.29280993 0.08264197 0.104197614
0001e0 26 0f 44 be e5 a4 8d 3a 13 4b 83 be 7e 1c d0 3a
       -0.19146404 0.0010806589 -0.25643215 0.0015877632
0001f0 2c 3b 3b bd 2f db bb bd a1 48 f2 3a 0b cb a5 3c
       -0.045710728 -0.09172665 0.001848478 0.02023842
000200 4f d1 35 be 97 34 45 3e ec 02 8b 3d 81 29 27 be
       -0.17755626 0.19258343 0.06787667 -0.16324426
000210 76 d7 b1 3e f6 b4 e3 3d 40 8b 6e be 5e 5b 58 3e
       0.34734696 0.111185 -0.23295307 0.21128604
000220 bf f1 3b 3d d3 6f b7 3e 01 7c 3d be 3e 39 1e be
       0.045884844 0.35827503 -0.18504335 -0.15451524
000230 2b 9b d7 3c 6d fc b5 bb a9 60 1d be cb 93 54 be
       0.026319107 -0.005553773 -0.15368904 -0.20759504
000240 5a c7 92 be 50 4d 6e be 1c 6a df bc 01 32 4b be
       -0.28667718 -0.2327168 -0.027272277 -0.19843294
000250 e7 89 e9 bd 84 82 21 3e 01 5d da bd c5 33 24 be
       -0.11403256 0.15772444 -0.1066227 -0.16035374
000260 09 a8 20 be 25 05 a7 bd 76 22 06 3e 19 d6 8a be
       -0.156891 -0.08155278 0.13099083 -0.2711647
000270 67 68 1f 3e 94 32 9b be 23 a2 54 3e 34 7e 2d 3e
       0.1556717 -0.30312026 0.20764975 0.16942674
000280 8b a8 23 3e 51 fc 58 be c5 b0 52 be f2 c4 26 be
       0.15982263 -0.21190001 -0.20575245 -0.16286066
000290 f9 47 90 3e db 8f 39 bc d9 08 b2 bd b8 34 83 3e
       0.2817991 -0.011325802 -0.08693094 0.2562616
0002a0 be d8 25 be 2c e8 e7 3d cd 63 05 be 9b 99 17 3e
       -0.16195962 0.1132358 -0.13026352 0.1480469
0002b0 3b 28 93 3e a1 86 85 3e f2 9a 9e 3e 5c 32 96 bc
       0.2874163 0.26079276 0.3097759 -0.01833456
0002c0 da 6b 6c 3d a9 18 58 3e 56 fd ce bd 11 88 bf bd
       0.057720043 0.21103157 -0.10106914 -0.093521245
0002d0 aa b4 b3 bc 69 02 1e 3e 50 68 18 be b3 b1 86 bd
       -0.021936733 0.15430607 -0.14883542 -0.06576862
0002e0 3b 9c 82 bc 30 12 d2 3c 30 d7 90 3e 1b 03 5e 3d
       -0.015943637 0.025643438 0.28289175 0.05420218
0002f0 5a 40 bd 3d 18 c5 c9 3d f2 24 c2 3d b4 28 03 be
       0.0924079 0.09852046 0.09479703 -0.12808496
000300 50 db de 3c c6 79 55 3e 0b 94 40 3e 74 41 0b be
       0.027204186 0.20847234 0.18806474 -0.13599187
000310 14 6f 87 3e 86 99 af 3b 8d 64 c6 bd 79 37 94 3d
       0.26451933 0.0053588776 -0.09687147 0.07237143
000320 5e f3 50 3e 42 5b 62 3e eb e7 d4 3b c6 d3 04 3e
       0.20405337 0.22105125 0.0064973733 0.1297141
000330 a4 bc 49 3e 5a 77 d0 3d ca 08 0b 3e 0c 5e 76 be
       0.19700867 0.101790145 0.13577572 -0.24059314
000340 10 ad 7c be 8f b3 41 bd 21 ec 89 3d b2 5d 65 3e
       -0.24675393 -0.04729038 0.06734491 0.22399023
000350 54 29 2a 3e 5a 15 83 be 02 c6 1c be 8f ff dd bd
       0.16617328 -0.25602227 -0.15309909 -0.108397596
000360 5a 2b 54 be bb df cf 3d 1f c2 2e be 50 6e 85 be
       -0.20719662 0.10150095 -0.17066239 -0.26060724
000370 d4 3a 22 3e 81 d3 eb 3d c9 3f 26 be 3f e1 9c bc
       0.15842754 0.115149505 -0.1623527 -0.019150374
000380 42 33 74 3d 1f f2 2d be ea 87 8e be b8 71 54 3d
       0.059619196 -0.16986893 -0.2783807 0.051866263
000390 1d 2d 1b bd 75 d2 96 be 49 08 a5 3e 78 9e 68 3d
       -0.03788482 -0.2945744 0.32232884 0.056791753
0003a0 91 a0 25 3d fa 00 a0 3e 49 83 f2 bd da ec 1e 3d
       0.04043633 0.31250745 -0.11841447 0.038800098
0003b0 ca 8d 6a 3e f8 27 7f 3d 27 5a 08 bc ee 6f 9a 3e
       0.2290565 0.062293977 -0.008322275 0.3016352
0003c0 4d 32 53 bd 50 7f b5 3d 74 88 ac bd 16 3e e4 bd
       -0.051561642 0.088621736 -0.08424464 -0.111446545
0003d0 61 a7 7b bc c2 a3 4c be cd 54 37 3e ee 1c b4 bd
       -0.01535973 -0.19984344 0.17903443 -0.087945804
0003e0 c8 54 80 be 29 13 87 3e 77 ba 8d be 30 81 50 3e
       -0.25064683 0.26381806 -0.27681324 0.20361781
0003f0 4c a3 0d bd 9d ef ae bd c6 99 6a 3e d8 00 0f be
       -0.03457956 -0.08541796 0.22910222 -0.13965166
